code/spaceinvaders_stripped_network.params (torch_old, 267603 bytes, 13 tensors)

conv1.weight f4 [16, 4, 7, 7]
000000 f8 60 c0 3c 3e 76 9c 3d 00 da dd bb 78 20 64 bd
       0.023483738 0.076397404 -0.0067703724 -0.055695027
000010 28 5b a4 bc 78 15 6a bc c5 ce c1 bc c8 b4 95 3d
       -0.020062998 -0.014287345 -0.023658166 0.07309872
000020 4a 01 8e 3d ed 77 11 3d cc ce 9f bb df df 9a 3d
       0.069338396 0.03551476 -0.004876947 0.07562231
000030 fb 61 06 3a ec b2 06 bc b0 67 29 bd fa 01 32 3d
       0.00051262946 -0.008221369 -0.04135865 0.043458916
000040 d0 bc ad 3c 52 4c 89 3d bc 8d bf 3c 5c 23 98 3c
       0.021208197 0.0670401 0.023383014 0.018571548
000050 09 60 b9 3d 49 9d 54 3d 7c 60 59 3d 65 dc e4 3d
       0.090515204 0.05190781 0.05307053 0.111748494
000060 93 88 03 3d 88 24 64 3d 74 d8 b9 3d 4d 90 68 bd
       0.03211267 0.0556989 0.09074488 -0.05677824
000070 7b 14 fd 3c b5 fc dd 3d ba 84 4f 3d a4 a4 f8 3d
       0.030893555 0.10839216 0.050663687 0.12140778
000080 08 11 30 3b 06 4e 02 bc d4 bf ea bc 24 26 29 3d
       0.002686562 -0.007953173 -0.028655924 0.04129614
000090 07 96 be 3d d4 fa 16 3e 54 51 e0 3d f6 27 8f 3d
       0.09305959 0.14744121 0.10953012 0.06990044
0000a0 b1 32 70 3c 72 30 43 bd 50 5e 55 3d 86 d4 c5 bc
       0.014660523 -0.047653623 0.052091897 -0.02414919
0000b0 6e 5f dc 39 6f 80 a3 bc 9a 05 85 3b 1c e9 a5 bc
       0.0004203277 -0.019958703 0.0040595056 -0.020252757
0000c0 20 a3 9d bd 8f 33 0d 3d 67 8c 5e 3d 26 9c e4 3d
       -0.07697129 0.034473 0.054333117 0.111625955
0000d0 24 46 19 3d 45 d7 bc bc 4f c5 57 3a 7f 11 9a bd
       0.037420407 -0.023051867 0.00082310004 -0.07522868
0000e0 5f b5 21 3d dc 4d d5 ba b5 bc 23 bd 44 03 00 bd
       0.03947961 -0.0016273814 -0.039974887 -0.031253114
0000f0 e7 69 b7 3d ff d8 a3 3d 66 b1 0d bd b6 86 84 3c
       0.08955746 0.08000373 -0.03459301 0.016177516
000100 6a f1 80 3d 82 f4 89 bc e3 c3 de 3c 12 d0 b1 3d
       0.06296046 -0.016840223 0.027193015 0.086822644
000110 4d c2 d5 3d 87 a0 ee 3d 42 0e 4d bd 79 4a c7 3b
       0.104374506 0.11651712 -0.050062425 0.006081876
000120 a1 9b a7 3d cd 94 e5 3d 33 17 00 3e 36 d7 07 3e
       0.08183981 0.11210022 0.1250885 0.1326569
000130 c7 bf 9d 3c 5d bd ea 3a 04 27 c8 3d 51 20 25 3d
       0.019256486 0.0017909218 0.09773067 0.040314022
000140 fa 85 ac b9 43 78 00 3e 20 6a fb 3d 1a 98 5e bd
       -0.00032906217 0.12545876 0.12276101 -0.054344274
000150 b6 b0 bb 3d 21 7f cb 3d 18 95 a3 3d cb e5 58 3d
       0.09164564 0.09936357 0.07987422 0.052953523
000160 6f ba 9c 3d 9d 0a 8f bc db 9a 44 3c b9 58 98 3d
       0.07652747 -0.017461115 0.011999811 0.074387975
000170 19 72 8a 3d 32 7e 9e 3d 2b a7 3f bd a1 ee cb bd
       0.06760044 0.077389136 -0.046790283 -0.09957624
000180 aa 54 f4 bc 5f 8c 23 bd 4e e6 6c bc f3 71 e7 bc
       -0.029825527 -0.03992879 -0.014459206 -0.028252577
000190 8a e4 00 3e 5d 01 79 3d 1d e5 55 bd 9d 1d 77 bd
       0.1258718 0.060792316 -0.052220453 -0.060330976
0001a0 df e3 f5 bd 78 68 e1 3c 3d 04 70 3c 41 d4 96 bc
       -0.120063536 0.027515635 0.014649448 -0.018411757
0001b0 1a 00 d2 3c bd 0d 87 3d 7e 6c 0b 3d e3 f2 22 3d
       0.025634814 0.06594417 0.034039013 0.039782416
0001c0 a5 6c 23 bd b7 76 c7 3d e5 84 6f 3d e2 db 75 bc
       -0.039898533 0.0973944 0.058476347 -0.015006037
0001d0 65 b6 4c 3d c3 cc a6 3d 44 da 4c 3d 1a 36 9a 3c
       0.049978632 0.08144524 0.05001284 0.018824626
0001e0 a8 ad 27 3d 41 d8 2e 3d 89 6f b7 3c d2 7d d3 3d
       0.040937096 0.042686705 0.022392051 0.10326733
0001f0 4b e6 15 3d df c8 01 bd a7 c1 fe 3c 04 7f 00 3c
       0.036596578 -0.031685706 0.0310982 0.007842783
000200 5f 6e 87 3d 8c 77 47 bc 22 22 49 3d 72 db 07 3e
       0.066128485 -0.012174498 0.049104817 0.13267305
000210 5f d5 7c bc ae a2 3e 3d 74 07 10 3e 79 f5 c2 3d
       -0.015431731 0.046541862 0.14065343 0.095194764
000220 2c e3 83 3d 4f da 5c 3d 19 7e 55 3d 1d 31 07 3d
       0.06439814 0.053919133 0.05212221 0.033005822
000230 6f 0a cc 3d 30 9e 87 3d 2b 06 ff 3d e1 27 71 b9
       0.099629276 0.06621969 0.12452348 -0.00022998407
000240 da e5 e4 bd 4e 15 c2 bd cf 37 6b bc 7d 0b 75 3d
       -0.11176653 -0.0947672 -0.0143565675 0.05982541
000250 58 47 14 bc 3b fd 59 3c 40 1a 1b bd 22 90 90 bd
       -0.009050213 0.013305004 -0.03786683 -0.07058741
000260 93 7e 52 bd 22 b7 54 3b 47 0e 92 3d 47 21 b1 3c
       -0.05139024 0.0032457788 0.071316294 0.021622313
000270 53 2e e2 3d 5d 6c f8 bb a9 b2 44 3d 1e 91 38 3d
       0.11043992 -0.0075812773 0.048021946 0.04506027
000280 c2 aa ab bb 0f d1 78 38 36 1f 01 bd 1f c4 de bc
       -0.005238862 5.932251e-05 -0.031523906 -0.027193127
000290 24 4f 2d 3d d7 6a 2c 3d 8d 31 0e 3d 05 1b 58 3d
       0.042311803 0.042094078 0.034715224 0.052760143
0002a0 6b 9d 83 bd d0 72 1e 3b 9d 66 b5 3d f3 b4 00 3d
       -0.064265095 0.002417732 0.088574626 0.031422567
0002b0 fd 2a de 3d ea 0c cc 3d 95 13 81 bd 68 94 a0 3d
       0.10848043 0.09963401 -0.06302563 0.07840806
0002c0 f6 b2 80 3b a7 9d 31 3d d4 65 a5 3d d0 41 d5 bc
       0.003927584 0.04336324 0.08076063 -0.026032358
0002d0 80 28 e5 3d b0 94 7b 3c 71 b0 b3 3d c2 a6 af 3d
       0.111893654 0.015355274 0.08773888 0.085767284
0002e0 4c 92 c3 3d 60 30 44 3d 84 c1 7f 3c a0 85 8d b9
       0.09549388 0.047897696 0.015610103 -0.00026993174
0002f0 2a 8a a6 bd 65 5d 88 3d 16 83 93 3d b4 d5 bd 3d
       -0.081318215 0.066584386 0.07202737 0.09269276
000300 0a 22 75 bd e8 f1 1a bd b3 fc e1 bd a6 d4 bd bd
       -0.059846915 -0.037828356 -0.11034527 -0.09269075
000310 62 b0 08 bd 34 02 cb 3c 5f 86 ea bc b6 02 b4 3c
       -0.033371337 0.024781324 -0.028628526 0.021973949
000320 cd 77 8d 3d 4b a7 a1 3d 54 98 bd bd 71 63 82 bd
       0.06907616 0.07893237 -0.0925757 -0.06366623
000330 ff 80 93 bc f6 33 8b 3d 75 24 af bc 80 1b ca 3d
       -0.018005846 0.0679702 -0.021379689 0.098685265
000340 99 e4 7f 3d 73 8d 83 bc 36 2d 89 bb 88 70 f4 3b
       0.062473867 -0.01605866 -0.0041862978 0.007459704
000350 4d 57 95 3c 16 09 87 b8 ee 19 4e 3d 06 af 5b 3c
       0.018230105 -6.438994e-05 0.050317697 0.013408428
000360 1a 72 a7 bd 40 9a 35 bd a4 b7 b0 3d 35 0d 40 bd
       -0.0817606 -0.044336557 0.08628777 -0.046887595
000370 cb 8b b9 3c 23 70 f6 3d 05 c4 0e 3d 71 9e 85 3b
       0.022649666 0.12033107 0.034854908 0.0040777256
000380 44 e3 7d bc 87 61 17 3e 75 59 9d bb e3 86 1b 3d
       -0.015496079 0.14783297 -0.004801924 0.037970435
000390 c3 9c 8d 3d 22 6c 7b 3d ba e7 81 3d 22 25 c0 3d
       0.069146655 0.06138242 0.063430265 0.093820825
0003a0 ea 49 c5 3d 48 b2 00 3e 01 ac 04 3e 64 93 64 3d
       0.096332386 0.12568009 0.1295624 0.055804625
0003b0 6b e9 d9 3d 06 7d 9d 3b 78 f2 80 bc c5 1f 83 3d
       0.10640224 0.0048061637 -0.015740618 0.06402544
0003c0 d9 ce 84 3d d5 6b b4 3d 5b 58 d7 3c f7 f6 7c 3d
       0.064847656 0.0880963 0.026287248 0.06175896
0003d0 0b 0f 32 3d ca 32 3a bd f2 b6 e3 3c 56 8c 5d bd
       0.043471377 -0.045458592 0.027797196 -0.054088913
0003e0 51 9c ef 3c 71 28 e3 3c a7 fe 45 bb ea c3 96 bc
       0.029249342 0.027729245 -0.00302116 -0.018403966
0003f0 17 88 39 3d 9f 46 d3 bc a6 5c e3 bc e5 e3 fd bc
       0.0452958 -0.02579051 -0.02775414 -0.030992458

conv1.bias f4 [16]
000000 5f 73 27 3d d5 6f c5 3c 3d a9 cd 3a 2f fb 51 3d
       0.04088151 0.024101177 0.0015690696 0.051264938
000010 25 61 02 3b e0 81 d3 3d 3a 00 9c 3d f1 39 76 3d
       0.0019894328 0.10327506 0.07617231 0.06011385
000020 03 21 01 3c d3 f2 83 bc e7 fa 17 bc 1a 54 c5 3d
       0.007881406 -0.016106999 -0.009276128 0.09635182
000030 64 b1 63 bd ce 4e cd bd 11 31 72 3c 47 5f 58 3d
       -0.055589095 -0.100247964 0.014782206 0.05282524

conv2.weight f4 [16, 16, 5, 5]
000000 3f 2a 9d bd e0 f6 99 bd 93 12 2f 3d 65 8f 9f 3b
       -0.076740734 -0.07517791 0.042742323 0.004869389
000010 06 71 b1 3d 76 6a 5c 3c 10 12 48 bc 54 ea 25 bc
       0.08664136 0.013453117 -0.012211338 -0.010126669
000020 53 c2 fd 3d ae eb 74 3d b8 da 84 bd 0c 39 0e 3d
       0.1239058 0.059795074 -0.0648703 0.034722373
000030 a7 93 01 3c 53 9d cc 3b e3 d5 80 3d 48 0f 26 bd
       0.007908738 0.0062443404 0.06290796 -0.040541917
000040 90 08 87 bd 98 f5 85 3c 4e 54 4a 3b 04 3e b4 3c
       -0.0659343 0.01635246 0.0030873003 0.022002228
000050 63 41 93 3b c7 0b e0 3c f4 71 c4 3d ab 7f 52 bb
       0.0044938787 0.027349366 0.09592047 -0.0032119553
000060 9d 29 c9 3b 93 78 17 bd 8d 18 28 3d 6d 31 66 bd
       0.006138994 -0.036980223 0.04103904 -0.05619948
000070 c8 ac 74 3d 79 ad 92 3d 78 03 aa bc 32 d2 2b 3d
       0.05973509 0.071619935 -0.020753607 0.041948505
000080 6b bc 5b 3d 46 46 f4 3d d0 1e 2c 3d 7e 27 04 bd
       0.053646486 0.11927466 0.042021573 -0.032264225
000090 53 6a e0 bc 86 58 68 bd 34 9a 55 3c 15 af 61 bd
       -0.02739445 -0.056725048 0.013037253 -0.05509861
0000a0 1c f7 ed 3c d5 17 65 3d 11 e9 9a 3d bf b1 a9 3d
       0.029048495 0.05593093 0.07563985 0.082858555
0000b0 71 01 69 3c a9 32 19 3d 63 35 14 3d 06 cd 0a bd
       0.014221535 0.03740183 0.036183726 -0.03388693
0000c0 16 1f a9 bc b7 66 52 bd 9b 92 5f 3d 9f e9 25 bd
       -0.020644706 -0.051367488 0.054583173 -0.040506
0000d0 2e 53 30 3b a4 b9 f8 3d b6 3d b5 3c aa 6b cd bd
       0.0026905048 0.12144783 0.022124153 -0.10030301
0000e0 cb 13 fd 3c 79 76 80 3d a3 e9 a9 3d 13 f1 d6 3d
       0.030893227 0.06272597 0.08296516 0.104952
0000f0 46 c6 c6 3c d7 3c 50 3b c1 82 4c 3d 17 1e da 3d
       0.024264466 0.0031774545 0.049929384 0.106502704
000100 61 75 a4 3d c6 72 b4 bc ba d7 ff 3c c7 06 ae bb
       0.08030201 -0.022027384 0.031230796 -0.0053108665
000110 15 73 c0 bc 9f 41 40 3d fc 90 60 3d 77 69 df 3c
       -0.023492375 0.04693758 0.054825768 0.02727197
000120 79 50 2c 3d 29 22 37 3d 21 52 95 3d 47 cd 56 3d
       0.042068932 0.044710312 0.072910555 0.05244186
000130 0c 06 52 3d c2 5d 25 3d af 35 ba 3d 26 6a 76 bc
       0.051275298 0.040372618 0.090922706 -0.015039956
000140 5b 3e 15 3d 94 33 9e 3c ef 97 a9 3d d9 1d 7a 3d
       0.03643642 0.019311704 0.08280932 0.06106362
000150 d6 c8 56 3d ac c7 5f 3d 11 2d 0a 3d 7a 7c ae 3c
       0.052437626 0.05463378 0.033734385 0.02129959
000160 01 fd 7d 3c b5 b8 1b bd 5d f2 70 3c be c2 52 3d
       0.015502215 -0.038017947 0.014706221 0.051455252
000170 93 45 df 3c 74 ef 79 bc 47 57 13 bd 96 44 93 3d
       0.027254855 -0.015254844 -0.035971906 0.07190816
000180 a6 9f 42 3d 51 f4 fb 3d 6f 95 9a 3d ed 98 4e bd
       0.047515534 0.12302459 0.075480334 -0.05043881
000190 aa cb 1d bd ba 59 02 bd 10 c5 c5 3b 8f cf d5 3d
       -0.038524307 -0.03182385 0.0060354546 0.10439979
0001a0 39 87 58 3c c4 73 26 bd 01 be 0e bd af 48 81 3d
       0.013215833 -0.040637746 -0.03484917 0.063126914
0001b0 2b 6a e1 3d de c0 86 3c 4a 05 1b bd d3 9f 09 bd
       0.11006578 0.016449388 -0.03784684 -0.033599686
0001c0 84 64 06 3d a4 a3 6e 3d 8e ab 4e bd b8 c1 61 bd
       0.032810703 0.05826153 -0.050456576 -0.055116385
0001d0 df 1f 7d bd 01 47 e9 3c 54 21 8c bb 5c ec 3f 3c
       -0.061797973 0.02847624 -0.004276434 0.011714067
0001e0 4f 48 96 3c 27 9e 49 bc 3a 02 e3 3a 96 66 b4 3c
       0.018345026 -0.012305773 0.0017319389 0.022021573
0001f0 d4 13 23 bd c5 68 2f 3d c3 99 09 bd e4 8e 7e 3d
       -0.03981383 0.042824525 -0.033593904 0.06214799
000200 7e 1f 89 3d 86 9a af 3d 73 a4 08 bc eb d7 ab 3d
       0.0669546 0.08574395 -0.008339989 0.083907925
000210 c4 bd a7 39 29 cb 5b 3a e7 2e 67 3d b3 fe ef b8
       0.0003199411 0.000838446 0.056441214 -0.000114438495
000220 90 03 4c 3d 80 f2 83 3d fb 12 eb 3d d7 30 dd 3d
       0.049808085 0.064427376 0.114782296 0.10800331
000230 46 dc 66 3c ef 93 ed 3c 76 c5 0e 3d 42 a1 3a 3d
       0.014090603 0.029001204 0.034856282 0.045563944
000240 99 64 a8 bc 76 0d 6e bb c7 58 9c bc 0b 6e ec 3d
       -0.020555781 -0.0036323941 -0.019085301 0.115444265
000250 47 cd 59 3d c5 d6 46 3d 5d 28 17 bc 1b 95 94 bb
       0.053174283 0.048544664 -0.009225932 -0.0045343763
000260 c8 04 b0 3c d8 78 bc 3d 54 d5 c5 bc 88 ec 21 3d
       0.021486655 0.092027366 -0.024149574 0.039532214
000270 d2 f1 8d 3d 8d 37 df 3d a8 b9 96 3d e9 07 a7 3d
       0.06930889 0.10899267 0.0735963 0.081558056
000280 71 8f 91 3c b7 84 87 3d 6a 17 04 bc dd aa 08 bd
       0.017768594 0.0661711 -0.008062223 -0.033366073
000290 cd 15 b6 bc 7f 63 cd 3c 88 96 3c 3d aa 3a 8e bc
       -0.022227192 0.025071857 0.046041995 -0.017361958
0002a0 5c 16 a4 3d 77 7d a2 bc 73 b5 42 3d b3 03 ce 3d
       0.08012077 -0.019835217 0.047536325 0.10059299
0002b0 59 41 94 3d c7 f3 c1 3c 2d 95 7d 3c aa db ae bc
       0.072390266 0.023675812 0.015477461 -0.021344978
0002c0 e1 27 04 bd bf 7a 0e 3c e6 ab d9 3d c1 6c cc 3d
       -0.032264594 0.008696257 0.1062849 0.09981681
0002d0 1e a1 95 3c de 35 53 bd 9e 46 63 bc ef 26 8f 3d
       0.018265303 -0.051565044 -0.013871817 0.06989848
0002e0 b8 37 c0 3c 94 23 42 bc 09 97 81 3d ff 52 d4 3c
       0.023464069 -0.011849303 0.06327636 0.025918482
0002f0 05 d9 11 3e 3d 04 80 3d ce 66 24 bc 9f 55 6c bd
       0.14242943 0.062508084 -0.010034276 -0.057698842
000300 93 43 5e bd 21 bd c8 3c 57 99 2d 3b ca b4 48 3d
       -0.054263663 0.024504246 0.0026489103 0.04900054
000310 a8 4f 17 bc 75 d7 73 3d b9 05 c6 3d 55 fe 86 3d
       -0.0092353 0.059531648 0.0966906 0.06591479
000320 9f a9 83 bc a4 46 fe 3c 8f c7 84 3d 98 b1 e1 3d
       -0.016072093 0.031039543 0.06483375 0.110202014
000330 6a 8f 5e 3d e0 f2 9d 3c 2d 68 f4 bc 2e 8a e4 3c
       0.05433599 0.01928085 -0.029834831 0.02789792
000340 ca 86 a9 3c 59 4a 15 bd 20 e7 c1 bc 41 37 73 3c
       0.020694155 -0.036447857 -0.02366978 0.0148447165
000350 75 a5 79 3d 79 a3 b1 3d 43 49 88 3d 17 ec 86 bd
       0.060948808 0.08673758 0.066545986 -0.06587999
000360 f7 65 0c bd 4f f4 18 bd 19 91 b5 3c 35 c6 7c bd
       -0.03427693 -0.037342366 0.022163915 -0.061712462
000370 85 0f 9f bc 1b 5b fd 3a 4a 8f 80 3d fa 36 a4 3d
       -0.01941658 0.001932952 0.0627733 0.080182984
000380 f7 34 1f 3d f4 5e cd 3c 3e d0 dd bb 4a 10 4b bc
       0.03886887 0.025069691 -0.006769209 -0.01239402
000390 44 43 60 3d f3 04 a9 3d c4 7b db bb eb 22 69 3d
       0.05475165 0.08252897 -0.0066981036 0.056918066
0003a0 d3 6f d3 3c 96 b7 99 3d 88 31 1e 3e a3 bd db bc
       0.025810158 0.07505719 0.15448582 -0.026823824
0003b0 a7 f1 2f 3c 56 96 ff 3c 90 3a ba bc dd 6c 1c 3b
       0.010738767 0.031199615 -0.022733003 0.0023868599
0003c0 98 bd b2 bd 28 6d 1a 3d 14 63 16 3d e2 ee 62 3c
       -0.087275684 0.037701756 0.036715582 0.013850899
0003d0 11 86 38 3d d2 08 09 3d 6e 0d c2 3c 70 87 a1 3d
       0.04504973 0.033455677 0.023688044 0.07887161
0003e0 65 73 49 3d d4 e6 01 bd 91 2d ad bd 22 ae 31 bd
       0.049182314 -0.031714275 -0.08455957 -0.043378957
0003f0 48 3d 00 bc 58 9a 07 3d 7a b8 05 3c 8e 9b 59 3d
       -0.007827111 0.033106178 0.008161658 0.053126864

conv2.bias f4 [16]
000000 a8 ea 20 bb 9b 03 92 3d 67 53 96 bc 32 82 54 bc
       -0.0024553929 0.07129594 -0.018350316 -0.012970494
000010 3b f5 64 3d eb f9 97 bc ec af 16 3d 44 34 a8 3d
       0.055897932 -0.018551787 0.036788866 0.08213094
000020 e2 f1 7f 3c f8 56 34 3d 33 d8 a3 3d 60 3f e4 bc
       0.015621634 0.044028252 0.08000221 -0.02786225
000030 88 9e 28 3c 8f d2 a5 3d 04 7a d1 bc 46 7a 59 3d
       0.010291703 0.080968015 -0.025570877 0.053095125

conv3.weight f4 [16, 16, 3, 3]
000000 9d e9 ae 3d 9f 59 8a bc 31 14 ce bc 9a 36 02 3e
       0.08540652 -0.016888438 -0.025156112 0.12716141
000010 15 8d 3d 3d 2b b4 b3 bd 2a c9 95 bd d8 c4 38 3d
       0.046277124 -0.08774599 -0.073137596 0.0451096
000020 e8 15 23 bd b2 d7 a9 bc 4f b6 10 3e 0d 04 14 bd
       -0.039815813 -0.020732734 0.14132045 -0.036136676
000030 31 14 41 bd a8 a0 e9 3d af aa a5 3d 91 0a cf 3c
       -0.047138397 0.11407596 0.08089196 0.025273593
000040 8d dc 10 3e a7 57 8d 3b 84 e0 07 3e 5d ae 1f 3c
       0.14146633 0.0043134275 0.1326924 0.009746161
000050 ec 0a aa bd 78 87 32 3d dc 5d b3 bc 07 07 53 bc
       -0.083028644 0.043586224 -0.021895342 -0.012880093
000060 b7 d5 1d 3c 38 30 03 3d b4 6e 21 bd 77 75 9e 3c
       0.009633473 0.032028407 -0.039412215 0.019343121
000070 1b 1d 22 bd 61 f0 a9 bc 50 59 7d 3d 9e 18 b2 3d
       -0.03957854 -0.020744504 0.061852753 0.086961016
000080 35 d9 9c 3d a6 d2 43 3c 95 94 8e 3c 3f 70 2f 3d
       0.076586165 0.011952078 0.017404834 0.042831656
000090 01 2b fb 3b db be 56 3d dd 7f a3 3c 59 72 a1 bc
       0.0076650386 0.052428108 0.01995843 -0.019707846
0000a0 c3 74 b2 3c 24 ed 73 bd ec f2 d6 bc 81 2a a3 bc
       0.021784192 -0.059552327 -0.026238881 -0.019917728
0000b0 82 e6 a1 3b 26 60 e6 3c 62 ca a9 3d 93 4c 3d bd
       0.0049408088 0.028122019 0.082905546 -0.046215605
0000c0 6e d1 8a 3c 61 06 8b 3c cd 3b 24 bd 1b 9e a5 3d
       0.016945567 0.016970815 -0.040096093 0.08086797
0000d0 43 ed 7c bd 55 51 9d 3d 8c 87 87 3b 5a 88 00 3c
       -0.061749708 0.076815285 0.0041360315 0.007845009
0000e0 35 94 2f bd 55 13 72 bd 11 95 3b 3c e8 1f a6 3d
       -0.04286595 -0.059100468 0.011449114 0.081115544
0000f0 a5 2a b1 3b 21 8b fa bc 11 a5 a7 3d fc 77 bd 3d
       0.005406695 -0.03058392 0.08185781 0.09251401
000100 51 c9 be 3d 67 40 f1 3d 2c 3d a7 3d b4 c3 4a 3d
       0.09315742 0.11779862 0.081659645 0.049503043
000110 1e ef a9 3d 1e 5f 5a bd 48 88 b7 bb b3 d6 61 bd
       0.08297561 -0.053313367 -0.005600963 -0.055136394
000120 b6 e4 c3 bc 67 99 7d bd da dd c8 3d 6d 51 82 3c
       -0.023912769 -0.061913874 0.0980794 0.015907967
000130 bc 5c 9a 3d 9c 29 11 3e ab 13 ea 3d 94 d2 8d 3d
       0.07537219 0.14176029 0.114295326 0.0692493
000140 01 66 e9 3d d2 ca 44 bd de 2b 1b 3e ac e0 8e bd
       0.11396409 -0.048044987 0.15153453 -0.069764465
000150 4c ae 9e 3d 91 85 32 3d 5d 2c 26 bd 96 46 5e bd
       0.07748088 0.04358441 -0.040569652 -0.054266535
000160 64 f0 87 bc d4 fd 3a 3d b6 c7 c3 3d 3b 0e d2 3d
       -0.01659412 0.045652226 0.09559576 0.102566205
000170 c5 0b b3 3d 2f c9 b8 3d eb 76 6f bd 8b 6e 4c 3d
       0.08742479 0.09022748 -0.05846302 0.04991011
000180 58 6c 81 3c f4 12 7f 3d b1 57 87 3c fb e5 6e bb
       0.015798733 0.062273934 0.016521307 -0.0036452997
000190 c8 af c3 3d 6c fa 2b bc 95 06 9c bd 33 23 21 bd
       0.09555012 -0.010496717 -0.07618443 -0.03934021
0001a0 39 b5 a9 3d b7 87 99 3c 03 6d 36 bd 6b 98 0b 3c
       0.082865186 0.018741472 -0.044537555 0.008520226
0001b0 5c 19 27 bd 64 2a 23 bd 37 24 ef 3d a9 3d 2b 3d
       -0.04079567 -0.03983535 0.11676829 0.04180685
0001c0 70 82 ec 3d db 83 21 3c a0 6a 05 be 85 f3 01 be
       0.115483165 0.009858097 -0.13028955 -0.12690552
0001d0 99 25 76 3d 30 ed 63 bd a4 9a dd 3d 98 d5 5b bd
       0.06009445 -0.05564612 0.10820511 -0.053670496
0001e0 16 a1 8f bd 4b 7d 53 3d 1b 44 3c 3d 5f 8a 81 bc
       -0.070131466 0.05163316 0.045963388 -0.01581305
0001f0 92 35 4c 3b 8b 8d 3a bd 99 bd bc 3b 40 0f 95 3d
       0.003115986 -0.045545142 0.0057599065 0.07278299
000200 c1 bd 92 bd b5 1f bb bc f7 1b 81 3b 4e 50 15 3c
       -0.07165099 -0.022842268 0.0039401012 0.009113384
000210 a0 44 58 3d 70 4e 96 bd 4f 63 4c 3c 85 b8 82 3d
       0.05279982 -0.073391795 0.012474849 0.063828506
000220 bc b4 8b 3d 7e ef a7 3b f4 21 de 3d 50 87 59 3c
       0.06821582 0.0051249852 0.1084632 0.01327689
000230 91 7a 48 3c 52 d7 63 3d ff ac 40 bd aa 83 7a bd
       0.012236253 0.055625267 -0.047039982 -0.06116072
000240 ff 43 ea 3d 9b 9f 07 3e 0a b9 ea bc 78 6f 9e 3d
       0.114387505 0.13244478 -0.028652687 0.07736105
000250 fb e6 fd 3a 54 bf 3d 3c f2 43 53 3d 60 82 90 3d
       0.0019371206 0.011581261 0.05157847 0.07056117
000260 4f 35 8f 3d e6 c3 6c 3d 71 1b c6 3d 8b 68 15 bd
       0.0699259 0.05780401 0.09673203 -0.036476653
000270 f3 b2 6a ba c5 58 0a 3e 00 10 37 3d fd a4 7e 3c
       -0.0008953057 0.13510425 0.044692993 0.015542266
000280 81 cf 11 bc e6 6f a6 3d 24 46 06 3e 37 ec a5 3d
       -0.00889957 0.08126812 0.13112694 0.08101695
000290 76 d1 80 3d 97 84 f9 3d 53 a8 f5 3d 97 30 44 3d
       0.062899515 0.12183493 0.11994996 0.0478979
0002a0 5c f6 a3 3d 53 0c 35 3d df 27 4d 3d f5 ef 8b bd
       0.08005974 0.044201206 0.050086852 -0.068328775
0002b0 79 8f 5c 3d 3e dc 06 3c e9 97 a6 3d 44 32 17 3d
       0.053847764 0.008231221 0.08134443 0.03691317
0002c0 24 ed 85 bd da 29 f0 3d 85 3a e0 bc 85 25 81 bd
       -0.065393716 0.117267326 -0.027371654 -0.063059844
0002d0 87 af 14 bd 4a ea c3 3d 47 44 02 3d dc d5 38 bd
       -0.03630021 0.095661715 0.031803396 -0.045125827
0002e0 3c 60 cf 3d fc 21 a7 3d 6a ce 11 3e ee 01 be bd
       0.10125777 0.08160779 0.14238897 -0.09277712
0002f0 d2 69 2b bc 92 be 2c 3a 81 47 8a 3a fd 1e 29 3d
       -0.010462241 0.00065896765 0.0010549874 0.04128932
000300 c9 d0 03 3e 40 4f 00 3d 16 8f de 3d 44 64 54 3d
       0.12872614 0.03132558 0.10867135 0.051853433
000310 cd 57 87 bc b0 46 c5 3c f8 0c 84 3d be a0 fc 3d
       -0.016521359 0.024081558 0.06447786 0.12335347
000320 e3 f7 d5 3c 93 8d 4d 3c 99 b9 2c bb 51 18 b8 bc
       0.026119178 0.012545961 -0.0026355742 -0.022472532
000330 a6 4f 98 3c ff 18 b7 3d 25 b9 d2 3b e5 cb 94 3d
       0.018592667 0.089403145 0.0064307624 0.07265452
000340 c6 4b ec 3b 94 d7 b4 3d 28 55 fe bc 48 df 4e 3d
       0.0072111813 0.08830181 -0.031046465 0.050505906
000350 f8 b1 bd 3d 47 bf fe 3c 26 dc 41 bd ba 38 e5 bd
       0.092624605 0.031097068 -0.04732909 -0.1119246
000360 a5 69 ef bc da 7b a4 bc b1 80 dd bd 28 cd fc 3d
       -0.02922518 -0.020078588 -0.108155616 0.12343818
000370 c4 01 bb 3d 22 f3 b4 3c 22 d9 f2 3d 6d 99 52 ba
       0.09131196 0.022088591 0.11857821 -0.00080337265
000380 26 c1 a2 3d 12 a3 e8 3d d4 62 bf 3d 9b 0f d7 3d
       0.079469964 0.11359228 0.09345022 0.105010234
000390 58 6e 04 3c 07 d9 58 bd 17 bc cb 3d 42 ca 64 bd
       0.008082949 -0.05294135 0.09947985 -0.05585695
0003a0 ee 7a 4b bd 3f d4 d7 3d bd f3 9b bc 79 a8 47 3d
       -0.04967778 0.105385296 -0.019037122 0.048744652
0003b0 ee 79 a5 ba 9f cb 47 3d d7 50 f9 3c 3d df 48 3d
       -0.0012624839 0.048778173 0.030434055 0.04904102
0003c0 94 aa dd 3d 44 0b b2 bc a7 da 6b 3d 23 4d 95 bc
       0.10823551 -0.021733887 0.05758157 -0.018225258
0003d0 54 86 9c bc 49 7a 8b 3d 3d 46 c9 bc 53 ac fa 3d
       -0.019107021 0.068104334 -0.024569625 0.122398995
0003e0 af f5 59 3c a3 a2 c0 bc 08 24 dc bc e5 02 82 3d
       0.013303204 -0.023515051 -0.02687265 0.06348208
0003f0 13 84 24 be 72 5a ec 3c 4a 3e 20 3d f5 4f 18 be
       -0.16066007 0.028851721 0.039121903 -0.14874251

conv3.bias f4 [16]
000000 76 6a dd bc a9 9f 84 bd ce 4f b6 3d 9f b8 df 3d
       -0.027028304 -0.06475765 0.0890194 0.109238856
000010 d0 c1 83 bd 15 18 87 3d 3c 2f b4 3d 59 06 6a bd
       -0.06433451 0.0659639 0.08798072 -0.05713496
000020 44 a5 a4 3d 7b e1 e3 bd 60 31 f5 3d 3a 52 a6 bd
       0.080393344 -0.11126991 0.11972308 -0.08121152
000030 bb 07 fb bd a1 28 96 bd e3 5f ca bd 42 56 0a 3e
       -0.12257334 -0.07331968 -0.0988157 0.13509467

conv4.weight f4 [16, 16, 3, 3]
000000 7b bf e1 bd c6 4a e3 bd 2b 2c bb 3c 5e a5 af 3c
       -0.1102285 -0.11098246 0.02284821 0.021441158
000010 7f 22 b0 bd 3e ad 32 3d 32 15 c1 bc be 9e b9 bd
       -0.086003296 0.043622248 -0.023569677 -0.09063481
000020 66 3f 32 3d e0 1a 05 3d 7c 2c 97 bd d2 8c 62 bd
       0.043517493 0.032496333 -0.073815316 -0.055310078
000030 79 7f d2 bc 44 b2 6f bd f3 94 ed bc e6 04 be 3b
       -0.02569555 -0.058519617 -0.029001689 0.005798924
000040 35 29 99 3c 91 26 85 3d ad 01 cb bd 45 9b 79 bd
       0.018696407 0.065014966 -0.09912429 -0.060939092
000050 93 1a 8b bd 14 c5 c2 3b fc 75 c1 bd 02 69 02 3d
       -0.06792178 0.0059439037 -0.09446332 0.031838425
000060 18 cb 14 3d d3 62 4c 3c fa 85 70 3d 6c 83 91 3d
       0.036326498 0.012474733 0.05872152 0.07105145
000070 b4 3c 5d 3c b1 9f 01 bd f3 7d a5 3c 3e 9b 6b bd
       0.013503242 -0.031646434 0.020201659 -0.057521097
000080 e1 60 8f bd 50 11 72 3d 83 b4 54 3d 8b 91 6a 3b
       -0.070009 0.05909854 0.051929962 0.0035792317
000090 2f 2f 9e bd ec 2e 3f bc c7 b3 12 3e 54 de e0 3a
       -0.07723843 -0.011668902 0.14326392 0.0017156103
0000a0 fc 3f 8a bc 13 4b 88 3d 66 f1 fc 3c bb c9 b8 3d
       -0.016876213 0.06654944 0.030876826 0.09022852
0000b0 4b 88 6d 3d b4 0a 92 bd 07 a5 97 3d 79 e9 0c bd
       0.057991307 -0.07130948 0.07404523 -0.034402344
0000c0 f1 de f8 3c 58 09 d4 bc 92 b7 08 3d 28 29 f1 3d
       0.030379744 -0.025883362 0.03337819 0.11775428
0000d0 cd 14 be 3d 68 1c ed 3c 7c dd f0 bc 11 d0 0f 3d
       0.09281311 0.02894421 -0.029402487 0.035110537
0000e0 b3 db 95 3c 2b 21 0e 3d cf ba 0a 3d b5 a5 cd 3d
       0.018293237 0.0346996 0.03386956 0.10041372
0000f0 94 ca 5a bd 73 1a 0d 3d 99 ea 97 3d 9c b9 21 bb
       -0.05341585 0.034449052 0.07417793 -0.0024677282
000100 44 e4 85 bd 4d 4c 08 3d 81 46 ad bd 9d ee bf bd
       -0.06537679 0.03327589 -0.08460713 -0.09371684
000110 af 31 a4 3d 4e cb d5 bd 30 94 85 3d 42 c8 cc bb
       0.08017289 -0.10439168 0.06522405 -0.0062494585
000120 6c 3f 6c bd 81 20 86 bd 4b 10 ee bc c6 3a 8a bc
       -0.05767767 -0.065491684 -0.029060503 -0.016873728
000130 0f ae 37 bd 0c be bb 3d 66 cc 63 bb ae 0a 78 3d
       -0.04484373 0.09167108 -0.0034759282 0.06055706
000140 9a 7c 67 bd cd 8a dd 3c cd 57 81 3d 5a df 03 bc
       -0.056515314 0.027043724 0.06315575 -0.008048857
000150 8d 05 7a bd 4e 7b 0e bd 88 7d b0 bd 87 7e 84 3d
       -0.06104045 -0.03478556 -0.08617693 0.06469446
000160 8e 64 a7 3c 77 79 b4 bd ba e7 b2 bd 85 ee 8e 3d
       0.02043369 -0.0881223 -0.087356046 0.06979088
000170 6b a9 a6 3d a3 97 6f bc 34 f1 16 bd da ca 58 3d
       0.08137783 -0.014623555 -0.036851123 0.05292783
000180 3e 29 a8 3b 24 83 e2 bc 7d 68 f8 3c 7b 95 d4 3d
       0.0051318696 -0.027650423 0.030323261 0.10380074
000190 5e 0d a4 3d fb 70 bd bd 54 19 94 3d e6 26 58 3c
       0.08010362 -0.09250065 0.072313935 0.013192868
0001a0 69 e9 8c 3c c0 1d 94 bc f4 a0 98 bc 47 81 77 3d
       0.017201142 -0.018080592 -0.018631436 0.060426023
0001b0 b3 2f d1 3d 04 c0 0e 3d 25 eb 12 3b 6e 60 02 3d
       0.10214176 0.03485109 0.002241799 0.031830244
0001c0 68 79 71 3d 5c d0 12 be 1c 8c ea 3d c5 5a 9b 3c
       0.058953673 -0.14337295 0.11452505 0.01896418
0001d0 8d 45 86 3d b4 e2 16 3e c3 5b 31 3d f6 f2 34 3d
       0.065562345 0.14734918 0.0433004 0.044177018
0001e0 82 4e 69 bd 3b 24 9d 3d 26 71 33 bd 0a 31 33 3d
       -0.056959637 0.07672926 -0.04380908 0.04374794
0001f0 4c 6a 99 bd b9 83 9b bd 8a 78 96 3d 4f bd 80 bd
       -0.07490978 -0.075934835 0.0734721 -0.06286108
000200 93 83 10 3d 9e e3 9a 3d a4 d6 92 3d 40 15 14 bd
       0.03528173 0.07562946 0.07169846 -0.036153078
000210 0e 77 9d 3c 73 bf 9a 3d 75 0d 84 bd 5d 51 0e bd
       0.019221809 0.07556047 -0.06447879 -0.034745563
000220 3d bc 96 bd 93 34 85 bd 47 40 92 bd ed 1e 10 bd
       -0.07360122 -0.06504168 -0.07141166 -0.035185743
000230 41 e8 e3 3d ee c0 a9 bc 2c 28 fc bc 22 13 cd 3c
       0.11128283 -0.020721879 -0.030780874 0.025033537
000240 cf 00 d2 3c 62 86 80 3d 32 e9 91 3c cf 79 67 3d
       0.025635151 0.062756315 0.017811392 0.05651265
000250 70 4b 13 bb b7 a4 87 3d 09 ec c9 bd 85 37 3a 3d
       -0.0022475384 0.06623214 -0.09859473 0.045463104
000260 1e b6 16 bd af a8 c7 bc 47 e0 2c bd 00 d8 84 3d
       -0.036794774 -0.024372427 -0.042206075 0.06486511
000270 60 68 9e 3d 29 81 51 3d cd 38 9a 3d 54 de 41 bd
       0.07734752 0.051148567 0.07530365 -0.04733117
000280 15 61 8d bd 42 e6 a5 3c 1c 7d 5b bd 79 46 1b 3d
       -0.069032826 0.020251397 -0.05358611 0.037909005
000290 b4 d0 10 3d d5 41 28 bd 3e 06 90 bd b2 d4 4b 3d
       0.035355285 -0.041078407 -0.070324406 0.04976339
0002a0 85 47 95 bd 26 36 4b bc 8c 4a 80 bc 3a 13 96 3d
       -0.07289032 -0.012403047 -0.015660547 0.07327886
0002b0 70 d5 38 3d db 37 76 bd a8 82 a8 3c 58 36 07 bd
       0.045125425 -0.06011186 0.020570114 -0.03301081
0002c0 d2 cc 3b bd cb b8 5f 3d 7c 3b 23 bc de 6b 9f bc
       -0.04584963 0.05461959 -0.009962913 -0.019460615
0002d0 9a 2c 87 3d 8b 0f 63 3d 2b 6c aa 3d 61 aa 91 bd
       0.06600304 0.055434745 0.08321413 -0.07112575
0002e0 37 97 c9 3d b8 8d 20 3d 92 3f 9e bd d8 d2 bf bd
       0.09843295 0.039197654 -0.07726969 -0.09366387
0002f0 17 20 0d bd f1 97 c5 bd 28 b5 89 3d 87 ab 09 3e
       -0.03445443 -0.09648121 0.06724006 0.13444339
000300 68 cb 43 bd 80 2d c7 bc 6d 38 1b 3e 0d 7e 0e be
       -0.047801405 -0.024313688 0.15158243 -0.13915272
000310 6a c4 92 bc 82 6a e1 3c d7 58 d9 3c 67 74 8b 3d
       -0.017915923 0.027516607 0.02653162 0.06809311
000320 80 3f 9d 3d ec e3 d4 bd 0c cd 1d bd f9 8c b9 3d
       0.07678127 -0.10395035 -0.038525626 0.090600915
000330 4f c9 76 3c bc b5 8a bd 76 7f 8c bd 76 06 07 3d
       0.015062644 -0.06772944 -0.06860249 0.032965146
000340 69 bf 0b bd c1 ee 74 3d 17 21 84 bd 1b b4 87 3d
       -0.03411809 0.059798006 -0.06451624 0.06626149
000350 ce 2f 68 3d 25 cd 73 bd 91 0f 2b bd 36 2d c5 3d
       0.056686215 -0.059521813 -0.041762892 0.09627764
000360 d9 5e 46 3c 5c a9 79 bd 22 8a 93 3d 6b 9e b0 bd
       0.012107574 -0.06095253 0.07204081 -0.08623966
000370 01 fe 34 bc 35 45 b2 bb 37 b0 02 be 7e 6b 17 3d
       -0.011046887 -0.005440379 -0.12762533 0.036967747
000380 00 82 9e 3d 6b e0 c7 3d 84 0e e4 3c 39 35 62 3d
       0.07739639 0.09759601 0.027838953 0.05522654
000390 ef 60 a4 3c 14 33 89 3d 85 b2 de 3d f6 e1 b5 3d
       0.020065753 0.066991955 0.10873894 0.08880989
0003a0 6d e9 5b bc e7 cd 19 3d 0b f2 dc bc 69 13 03 3d
       -0.013422352 0.03754988 -0.026970884 0.032000933
0003b0 a3 15 d0 3c be 32 be bd 3f 7d 86 3d 37 85 19 bd
       0.025400942 -0.09287022 0.065668575 -0.03748056
0003c0 34 ca 10 bd b7 f1 84 bd 75 98 0e bd 2c 62 ab 3d
       -0.035349086 -0.06491416 -0.034813363 0.08368334
0003d0 75 64 87 3d 0e 4b 56 3d 04 72 1a bd 00 75 a9 3d
       0.066109575 0.05231767 -0.03770639 0.08274269
0003e0 97 bb 7b bd b9 d5 1b 3d 2c 96 d8 3d 45 ed de 3c
       -0.061458196 0.03804562 0.10575518 0.027212748
0003f0 55 d9 76 3d aa c6 91 3c 98 6e b3 bd aa 0a f2 bb
       0.060265858 0.017794926 -0.087613285 -0.007386525

conv4.bias f4 [16]
000000 c1 d4 82 bd 44 0f bc 3a fe d4 1b bd e3 50 df 3d
       -0.06388236 0.0014347811 -0.038044922 0.109041
000010 25 0b 07 bd 81 51 e6 3c e0 57 5a 3d a0 d7 96 3d
       -0.032969613 0.028115036 0.05330646 0.07365346
000020 1f 60 7e bd 2e 06 cb bd 57 0c 70 3c ce 1e a3 bd
       -0.062103387 -0.09913288 0.01465138 -0.0796486
000030 9d be 9d 3d d7 2d 0c 3d 76 ec 17 bd 83 3b d0 bc
       0.07702372 0.034223404 -0.03709074 -0.025419002

fc1.weight f4 [64, 784]
000000 ac 81 ef bc 74 f9 1f bd 00 05 c9 3c cc 72 81 3d
       -0.029236637 -0.039056256 0.024538517 0.06320724
000010 9a 45 16 bd 7f 57 1e 3d 54 3a 91 3c 04 76 4f bd
       -0.03668747 0.03865766 0.017728008 -0.050649658
000020 e2 c9 93 3c 83 01 73 bc 96 cc 93 3c f8 e2 ce 3c
       0.018040601 -0.014831903 0.01804189 0.025254712
000030 6a 39 19 3c 9d 2f 64 bc bc 96 f0 bc c8 71 61 bd
       0.0093520675 -0.0139273675 -0.02936875 -0.05504015
000040 90 7b f6 bc 9e d6 df 3c 10 ca d6 bc 23 dc 01 3d
       -0.030088216 0.027324017 -0.026219398 0.03170408
000050 b0 1f 1b bd f3 72 c8 bc 4e 8d ca ba a9 99 f0 b9
       -0.037872016 -0.024468875 -0.0015453489 -0.00045890853
000060 17 4d 85 3d 86 a8 08 bd 31 8a dd bb b7 35 81 3d
       0.06508844 -0.03336384 -0.0067608585 0.063090734
000070 3d 8b 96 3c 4e 9c 92 bd a5 8f bb bc 42 1c be bc
       0.01837694 -0.07158719 -0.022895643 -0.023206834
000080 bd 09 c0 3c 4b 52 18 bd 3b 32 7c 3d 0e 96 67 b7
       0.023442144 -0.037187856 0.06157134 -1.380361e-05
000090 f3 83 6a bd bf b3 fa 3c c5 14 95 bc 72 ee b8 3c
       -0.057254743 0.030603288 -0.01819838 0.022574637
0000a0 51 a5 ac 3b 1f 36 10 bd da 7f 2e 3d 16 1b b3 3d
       0.0052687307 -0.035207864 0.042602398 0.087454006
0000b0 c2 1c 80 bd 79 d7 bf bb ca 9b e1 3c 1f 30 9d bd
       -0.06255485 -0.0058545438 0.027540106 -0.07675194
0000c0 ee 49 8e bc 02 59 9c bc 7f e0 38 bc e5 22 9c 3b
       -0.017369237 -0.019085411 -0.011283993 0.004764902
0000d0 65 7d 95 bc d6 da 53 bd 9b 32 8b 39 b5 b1 23 bc
       -0.01824827 -0.05172237 0.0002654985 -0.009991099
0000e0 25 35 f1 bb d1 ae 50 bc 73 0f b9 bb df 7a e9 3c
       -0.0073610716 -0.012736992 -0.0056475936 0.028500972
0000f0 e9 a3 0f bd 54 3c ad 3b 2b 50 ef bc ce a5 d3 3b
       -0.035068426 0.0052867327 -0.029213032 0.0064589744
000100 43 d7 48 bd 37 97 52 3d 95 d0 15 3a dd bd 85 bd
       -0.049033415 0.05141374 0.000571498 -0.06530354
000110 2f af 47 bd 24 c7 83 3d ed 69 2d bc 9a 62 1e 3c
       -0.048751052 0.064344674 -0.010584337 0.009667063
000120 7a d9 b4 bc 87 f8 66 bd df 6b 1f 3d 60 57 41 bd
       -0.022076357 -0.056389358 0.038921233 -0.047202468
000130 79 57 6d 3d 35 27 35 3c c9 00 e8 3c c9 91 dc 3b
       0.05794475 0.011056711 0.028320687 0.006731246
000140 d6 14 53 3b 95 aa 71 3d bb e4 27 bd 75 bb e4 3c
       0.0032208464 0.05900057 -0.04098962 0.027921418
000150 a3 87 63 bc f9 49 a6 3c 34 6e b0 3b 42 78 17 3d
       -0.013887319 0.020298945 0.005384231 0.03697992
000160 f2 42 21 3d 6d 70 18 3d 9f c8 54 bd d1 b3 94 bd
       0.039370485 0.037216593 -0.05194914 -0.0726086
000170 1e 3d 0a 3d 77 ef bf bc 06 44 3a bd 57 59 5c bd
       0.033749692 -0.023429615 -0.04547503 -0.05379614
000180 16 bb 0f bd af 12 0c bd 2c bd 3d bb 1e fe b3 bc
       -0.03509053 -0.034197506 -0.0028951867 -0.021971758
000190 ac 2b 94 3b a9 e4 29 3c b6 ee 94 bc a8 43 bb bb
       0.0045218077 0.010369458 -0.018180232 -0.0057148524
0001a0 45 76 13 bc c3 b9 d6 bc a4 f7 06 bc 5b a7 83 bc
       -0.009000366 -0.026211625 -0.008237753 -0.016071012
0001b0 4d c1 c2 3b 3f 71 07 3d 4a 4a c1 3c 7e bb 95 3c
       0.0059434534 0.033066984 0.023594994 0.01827788
0001c0 48 e3 1f 3d 42 3d 6b 3b 3a 96 2b 3c 25 19 96 bc
       0.03903511 0.0035894667 0.0104728285 -0.018322537
0001d0 49 44 aa 3c a2 65 a1 3c 30 55 b2 3b 81 a0 82 bc
       0.020784514 0.019701783 0.005442284 -0.015945675
0001e0 e8 94 41 3c f0 55 24 3c f0 82 ba 3c dd 56 95 bb
       0.011815287 0.010030255 0.022767514 -0.004557474
0001f0 17 14 0d 3d 26 c8 af bb 94 da c7 3c 7e 24 41 3c
       0.034442987 -0.0053644357 0.024396218 0.011788486
000200 5d 24 fa bc 75 f3 5f 3c ae 4a d7 bc bc ae f7 bc
       -0.030534917 0.0136688845 -0.026280727 -0.030234687
000210 d1 f4 e7 3c 96 b2 c9 bc c5 dd d4 bc 70 1f b5 bc
       0.02831498 -0.02462129 -0.025984654 -0.022109717
000220 b2 13 d6 3c 25 f2 07 3d 6e 6b 60 bc 91 77 45 bc
       0.026132438 0.03318991 -0.013697488 -0.012052433
000230 0a 7b a0 bc 1a b5 e9 bc dc 9e fb bc 12 54 95 bb
       -0.01958992 -0.028528739 -0.030715398 -0.004557141
000240 7f 81 8b 3c 68 03 91 bc 99 6b fa bc dd d9 15 3c
       0.017029522 -0.01770182 -0.030568885 0.009146181
000250 1a 08 12 3d 5a 4d 25 3c 51 dc 69 3c f2 16 bb bc
       0.035652258 0.010089243 0.014273719 -0.02283809
000260 6f 6d ca bc 7e 44 9a bc ba b0 00 ba 10 25 f7 ba
       -0.024710385 -0.018831488 -0.0004909147 -0.001885565
000270 55 bc 47 bc 04 6a 2d 3c 31 b3 c1 3c 5d dc 1a bc
       -0.012190898 0.010584358 0.023645015 -0.009451953
000280 8e 23 0c bd e3 15 cd bb 47 ce ec 3c a3 80 e1 bc
       -0.034213595 -0.0062587126 0.028906954 -0.02752716
000290 ef d9 6a bc 56 71 52 3c af 45 17 bc 92 bf 04 3d
       -0.014334186 0.012844404 -0.009232922 0.03240926
0002a0 0f 59 b8 bb 47 ff a9 3c 9f 6f 8f 3c bf 55 fd bc
       -0.005625851 0.020751609 0.01750928 -0.030924676
0002b0 2b 3b 07 3d dd 38 ad bc 04 6e c2 3c 63 38 4c bc
       0.03301541 -0.021145279 0.0237341 -0.0124646155
0002c0 a5 20 a5 bc b8 30 ad 3c 16 c6 8b 3b 42 0c 85 bc
       -0.020157168 0.021141395 0.004265557 -0.016241197
0002d0 b2 64 01 3d 1f 79 95 3c cd 7d e0 3b 41 f9 bf 3c
       0.03159017 0.018246232 0.006850934 0.023434283
0002e0 ad 9e b3 3c 83 b8 25 3d 0e 03 22 3c 40 6d c3 bc
       0.021926248 0.040459167 0.009888424 -0.023855805
0002f0 c0 0e d5 3c fd 39 39 bc 6a 5a 98 3c 8c 8f a9 3b
       0.02600801 -0.011305329 0.0185978 0.005174583
000300 8a ed 1d 3c 2f 4c 56 bc a3 6d f3 bc c4 2e d7 bc
       0.009639153 -0.013079687 -0.029715365 -0.026267417
000310 96 fe 68 bb 4c 9a 8b bc 5e e1 b4 bc 11 ce fb 3c
       -0.0035552136 -0.017041348 -0.02208012 0.030737909
000320 f1 9c db 3c 90 56 ad 38 30 96 8c 3a 45 5c a9 bc
       0.026808234 8.265406e-05 0.0010725912 -0.02067388
000330 df a7 e4 3c 38 95 9f bc bf 6a 92 bc d1 60 90 3d
       0.027912078 -0.019480333 -0.017873166 0.07049716
000340 e0 90 86 3c 2e e4 7b bb 67 1a a2 bc 9c 63 13 3d
       0.016426504 -0.0038435566 -0.01978798 0.035983667
000350 b2 f4 9a bb 49 8f 9e bc 50 d4 fe bb 78 25 24 3b
       -0.004728877 -0.019355433 -0.0077767745 0.0025046747
000360 eb 85 3e 3c 3a 45 38 bc 2c 44 26 3d 8a 33 30 bd
       0.011628608 -0.011246974 0.040592358 -0.0430179
000370 8a 7f a7 3c ce 17 b8 bc b2 cd f0 bb b2 ff 09 3d
       0.020446558 -0.022472288 -0.0073487395 0.033691116
000380 72 2b b9 3a d7 91 b2 3d 46 a1 a5 3b e7 3b 84 3d
       0.0014127328 0.08719223 0.0050546257 0.06456738
000390 91 4e 2f bc a2 5a ef 3b 8f 86 31 bd f7 9d e7 3c
       -0.010699884 0.0073045054 -0.043341216 0.028273566
0003a0 98 35 a6 bc 0c 88 e3 bc 67 65 b0 3b fb ec 31 3c
       -0.020289227 -0.027774833 0.005383182 0.010859723
0003b0 3b 14 80 bd ff a4 8e bb 22 34 54 3d 01 b0 88 3b
       -0.06253859 -0.004353165 0.05180753 0.004171372
0003c0 e1 a3 9b bd 7c 01 03 3d 76 e2 9e bd d2 d2 88 bd
       -0.07599617 0.031983837 -0.07758038 -0.06680836
0003d0 b5 de bd 3c 63 f0 89 bc 9c 08 bc 3c 62 78 83 3c
       0.023177484 -0.016838258 0.022953324 0.016048614
0003e0 c5 8c 9a 3c 75 83 9a 3c 08 54 0f 3d aa 3e ce 3a
       0.018865952 0.018861512 0.034992248 0.0015735228
0003f0 ed bb 33 3d 96 ff c0 bb 80 01 60 3b 5d 4f 92 bc
       0.043880392 -0.005889843 0.0034180582 -0.017860109

fc1.bias f4 [64]
000000 5f 33 c2 3b d4 f2 04 bd ff ef 6a bd 39 1d f9 bc
       0.005926534 -0.03245814 -0.057357784 -0.030409442
000010 dd cc 36 3c 13 67 c7 3c 64 4b 98 bd 87 8e 85 3a
       0.011157242 0.024341142 -0.074362546 0.0010189571
000020 bf cb 01 3c 31 83 da 3a a2 40 84 3c a1 22 e8 bc
       0.007922112 0.0016671178 0.0161441 -0.028336825
000030 ac e2 88 3c 90 94 aa 3c 79 dd 8d bc 65 e8 9e bb
       0.016709648 0.020822793 -0.01731752 -0.004849481
000040 72 3e 90 bc 57 b3 80 3a da a6 31 3c 0e 61 59 3d
       -0.017607901 0.0009819072 0.010843003 0.053071074
000050 f2 a5 03 bd 6f 96 04 3d 44 ad 3b 3c 1a 8b fa 3c
       -0.03214068 0.032370027 0.011454884 0.030583907
000060 0f 24 f5 bc 20 02 f3 bc 46 5b 19 3d 31 35 6b 3c
       -0.02992442 -0.0296641 0.03744056 0.014355944
000070 33 98 9f bb e8 1d 91 3c 75 07 36 bc fb 71 29 3c
       -0.0048704385 0.017714456 -0.011110176 0.0103421165
000080 da 53 26 3d cb 57 53 bd 34 77 7a bd dd 7d 70 3a
       0.04060731 -0.051597398 -0.061148837 0.00091740285
000090 cf a2 08 3d d5 91 48 ba 21 65 f9 3c 1a 12 71 bd
       0.03335839 -0.0007651125 0.03044373 -0.058855154
0000a0 74 c2 be 3c 6e e6 0a bc 7f 86 87 3c ba 50 52 bd
       0.023286082 -0.00847779 0.016543625 -0.051346518
0000b0 0c bc 5d 3b 6e c0 0e 3c 71 ee 85 3d ca ba 2f bb
       0.0033834008 0.008712871 0.0653962 -0.0026814216
0000c0 93 3f 51 3d 29 ae e1 3c 97 4d 14 3d e5 82 14 bc
       0.05108602 0.027548866 0.036206808 -0.009064411
0000d0 0e fc b5 3c 26 6c 0a bd 4a 7e 8f bc 6a 65 86 bd
       0.022214916 -0.033794545 -0.017516274 -0.06562312
0000e0 15 4c 8e bc 51 db 0e 3d 77 bd 07 3d 6d 7c 33 bd
       -0.017370263 0.034877125 0.033139672 -0.043819834
0000f0 36 b5 33 3d 56 fc 7f 3c 56 1c 79 3b 75 78 ca bb
       0.043873988 0.015624126 0.0038011274 -0.0061789104

fc_mu.weight f4 [30, 64]
000000 59 d5 0e bd e3 c3 8b bd 3f 71 1d 3d 2e 5d 8b 3d
       -0.034871433 -0.06824472 0.038438078 0.06804882
000010 5d 13 1b bd 86 a0 4a bd 90 a3 eb 3c 97 86 96 bd
       -0.037860263 -0.049469493 0.028764516 -0.0734989
000020 39 f4 74 bd a2 9c 1c bd f7 6a 38 bc d4 a0 d2 bd
       -0.05980322 -0.038235314 -0.011255971 -0.10284582
000030 d5 59 46 3d 13 76 d5 bd 8b 31 6d 3d 7f e9 d8 bd
       0.048425514 -0.104229115 0.057908576 -0.10591411
000040 f9 26 2c 3d d9 96 f2 3c bc 9f 3c 3c 0e 5d a0 3d
       0.042029355 0.029612945 0.011512693 0.07830249
000050 72 22 b6 3d 98 04 8d 3d 79 84 f6 bd 2b 7e 25 bd
       0.08893289 0.06885642 -0.12036986 -0.040403526
000060 fe 7b c4 3d b9 be 02 bd e7 ae 28 3c e9 57 5d 3d
       0.09593962 -0.03192017 0.010295606 0.054038916
000070 94 80 90 bd 63 84 7d 3c 48 8e 11 bc 25 3b 61 bb
       -0.07055774 0.015473458 -0.00888402 -0.0034367528
000080 70 03 49 3c 83 e6 e1 3d 45 90 21 3d 12 ff 80 3d
       0.012268886 0.11030295 0.039444227 0.06298651
000090 9f e7 30 3d 71 f4 67 bd 4a a9 82 3d 21 9a 56 3d
       0.04318964 -0.056629602 0.063799456 0.052393083
0000a0 ce 27 29 3d 8c 81 39 3d e1 c8 53 3d 8e 88 07 be
       0.041297726 0.04528956 0.051705245 -0.13235685
0000b0 26 fd 02 3e 65 9f ba bd 78 73 d1 bb 0d 91 18 3c
       0.12791881 -0.09112433 -0.006391939 0.009311927
0000c0 0e 99 96 bd 6c ab f1 3d 54 8f c0 3d c3 79 34 be
       -0.073534116 0.11800274 0.09402338 -0.17624573
0000d0 db db 9b bd a8 c3 d9 3d 3b 06 36 bd 2d 62 8e 3d
       -0.076102935 0.106330216 -0.044439536 0.06952319
0000e0 86 2a ae 3c a6 68 68 bd 81 27 7c 3d a9 ee e9 3d
       0.021260511 -0.056740426 0.06156111 0.11422474
0000f0 7f 28 a8 bd b8 2b e5 bd 7f ea 05 bd d8 09 2b bd
       -0.08210849 -0.11189979 -0.032694336 -0.041757435
000100 12 6f a5 3d b9 f2 01 3d ed 48 3c 3d fc 02 1a be
       0.080778256 0.03172562 0.045967985 -0.15040201
000110 37 20 40 3c 91 b6 ea 3d c3 53 e2 3d 03 eb a0 bd
       0.011726431 0.11460603 0.110511325 -0.07857325
000120 d5 75 98 bd d9 dc 37 bd 97 06 e8 3c a3 05 a4 3d
       -0.0744435 -0.04488835 0.028323455 0.080088876
000130 99 c6 b8 bd 2d 23 5c 3d 87 7d da bd 18 84 e9 bc
       -0.090222545 0.053744484 -0.10668474 -0.02850537
000140 6c 57 f3 3d 03 3a b6 bc 22 ed 9e bd 1f 52 b9 bc
       0.11881909 -0.022244459 -0.07760073 -0.022622166
000150 9b 3a 02 3d f2 d5 6d 3d e9 f8 80 bc b7 91 91 3d
       0.03179417 0.058065362 -0.01574369 0.07107871
000160 f5 e1 12 3d e9 a4 ec 3c 3d 3b de bd e7 02 a1 3d
       0.03586002 0.028887229 -0.108511426 0.07861882
000170 c3 2c e7 3d 00 a7 99 bd 57 66 8c bd 71 f3 da bd
       0.112878345 -0.07502556 -0.06855457 -0.10690964
000180 52 ac 91 bc 81 00 d0 bd 2d 23 35 3d 97 73 c7 3c
       -0.017782364 -0.10156346 0.044223 0.02434711
000190 d4 72 d2 3d 40 93 2b 3c b6 7e 60 3d 01 fa c7 bd
       0.10275808 0.010472119 0.05480834 -0.09764481
0001a0 41 dd 89 bd 11 8d 53 3b 4f a1 9f 3c a0 80 52 bd
       -0.06731654 0.0032280127 0.019486098 -0.051392198
0001b0 21 15 0b 3d 76 64 53 3d 04 26 af 3d 10 c7 86 3d
       0.033955697 0.05160948 0.08552173 0.06580937
0001c0 6b 17 3c 3b eb 39 85 3d 0d ec 02 bd 09 7d 3b 3d
       0.0028700482 0.065051876 -0.031963397 0.04577354
0001d0 fa 17 66 3d a8 e9 d5 3d ea 59 8e bc 81 3e e1 3d
       0.05617521 0.10444957 -0.017376859 0.1099825
0001e0 4d 40 9d 3d c8 55 a7 3d 66 10 93 bd f8 ba be bc
       0.0767828 0.08170658 -0.07180862 -0.023282513
0001f0 fd 9e 52 bd ef e8 af bd bd 12 ca 3d 19 bc 28 3d
       -0.051421154 -0.085893504 0.09866855 0.04119501
000200 0c 80 bb bc 91 cb b9 3d 8e c8 8f bd 28 62 21 3b
       -0.022888206 0.0907203 -0.07020675 0.0024625156
000210 cd 3e 92 bd 4c d5 6b 3c f5 3e 2c bd a4 4c 1e 3c
       -0.071408845 0.014394116 -0.042052228 0.009661827
000220 b8 f4 49 3d 20 90 87 bd ee d6 e4 3d 91 8e e2 3d
       0.049305648 -0.066192865 0.11173807 0.11062349
000230 19 a8 0e 3d 6f 61 5d 3d 08 ed 14 3d df 05 cb bd
       0.03482828 0.054047998 0.036358863 -0.09913229
000240 77 b0 5d 3d 7a 0d be bd c0 52 fa bc 2b f4 22 bc
       0.054123368 -0.09279914 -0.030557036 -0.0099459095
000250 87 08 a2 3d 55 34 26 be 01 32 28 3d 47 2b 17 bb
       0.07911783 -0.162309 0.041063312 -0.0023066567
000260 8f 9f 90 bd 92 71 cd bc d1 9b 0c bd 7f 7a 8b bd
       -0.070616834 -0.025078569 -0.034328286 -0.06810474
000270 a5 08 8c 3b f8 ba 36 bb a3 01 51 bd 2d fb bf 3c
       0.0042734914 -0.0027882438 -0.05102695 0.0234352
000280 dc 06 fa 3c b4 97 bf bd 2b 93 b1 bc ff bb eb 3d
       0.030520849 -0.09355107 -0.02167662 0.11510467
000290 f2 28 e3 bd 24 49 f1 ba de fe 06 bd 9e 79 b1 bd
       -0.11091794 -0.0018408638 -0.032957904 -0.08665775
0002a0 c1 f8 ac 3d 30 5e 85 3d b2 d3 9c bd db 2d f1 bd
       0.084458835 0.065121055 -0.07657565 -0.11776324
0002b0 54 b5 25 bd df 8e c4 bd 6c bd 14 bc 8a 58 b1 bd
       -0.04045613 -0.09597563 -0.009078365 -0.086594656
0002c0 27 9d 1a bc 27 6d b8 bd 3c 2a 0a 3e ea 9e fe 3d
       -0.009436882 -0.09005194 0.13492674 0.12432654
0002d0 d6 1b 94 bc 15 a0 9a bd 10 bc d9 bd a6 8a 08 be
       -0.01807968 -0.075500645 -0.10631573 -0.1333414
0002e0 df 86 b4 3c 90 57 47 3c bb 12 ca bc 44 13 de bd
       0.022036968 0.012166873 -0.024667135 -0.108435184
0002f0 03 da c4 3d ce 31 7b 3d 5d 72 c8 3d 80 5c 4d bc
       0.09611895 0.061326794 0.09787438 -0.012534261
000300 70 89 8a bd 5f 20 f6 3d 46 67 9f bd 76 b6 40 3d
       -0.067644954 0.12017893 -0.0778337 0.04704901
000310 88 32 46 bc ff d0 d2 3c f6 01 ab bd 38 07 89 3d
       -0.0120970085 0.025734423 -0.083499834 0.0669083
000320 9d 1b f2 3d 50 91 48 3d 37 27 ee bd 96 01 0b 3d
       0.11821673 0.048966706 -0.116285734 0.03393706
000330 be d9 9d 3d 75 51 e8 3d 72 98 a0 3d 37 6d b4 3d
       0.07707547 0.11343662 0.07841577 0.088098936
000340 3e 80 d3 3d 61 15 bb bd 20 72 47 bd 78 45 a7 3d
       0.10327195 -0.09134937 -0.048692822 0.08167547
000350 1d 16 cc 3d 34 3a c2 3c f2 ed 7f 3c 48 3b e6 bc
       0.09965155 0.023709394 0.015620695 -0.02810444
000360 50 d7 08 bd a0 89 c9 3d 4e 90 41 3d f8 9d f2 bc
       -0.033408463 0.09840703 0.04725676 -0.029616341
000370 b4 48 7c bd 1d ec e8 bd d8 6b 12 bd d7 d4 e5 bd
       -0.061592773 -0.1137316 -0.03574738 -0.112222366
000380 0a 6a 2e 3e 85 f3 0e 3d 3c d0 ed bd e1 cb 05 be
       0.17032638 0.034900207 -0.11611983 -0.13066055
000390 90 af 33 3d 31 5d a1 bc bd e9 97 bd 10 b5 b2 bd
       0.0438686 -0.019697757 -0.07417629 -0.08725941
0003a0 58 a2 32 bc 53 d2 03 bd 99 24 78 bd 37 80 7a 3d
       -0.010902964 -0.032183003 -0.060581777 0.06115743
0003b0 f9 b6 c1 bd 17 b7 4c bd 36 39 0d bd 07 24 e5 bd
       -0.094587274 -0.049979296 -0.03447839 -0.11188512
0003c0 b4 5b 81 3d a4 c1 a2 bc 1f 0b 23 bd b6 85 42 bb
       0.06316319 -0.019867726 -0.039805528 -0.0029681749
0003d0 96 f7 19 3e d1 00 55 bd 4c f5 48 bd ff 85 1e 3d
       0.15035853 -0.05200273 -0.04906206 0.038702007
0003e0 b7 a5 15 3d 53 89 2b 3d 82 aa 27 bd de 0f 3c bd
       0.03653499 0.04187901 -0.040934093 -0.04591357
0003f0 7f 77 20 bd de 65 04 bd 49 9a da bd 79 36 1e be
       -0.03917646 -0.03232371 -0.10673959 -0.15450467

fc_mu.bias f4 [30]
000000 aa b1 bc bd ea 6f ae bd cb 6a 4a bd 68 31 07 3d
       -0.09213574 -0.0851744 -0.049418252 0.0330061
000010 d7 26 89 bd b0 78 ce 3b bb 44 a6 bc f8 6f a1 3d
       -0.06696861 0.006301008 -0.020296445 0.078826845
000020 a9 2c a4 bb a5 a3 54 bd 7f a2 84 3c 40 29 91 3d
       -0.0050102067 -0.051913876 0.016190765 0.07087946
000030 11 ce f7 bd 52 e5 e4 bd 98 24 ef 3d 7d 40 d9 3c
       -0.12099851 -0.11176552 0.116769016 0.026520008
000040 df d5 ad bc 58 2a 92 3d 5c c3 89 bd 05 cc e2 3d
       -0.021220146 0.07136983 -0.06726715 0.1107407
000050 d5 06 a5 bd 97 24 13 3d 39 9d d9 bd 1b 9b ce bc
       -0.08057944 0.035923567 -0.10625691 -0.025220444
000060 34 7e 11 bd 69 01 ce 3d 38 64 92 3d ca f9 04 3e
       -0.035520747 0.10058863 0.071480215 0.12985912
000070 c5 b8 04 be d9 f5 bd 3d
       -0.12961109 0.09275407

fc2.weight f4 [1, 30]
000000 88 56 18 bd 8a d1 18 be 88 96 36 bd bc 2a 08 bd
       -0.037191898 -0.14923683 -0.04457715 -0.03324388
000010 02 25 9f bd 58 36 0b 3d 50 e4 8f bc 08 59 1c bd
       -0.077707306 0.033987373 -0.017564923 -0.038170844
000020 b8 89 2e 3e f0 b5 0d 3e a0 9d 85 bb 49 ff ed bd
       0.17044723 0.13838935 -0.0040776283 -0.116209574
000030 2c a3 0c be f4 f3 f2 3d 14 fb 34 3e d4 db 5c bd
       -0.1373412 0.118629366 0.17673904 -0.053920582
000040 51 1b 00 be 30 67 56 bc 10 a1 71 bc a8 ed be 3d
       -0.1251042 -0.013086125 -0.014747873 0.09322673
000050 00 9e ef 3b ec 1b 25 be 7e d3 12 3e 54 34 8b 3d
       0.0073125362 -0.16123933 0.1433849 0.0679709
000060 f0 1a c8 bc 74 3c c3 3d 84 7e 8e 3d 40 75 ae bd
       -0.024426907 0.09533015 0.06957725 -0.085184574
000070 40 8c 6f bd 78 5d 3a 3e
       -0.058483362 0.18199718
