code/learned_models/beamrider_trexnet_reward.params (torch_old, 259926 bytes, 11 tensors)

conv1.weight f4 [16, 4, 7, 7]
00000000: 91c3 bc3c 8dbb 5fbc 0be0 e3bd 8475 a2bd
00000010: 0674 8abd bde0 a2bd 8942 d0bd 3c15 c03d
00000020: 1259 c53c c244 943d ebff afbc 0ac8 37bb
00000030: a69c 8ebb bd45 d2bc 78d8 cabc f498 9ebb
00000040: 9fd7 943c c460 d73c 23a8 28bd 1a72 80bc
00000050: 3dba 323c 44a9 8c3d 1cec 2ebd 76ba 9e3b
00000060: 0528 9ebc 7f63 393d fc70 883d f021 82bd
00000070: 4988 77bd fdfa a1bc e8d3 c1bb 326a c23d
00000080: e001 8bbc 8f79 b53a 91c8 5fbd d07f a3bc
00000090: 6107 02bd 6cca ba3d 7612 303d 6c03 59bb
000000a0: 8ca6 283d f9de 60bc f8fe 143d 9706 90bc
000000b0: f461 c0bc b428 b9bb a88e ba3d 0a3d 933d
000000c0: 0575 b2bc 2416 283d a8a9 53bc d499 123d
000000d0: a870 f2ba 5491 17bd 3a53 b23d 72e6 b93b
000000e0: d4f4 bc3d 3e19 eebd 46ad e7bd 751e 86bd
000000f0: 54fa 0c3c f705 c0bc a2b0 0d3c b558 51bc
00000100: b66f 4b3d ebc0 3ebc 1003 283c 3ab1 a63d
00000110: 3452 20b9 f02a 083c fbb6 47bd ac71 3cbd
00000120: b477 c3bc 85d8 9d3d d0de 063e 25dd 693d
00000130: cb3a 103c 961a 09bd d153 38bd 3673 8abd
00000140: 6d10 87bd 748c ab3d e6f5 af3d dd5c 10bd
00000150: af36 67bc 5f03 cbbd 889d 003d f60a 84bd
00000160: adf0 f5bb 584e 77bd 4471 5bbd 53ab e83d
00000170: 1d0d b23d 2b9a 093d 898a 233b 74b3 89bd
00000180: d0c1 d8bc 544a 4a3d 6ef1 03bd 3bc4 bf38
00000190: 56c8 643d 6dd7 853c 9566 09bd f2a5 5dbd
000001a0: 2558 9cbd 105d a53d 3b25 ecbb ba2b ea3c
000001b0: 00e3 fb3b 4323 9c3d 911a 7cbd b996 ff3d
000001c0: 5c88 02bd 6d1a b13d 3da1 eb3d ef5c 9d3b
000001d0: 30f3 20bc d608 923c d852 273d 0591 db3c
000001e0: 63b4 753d 8a28 513d 7926 d83c 5571 c93d
000001f0: 163d a6bd bf38 13bd c752 0abd cda9 8bbd
00000200: 6e10 2dbd 39b5 47bd 26cb 913b 606e 853d
00000210: d815 5abd ddee a13d 935a 903d c412 5c3d
00000220: a452 943d ce83 afbc b3f5 4c3c eede bc3c
00000230: 0c27 d43d d9ce 4cbc a9b9 063d 223a c2bb
00000240: 50ea a5bd 574c 93bd 8e82 e43c eec3 b0bc
00000250: c9fe 513d 7bf8 8bbd 188a 81bd 2408 eabc
00000260: c61a 87bc 2cbb 6abc 1683 143d 3e1d 82bd
00000270: bf91 0a3c 5256 08bd ba8b 123b d1ce 9cbd
00000280: 3de1 ab3c a531 22bd 06a3 54bd c356 a9bd
00000290: 2e5f 0bbd 06e0 9cbd dab4 0ebe 497d 853c
000002a0: e0d7 b5bc d3a4 8dbb bb21 fa3c 3cab 12bd
000002b0: bbe3 953c 920d c4bc 5e54 32bd 7fc6 4c3c
000002c0: d211 9f3d 949a aa3c 172c 0a3c 4177 e8bc
000002d0: 7460 103b 17fd 25bd 91fd ed3d fd70 9c3d
000002e0: 1e6d 603d 1b82 ad3c 7e38 2dbb 217a 013d
000002f0: a04d b1bd 3015 1c3e a647 073e c617 a23d
00000300: 26c0 893c 7fc9 afbc 4a6b 94bd 922a 24bd
00000310: 702a aabc 24b3 2e3c 81f5 b6bc 5a68 d7bc
00000320: 2283 4c3c ac53 5f3c a8bc 7cbd a578 21bc
00000330: 3801 41bd 0e4d bb3d 5313 d1bb 47ab 113e
00000340: 0933 3b3d 8494 853c fb52 06bd 3ad2 aebd
00000350: 324d 013d 0f36 26bc b9ac 85bc b825 603c
00000360: e475 e7bd 2d39 2cbd f78b e9bb dad2 50bd
00000370: 84f9 1fbd c39b b43d 88fc a33c 4f1f c1bc
00000380: 7aef 5abd 5119 9d3d a0b3 a5bb 24e9 483c
00000390: b139 cfbb bb86 72bc cb6e f3bc 46cd bb3a
000003a0: f4b3 46bd 05b4 6a3d d030 0c3d 432e 7ebd
000003b0: 09d1 653b b498 b1bd 3093 83bc 164c 153d
000003c0: 4d2d af3d 9278 e73d de65 263d 6517 a43b
000003d0: 773c 7f3d 47e4 b1bc 0143 5b3d 5468 21bd
000003e0: 7a11 563d c25d 813d 1f3e 8fbc a979 623d
000003f0: 74fe 9c3c e16a dabb 0e77 3bbc e6fe e9bc
0.023042472 -0.013655555 -0.11126717 -0.079325706 -0.06760411 -0.07953022 -0.101689406 0.0937905
0.024090324 0.07239677 -0.021484336 -0.0028042817 -0.00435217 -0.02566802 -0.024761423 -0.004840011
0.018169222 0.026291259 -0.041175973 -0.015679408 0.0109086605 0.06868222 -0.04270564 0.004844005
-0.019306192 0.045260902 0.06662175 -0.06354129 -0.060432706 -0.019773 -0.005915154 0.094929114
-0.016968668 0.0013845431 -0.054634634 -0.019958407 -0.03174532 0.0912064 0.042986356 -0.0033113612
0.041174456 -0.013725036 0.03637597 -0.017581267 -0.023484208 -0.005650604 0.09109241 0.07189377
-0.021784315 0.04103674 -0.012918867 0.035791233 -0.0018496709 -0.03700383 0.087072805 0.005673223
0.09226385 -0.11625908 -0.11312346 -0.06548778 0.008604605 -0.023440344 0.00864807 -0.012777497
0.049667083 -0.011642675 0.010254636 0.08139272 -0.00015289412 0.008311018 -0.04875849 -0.046006843
-0.02386079 0.077073134 0.13170934 0.057095665 0.00880308 -0.03347262 -0.04500181 -0.06760256
-0.0659493 0.08376399 0.08591823 -0.03524481 -0.014112159 -0.09912752 0.031400234 -0.06447403
-0.0075054974 -0.06037745 -0.053574815 0.113608025 0.086939074 0.03359429 0.00249544 -0.06723681
-0.026459605 0.04938729 -0.032212667 9.1441405e-05 0.055855118 0.016338075 -0.033545095 -0.054113336
-0.07634 0.08074391 -0.0072065867 0.028585304 0.0076869726 0.07623913 -0.061548773 0.1247992
-0.031868324 0.086476184 0.11505363 0.0048023383 -0.009823605 0.017826479 0.04085049 0.02680255
0.059986483 0.05106405 0.026385533 0.098360695 -0.0811712 -0.03594279 -0.03377035 -0.06819496
-0.042251997 -0.04875681 0.004449266 0.06515193 -0.053243488 0.07906888 0.07048526 0.053728834
0.07242325 -0.021425154 0.012509751 0.02305552 0.1035901 -0.012500488 0.032891903 -0.00592734
-0.08101332 -0.07192295 0.027894285 -0.021577802 0.051268373 -0.06834503 -0.063251674 -0.028568335
-0.016492259 -0.014326852 0.036257826 -0.06353234 0.0084576 -0.033285446 0.0022361116 -0.076566346
0.020981425 -0.039598126 -0.051913284 -0.082685016 -0.034026317 -0.076599166 -0.13936177 0.016295092
-0.022197664 -0.004322627 0.030533662 -0.035807833 0.018297067 -0.023932252 -0.04353749 0.012498497
0.07767071 0.020825662 0.008433363 -0.028377177 0.0022030147 -0.04052457 0.116206296 0.07638738
0.054791562 0.021180203 -0.0026431377 0.03161061 -0.08657384 0.15242457 0.13210925 0.07914691
0.016815256 -0.021458386 -0.07247026 -0.04007966 -0.020772189 0.010662828 -0.022333862 -0.026294876
0.012482436 0.013630789 -0.061703354 -0.009855424 -0.047120303 0.091455564 -0.0063804775 0.14225493
0.045702968 0.01630617 -0.03279398 -0.08536191 0.03156776 -0.0101447245 -0.016317712 0.013680868
-0.11301783 -0.042046715 -0.007127281 -0.050982334 -0.039056316 0.08818772 0.020017877 -0.0235745
-0.05345104 0.07670844 -0.0050568134 0.012262616 -0.006324016 -0.01480263 -0.029715916 0.0014328144
-0.04851146 0.057300586 0.03422624 -0.062055837 0.0035067222 -0.08671704 -0.016061395 0.036449514
0.08553562 0.11302294 0.040624492 0.0050076717 0.062313523 -0.021715296 0.053530697 -0.039406136
0.05226276 0.06316711 -0.017485676 0.055291805 0.019164301 -0.006665573 -0.011441959 -0.028563928

conv1.bias f4 [16]
00000000: 01bb adbc ceb8 babb d834 d43b 6036 e53c
00000010: 2ecf 20bc bfed b93d 7404 3a3d 81a2 0a3d
00000020: 70ce 26bd c459 b6bd 8378 18bd e013 e23d
00000030: d1ef 76bd 2af7 82bd f2da 20bd 6fa3 053d
-0.021207334 -0.0056983 0.006476026 0.02798003 -0.0098150205 0.090785496 0.045414403 0.033846382
-0.040724218 -0.0890384 -0.037224304 0.11038947 -0.0602873 -0.06394799 -0.039271303 0.032626566

conv2.weight f4 [16, 16, 5, 5]
00000000: 07fd 55bd 25c6 22bd c82a 143c 5644 6dbb
00000010: fa98 593d 6cea 28bd 2ea8 30bd f199 60bd
00000020: c29b 7c3d 495a a539 1023 85bd 08e4 353d
00000030: 8ee4 803d 7c98 563d afce 353d 1343 89bd
00000040: 60bf 8db9 7377 ce3a 8907 673c 142e e2bc
00000050: 5e4d 80bc 1008 d7bc 47a9 813c a75f a0ba
00000060: 09d8 0c3d 635a 363c f6af b9bb 365b 10bd
00000070: 98ad a6b9 7580 2a3c b5b1 66bc dfc5 b63c
00000080: 8f54 2f3d cd89 b13d 5909 dfbb 2d09 5c3c
00000090: e2fa 44bd d7d8 9e3b eb2f 95bb 8d33 35bd
000000a0: 1cb0 3e3d 642f 063d df66 693d 06bd 873c
000000b0: 6c04 b5bc 429e 243d 2378 833c 9072 123b
000000c0: 5a3f c53c c441 683c b06b 8cbc 5a33 8ebc
000000d0: 5e5c 2abc 5cf3 73bd 9c57 1abd a36e 90bd
000000e0: 9875 bc3d 51db 833d f85c 3e3c 6ccf c53d
000000f0: 6693 6fbd 9002 25bd 3dcb 86bd 0be9 debd
00000100: 85c7 233d 78a7 7bbc 155a ee3d 5aa8 943d
00000110: 6239 163d 1aaa c03d 4bb4 113d 505a 3abd
00000120: 55e5 b8bd c8ae 74bd 2c5c 42bd 84fa 21bd
00000130: ae22 9c3d d0ce 70bc 34ea 6cbc 90cd c8bd
00000140: bca8 073d 85d7 e7bb 3ee8 243d 8898 14bd
00000150: d8c1 813c 6872 b13c 97ab 043d da39 ecbc
00000160: 9387 01bd 5bba afbd 5d4a 273d 13e4 b33d
00000170: e25b e539 ae31 3cbd c58e 8abd 47b2 d73c
00000180: 3466 cf3c 0c01 ddbc 0f81 343d 7a05 d9bc
00000190: d337 47bc 75aa 0fbd 982a 163d 22d1 933c
000001a0: 7f37 4cbc 30b4 e8bc c459 c0bc 4132 313d
000001b0: 4e0d 393d 2b55 ce3c 3f47 f3bb 24b4 363b
000001c0: 900b 8d3d d79e 553d 4d26 16bd 5a57 1ebc
000001d0: 7b6f 2b3d e533 9e3c 79b3 7b3d 4785 253c
000001e0: fbd5 673c 6326 393d 5c5a 35bc 3765 453d
000001f0: 3b17 b93c f7da e83c 26d1 383d 25b5 4dbd
00000200: 6f3b be3d c5ef 243d f899 01bd cec7 9d3d
00000210: 76b0 d3b7 07c9 9bbb e4f6 8c3b a033 43bd
00000220: b8b9 cf3d 75d3 adbc 5f3c d93d 069b 813d
00000230: 4847 b7bc a16c 7b3d 83d0 5f3d 7040 933d
00000240: 63c8 69bd 398f c7bc 9636 573c 6bfb 323d
00000250: ce2d 2c3d b198 623c 3bcb 42bc fcb1 50bd
00000260: 7ab6 f73c 0992 d13c 5b68 75bd 8f17 f63a
00000270: 84a0 333b 622e 593c 57fe 9ebc 7e8d 8c3c
00000280: 134c 483d 32ac 153d c683 bf3c 5252 1dbd
00000290: 748f 46bd 30ff 243d 34c5 5b3d 7269 49bd
000002a0: 4dee 9f3a 41eb 59bd a40d 0b3d 80f5 9a3d
000002b0: db0d 0b3d 3015 d9bb 74a9 23bc 6265 75bc
000002c0: fb79 9cbc 2f28 b8bb fc64 84bc 7d44 9b3c
000002d0: d4e2 603d 9191 8cbb f9fb c738 0858 583c
000002e0: 288b 403d 4d06 1abc a8c8 413c 6f3b 3bbc
000002f0: 8714 de3c 73eb 06bd 97c7 9d3c 5e11 853c
00000300: 3d04 54bc 9faa 2b3d 4f3a 803d c429 5e3d
00000310: 3a61 20bb 1cca 723d 63c6 ea3a 4742 1b3c
00000320: 77d0 2e3d 7f18 10bc dc9e 073e b296 b13d
00000330: 4d17 973d 1255 b43b 3691 20bc 23a5 e73d
00000340: dc0b f83d ad38 e33c 3e3f 953d bd8e 0cbc
00000350: 2278 be3d cd87 853d 9ec9 af3d 1e34 f6bc
00000360: 15fa b73d 0ced 3c3c 8ca0 f43d f9ba 03bd
00000370: ec32 823c b4c2 45bc d154 183b 4180 a93c
00000380: a314 24bd 715d 253d 538a 47bc b19a 753c
00000390: d774 1b3d c182 293d 4b63 4c3d 64b4 0f3a
000003a0: 43d3 343c b171 e13c b6c4 7c3d 4b8e 18bc
000003b0: 0dd8 2a3d be41 613d 8e2a c03b 2c5d 9f3c
000003c0: e6d7 5ebd 354c 5cbd fd38 703d a299 79bd
000003d0: cf1d ff3c 180f e43b 6880 8cbc f518 923d
000003e0: 3b51 de3a faa5 28bc c5bd 90bc e3a6 983c
000003f0: c256 a2bb ce00 703d 8437 3abd 69ab ab3b
-0.05224326 -0.039739747 0.009043403 -0.0036204061 0.053124405 -0.041239187 -0.04312914 -0.05483431
0.06167198 0.0003153852 -0.06500828 0.04440692 0.06293593 0.052391514 0.044386562 -0.067022465
-0.000270362 0.0015752151 0.014100918 -0.027609862 -0.015661892 -0.026248962 0.015827788 -0.0012235538
0.034385715 0.011129948 -0.005666728 -0.035243236 -0.00031791325 0.010406603 -0.014080455 0.02231115
0.04280525 0.086688615 -0.0068065342 0.013429922 -0.048090823 0.0048476267 -0.0045528314 -0.044238616
0.04655467 0.03276004 0.05698287 0.016569626 -0.022096835 0.04018999 0.016048497 0.0022346117
0.02407806 0.014175836 -0.017141193 -0.01735847 -0.010397999 -0.059558257 -0.037681207 -0.07052352
0.09202117 0.06438316 0.011618845 0.09658703 -0.05849018 -0.040285647 -0.065817334 -0.10884293
0.0399852 -0.015359752 0.116382755 0.07258673 0.03667582 0.09407444 0.03557233 -0.045496285
-0.090281166 -0.059736997 -0.047451183 -0.03954555 0.07623802 -0.014697745 -0.014460135 -0.09804833
0.033119902 -0.0070752525 0.040260546 -0.036278278 0.015839502 0.021660998 0.032390203 -0.02883618
-0.031623434 -0.08580466 0.040842403 0.08783736 0.00043746742 -0.045945816 -0.067655124 0.026330126
0.025317289 -0.026978038 0.044068392 -0.02649187 -0.012159306 -0.03507467 0.036661714 0.018044058
-0.012464403 -0.028406233 -0.023480304 0.043260816 0.045178704 0.025187096 -0.0074242647 0.0027878368
0.06886971 0.052153435 -0.03665762 -0.009664381 0.041854363 0.019311855 0.061450455 0.010102577
0.014150138 0.045202624 -0.011068907 0.04819223 0.022594085 0.028424723 0.045121334 -0.05022158
0.0928868 0.040267725 -0.031640977 0.07704125 -2.5235331e-05 -0.004754189 0.0043018926 -0.047656655
0.10142845 -0.021218995 0.10607218 0.063283965 -0.022372857 0.061382893 0.05464221 0.07190025
-0.05707587 -0.024360286 0.013135573 0.043696802 0.04203587 0.01383035 -0.011889274 -0.05095099
0.030238379 0.02558233 -0.059913974 0.0018775332 0.0027408907 0.013255687 -0.019408388 0.017157312
0.048900675 0.03654117 0.023378264 -0.038408585 -0.04847665 0.04028243 0.053654864 -0.049172826
0.0012201756 -0.05320287 0.033948556 0.07566357 0.03394876 -0.00662484 -0.009989131 -0.014977785
-0.019101134 -0.0056200246 -0.016161434 0.018953556 0.05490382 -0.004289814 9.535993e-05 0.013204582
0.04700771 -0.009400916 0.011827625 -0.011427744 0.027109398 -0.032939386 0.01926021 0.016243633
-0.012940464 0.041910764 0.062611215 0.05423905 -0.0024472014 0.059274778 0.0017911907 0.009476251
0.042679276 -0.008794903 0.13244194 0.08671321 0.07377491 0.0055033052 -0.009800246 0.11310794
0.12111637 0.027736986 0.07287453 -0.008578953 0.09300257 0.065200426 0.08583377 -0.030054148
0.08983246 0.011531126 0.119446844 -0.032160733 0.015893422 -0.012070347 0.0023243914 0.020691039
-0.040058743 0.040372316 -0.012178975 0.014990495 0.037953224 0.041384462 0.04989938 0.00054818974
0.011036697 0.027520033 0.061711036 -0.009311269 0.04170995 0.054994337 0.005864448 0.019453607
-0.054405116 -0.053783614 0.0586481 -0.06093753 0.031142144 0.006959807 -0.017151073 0.071336664
0.0016961464 -0.010293478 -0.017668614 0.018634265 -0.00495419 0.058594517 -0.0454631 0.0052389395

conv2.bias f4 [16]
00000000: 2f98 8abd c265 653c 69aa dfbc db5a a0bc
00000010: cd1d 3b3d 0ad6 2fbd e52f e4ba e8e1 d1b7
00000020: 92ba d23c 4292 cf3c a9c2 8b3c 4ab9 bd3a
00000030: 6234 a23c bb1b 3d3c 5ca8 b6bc 212e 413d
-0.06767308 0.014001312 -0.027302938 -0.019574573 0.045682717 -0.042928733 -0.0017409293 -2.5019937e-05
0.02572373 0.025338296 0.017060595 0.0014474776 0.019800369 0.011542256 -0.022297077 0.047163133

conv3.weight f4 [16, 16, 3, 3]
00000000: ad0b 093d 2f7c af3c 71f1 d63b 7efd 743d
00000010: 539f bf3d 1108 42ba 74f8 24bc 1bb7 d93d
00000020: 948b 6a3d 4aa9 60bc 510c dd3d bc48 833c
00000030: d59b efbb 6267 c43d 435a eb3d e11f 0c3d
00000040: 34e9 c13d 78de 913d 1242 ab3d 4f5c d33c
00000050: 59f3 f6bc e725 f1bc 07a4 f0bc 3e95 2dbd
00000060: 90ac b3bd 5e1a 1bbc 6546 f6bc 2eb1 ffbc
00000070: 9794 b93b 50af cbbb d2a3 52bd 800d d63d
00000080: 58a4 e03d fc01 19bd 6196 3e3c d106 b93d
00000090: 687e 1abd 4b41 e7bc 024e 453d c908 f6bd
000000a0: ff32 4abe dd33 f5bd ca18 acbc 0812 47be
000000b0: faf2 02be 30c1 6b3d 500b 763d 776d 6dbd
000000c0: 9061 193d 7b96 873d 10d6 06bd 503e 5f3d
000000d0: 802f 7e3d 387e b33d 1979 9fbc 2f93 34bd
000000e0: c702 bebd 4d99 46bd 5bdb 18b8 3127 283d
000000f0: 26d3 f1bc fb03 40bd 1d08 473d 1ada b43d
00000100: ac95 c13d e6ee 153e 6390 2d3d 6732 9d3d
00000110: c769 f83d 0a0a 9cbd 9b16 e4bb 3e2c 26bc
00000120: e147 0ebc 9358 4dbd e43d ce3c da63 d7bc
00000130: 2cc6 4e3d 24cd 013e de32 893c c8af 573d
00000140: 24f6 1b3e 4718 a2bd c1a8 bd3d 49de 79bc
00000150: 621c f0bc fe58 e53c d2ff d03c e7bf 06be
00000160: 28ce c3bd e41e 843d c3e4 9d3d b4c4 ab3d
00000170: bb82 b23d 5140 783d 4029 4abd 15cd b63c
00000180: cb70 fa3c bd9b 933d 584b 7e3d a6f0 3ebd
00000190: 9359 133b 980a 5dbd 4017 92bd 4468 16bd
000001a0: c500 a13d be96 fc3b 40af 0bbc 28d9 c03d
000001b0: 8a67 d4bc ab9a 1cbe 4d30 983b 7253 92bd
000001c0: b7e8 68be cca2 17be f60c 5cbd a6d8 42be
000001d0: 7771 afbd 5196 b53d 82bf 4e3e 1d80 f7bb
000001e0: d738 22bc de0f 233e a36e 753d 44dd c1bc
000001f0: 50f7 643d 7461 5d3d d54c cdb9 43c4 2c3d
00000200: 08a7 71bd a4af 3fbd 6ca9 ba3d e549 b03d
00000210: 5f4b f9bc 6e69 4b3d 0188 3e3e 103e d13b
00000220: c140 0cbd 841c c0bc 2310 4f3d 6184 46bd
00000230: 5ada 54bb e422 0f3d 1e05 0b3c 7070 e9bc
00000240: 4e8a 0080 3b14 0000 b07e 0000 8d3f 0000
00000250: d857 0000 96bb 0000 6851 0000 8b91 0080
00000260: cb7a 0080 1910 1d8a ca2e 938c f360 aa8c
00000270: 3cb3 9b83 3c2b 8f89 54dd b18a a62e 0080
00000280: f1b5 a801 a73a 0982 d779 e88e 18bb 3d8f
00000290: e22d 228f 290e 558e f789 d18e 8199 568f
000002a0: a8de 098b d085 518b 0b24 148c 83a1 f510
000002b0: 92ce 5310 1da9 490f d2fb a113 b3b3 4114
000002c0: 8961 0314 5896 e716 18cf d317 7787 a518
000002d0: 1f97 0080 4c1f 0000 2280 0000 6192 0080
000002e0: 45b7 0080 c55d 0000 cfbb 0080 13b9 0000
000002f0: 0755 0080 d475 0000 9d3e 0080 b302 0080
00000300: 2605 0080 53c0 0080 682b 0000 3f35 0000
00000310: 218d 0000 7a4c 0000 c283 9498 40eb d298
00000320: c310 d698 a90b 999a f7ce d09a 26e9 9a9a
00000330: 05c6 ce97 52ba 3998 6db8 3a98 f4a8 0000
00000340: 1d19 0000 939d 0080 eb2f 0080 572a 0000
00000350: 7413 0080 a6b8 0080 5671 0080 3c46 0080
00000360: 091e ae98 561d c197 9b1c 9396 3c23 0817
00000370: 8d94 f117 4f24 6217 b6e4 0414 ece2 2a15
00000380: ddbb 5f15 f190 3320 dae1 2720 e450 3620
00000390: 6fad 9b1e fa10 fd1e f2a5 6f1f 2ed2 091d
000003a0: d4e7 8a1d 05d1 881e 81ab 0000 1485 0080
000003b0: 3efc 0080 d0d0 0080 f5b4 3900 254d 9500
000003c0: 1763 0080 b85f 0080 9ea8 0180 f90c 049a
000003d0: c11f 3f9a 6876 949a f035 5696 a99d 9996
000003e0: 9d64 1597 05b1 d58d c44b 728e 3149 628f
000003f0: 560b 0080 f16b 0000 dc82 0000 4859 0000
0.0334584 0.02142152 0.006559544 0.05981206 0.093565606 -0.00074017147 -0.0100690015 0.10630628
0.05726202 -0.013712237 0.10793365 0.016025893 -0.007312278 0.09590031 0.114918254 0.03421009
0.09468308 0.07122511 0.08362211 0.025800852 -0.030145334 -0.029437019 -0.02937509 -0.042378657
-0.08773148 -0.009466736 -0.030062864 -0.031212416 0.0056634652 -0.0062159672 -0.051425762 0.10451794
0.10968846 -0.037355408 0.011632533 0.09034503 -0.037718207 -0.028229376 0.048170097 -0.120133944
-0.19746016 -0.11972783 -0.021007914 -0.19440472 -0.12788 0.057557285 0.060069382 -0.057965722
0.03744656 0.06620499 -0.03291899 0.054502785 0.06205702 0.08764309 -0.019466924 -0.044085678
-0.092778735 -0.048486043 -3.6443915e-05 0.041053 -0.029519629 -0.046878796 0.04859172 0.08830662
0.09452376 0.14641914 0.042374026 0.07675629 0.121295504 -0.07619102 -0.0069607026 -0.010142384
-0.008684129 -0.0501333 0.025175996 -0.02629273 0.05048196 0.12675911 0.016747888 0.052657872
0.15230614 -0.07914787 0.09260703 -0.015250751 -0.029310409 0.027996536 0.02551261 -0.13159142
-0.095608056 0.064512044 0.077096485 0.083871275 0.08716341 0.060608212 -0.049355745 0.022314588
0.030571362 0.07207439 0.062083572 -0.04661622 0.002248381 -0.05396518 -0.07133341 -0.03672053
0.07861475 0.0077083996 -0.00852567 0.09416419 -0.025928278 -0.15293376 0.00464443 -0.07144822
-0.22745024 -0.14808196 -0.053723298 -0.19027957 -0.085665636 0.08866561 0.20190242 -0.007553114
-0.009901247 0.15924022 0.059919965 -0.023665078 0.055899918 0.054048017 -0.0003915789 0.042179357
-0.058997184 -0.046798363 0.09114346 0.08607844 -0.030431448 0.049661092 0.18606569 0.0063855723
-0.03424144 -0.023451097 0.0505525 -0.04846609 -0.003247878 0.034945384 0.008485107 -0.028495997
-4.9614e-41 7.257e-42 4.5447e-41 2.2798e-41 3.1512e-41 6.7293e-41 2.9203e-41 -5.2211e-41
-4.405e-41 -7.562303e-33 -2.2677096e-31 -2.6250996e-31 -9.151231e-37 -3.4466655e-33 -1.7127734e-32 -1.6734e-41
6.1974527e-38 -1.0082003e-37 -5.7309743e-30 -9.3544524e-30 -7.996053e-30 -2.6261095e-30 -5.1655333e-30 -1.05805784e-29
-2.6552748e-32 -4.0352605e-32 -1.1412352e-31 9.688431e-29 4.177155e-29 9.942635e-30 4.0890428e-27 9.779449e-27
6.633045e-27 3.7414943e-25 1.3687833e-24 4.2788285e-24 -5.4212e-41 1.1227e-41 4.5965e-41 -5.2511e-41
-6.5745e-41 3.3638e-41 -6.7373e-41 6.6392e-41 -3.0502e-41 4.2269e-41 -2.2461e-41 -9.68e-43
-1.847e-42 -6.8993e-41 1.5571e-41 1.9101e-41 5.0628e-41 2.7435e-41 -3.8390145e-24 -5.452127e-24
-5.533463e-24 -6.3298155e-23 -8.6361153e-23 -6.406958e-23 -1.3362425e-24 -2.4004757e-24 -2.4133048e-24 6.0609e-41
9.009e-42 -5.6527e-41 -1.719e-41 1.5189e-41 -6.978e-42 -6.624e-41 -4.0657e-41 -2.5195e-41
-4.5008274e-24 -1.2479738e-24 -2.3767183e-25 4.398844e-25 1.5611759e-24 7.3070366e-25 6.709402e-27 3.4510236e-26
4.518269e-26 1.5209847e-19 1.4220178e-19 1.5442764e-19 1.6482994e-20 2.6794438e-20 5.0747485e-20 1.824046e-21
3.6768e-21 1.4486009e-20 6.1524e-41 -4.774e-41 -9.0487e-41 -7.4908e-41 5.299538e-39 1.3711163e-38
-3.5547e-41 -3.4337e-41 -1.52324e-40 -2.730744e-23 -3.9523525e-23 -6.140266e-23 -1.7303802e-25 -2.481798e-25
-4.827149e-25 -1.3169754e-30 -2.9865283e-30 -1.11567564e-29 -4.067e-42 3.8722e-41 4.6943e-41 3.2028e-41

conv3.bias f4 [16]
00000000: 64c1 72bd ae26 92b7 d69f a63d c779 023e
00000010: 51df df00 75cd 353d a2b0 bc3d 9017 77bd
00000020: 0e4c 313d 7bdc acbd a74f f93c d77a 973c
00000030: 3f78 a6bd d49c c1ba 198c 1b8d 4c6c 3d3d
-0.059266463 -1.7422568e-05 0.08135955 0.12741767 2.0559426e-38 0.044385392 0.092133775 -0.060325205
0.043285422 -0.08440491 0.030433489 0.018491192 -0.08128404 -0.001477147 -4.79317e-31 0.046245858

conv4.weight f4 [16, 16, 3, 3]
00000000: ff92 24be 7c4b debd ec90 6c3d 78dd babd
00000010: 335b a9bd cf60 983d a2b9 abbd 8669 97bd
00000020: 1e9b 333d 10a3 421f a485 1221 a17f cd22
00000030: 74b2 7d1d a7c2 431f 225f e020 4956 2f19
00000040: ef07 4219 66ae 1419 0ee6 b4bd 2f26 71bd
00000050: ad72 bfbc 81fa 2abd 8c0a c5bd 7065 1c3d
00000060: 46e6 5c3d e0de 3b3d 17d6 d13d 1e45 0c3e
00000070: e323 183e d6e9 203d 97fc 063e 97c4 033e
00000080: de17 d03c 1d76 453d 7756 c63c c16b 53bd
00000090: b6d1 0000 f2cc 0000 12b2 0080 37de 0000
000000a0: 800f 0000 c6e8 0000 2178 0000 4646 0080
000000b0: 083b 0080 e6e2 d9bd c6c1 3a3c 7945 2b3e
000000c0: 2c7b d8bb 6f63 f33d cd53 333e b077 a33d
000000d0: c3a4 e83d 6cf0 4b3d 96d2 29bd 80a7 083d
000000e0: 5099 a63d 07b0 ac3c 8cf1 a53d c59a 2d3e
000000f0: 2dfb 003c a023 de3d e002 133e 99ba 16bd
00000100: 7170 9abd a715 e93c e3f1 eabd 83f7 b3bd
00000110: 5326 9e3d 90cb efbd 8f8f fd3c 78b4 db3c
00000120: 9af1 e9bd 221a 6fbd 0b55 293d e4f2 8bbd
00000130: 5bd9 df3c d5d5 b63d 44c4 4b3d 357d ba3d
00000140: 58e3 583d 0dc1 21bc 5da9 e7bb 380d 5cbd
00000150: cdf2 bebc f0dd 4dbd b170 ebbd d569 733d
00000160: 78c6 a1bc a42c 1cbe f680 01be 639f 2d3d
00000170: ce6b d83d a485 87bd 0ddf 06bd 9921 c23d
00000180: 9bdd 64bc 974a 16bb 5f8e aa3d 7e02 093e
00000190: 401d ba3d 4c2a d7bd 6e22 9f3d fc85 713c
000001a0: 66be 1bbd e3b5 edbc a207 50bd b17c 09bd
000001b0: 314a 9abd 309c 58bd b1eb 643d f8f2 16be
000001c0: 8074 41bb 30ad f2bc fc48 aabd 647d e9ba
000001d0: 6681 9a3d 3cf4 83b2 573d 54b2 3b56 91b1
000001e0: 047f 8db4 3b96 3fb4 acf3 24b3 5665 37b5
000001f0: 7207 23b5 80e6 0db5 8ca8 340d 6bd5 1f0d
00000200: 1845 1a0d bfa0 250d 1911 300d 1c48 400d
00000210: b156 160c 0919 ba8b 0009 bc0b 8881 68bd
00000220: c7b2 9dbd 5a90 5ebc cc60 b6bd 6f6a 11bd
00000230: c892 e93d 54ec a7bc 66c2 873c 495d 733d
00000240: 99c5 b5bc 7b3c ac3c 8119 203b 684a 13bd
00000250: fcc5 55bd 6ee7 b83d d3c4 55bd 6c42 4e3b
00000260: 5dfc e23b 7865 0000 d56f 0080 875e 0080
00000270: 1786 0080 7096 0080 9049 0000 4913 0080
00000280: ea2d 0080 c920 0080 796e b8bc 0c68 003d
00000290: 20f5 b93c 563c cdbc fbfe 37bd eeb7 043d
000002a0: ad18 33bd 94af 1dbd 0ef2 3c3b d865 f23c
000002b0: 299b 103c 1516 31bd f3c9 523d 313f 553d
000002c0: 510a 843b 81b2 293d 5d80 503d 7067 fb3c
000002d0: 0986 0080 ccc7 0000 b4ce 0000 a31c 0080
000002e0: 4424 0080 572b 0080 e952 0080 03a7 0000
000002f0: 2602 0180 d0d8 c7bd a3dd 64bc f645 053d
00000300: a841 4ebe 9fed 1dbe a0cc 283c 2839 f1bd
00000310: a9c6 e5bd 1e49 6ebd 5e9c 463d 22b1 743d
00000320: ff1a a53d 7bfa a1bd de1b febc 5c6f ea3d
00000330: 70d5 17bb 74e5 0cbd d75d ce3c 0a7c 733d
00000340: c755 af3b d828 c23c b559 ecba 5f0c 403d
00000350: 51dd 9a3d f2bc c7bc 6056 f3ba c75f f83d
00000360: 2928 97bc d67a b3bc ec2e d43c 2253 6ebd
00000370: c595 8bbc 1bc5 da3b 2d75 a7bd 030b 5f3c
00000380: 3232 f63c f3ff 5cbb a148 8ebd 1515 67bd
00000390: f5f3 443c a2b2 b73c 49f7 f53c cc27 943d
000003a0: 82a6 3fbb 1b53 3ebc 1697 d73b cb78 2b3d
000003b0: 686d 7f3d f52f c3bd 1164 a83c 0b85 893d
000003c0: b70b 4fbd b3aa 6ebd f17c 663d 31f1 a23c
000003d0: 44bc b0bb acc7 97bc 2984 fdbc eca7 a93c
000003e0: 6801 b3bd 5c78 c53c baef 343d ed9a 06bd
000003f0: edfc eabb d0ad 4bbc e2f6 06bd d3a5 01bd
-0.160717 -0.10854241 0.057755396 -0.09124273 -0.08269348 0.0744034 -0.08385016 -0.07393174
0.043849103 4.121598e-20 4.9643596e-19 5.5700494e-18 3.357653e-21 4.145387e-20 3.801003e-19 9.064713e-24
1.0031167e-23 7.68664e-24 -0.08832942 -0.058874305 -0.023370111 -0.041742805 -0.09621152 0.038182676
0.053930543 0.045866847 0.102459125 0.13698241 0.1485744 0.039285503 0.13182293 0.12867962
0.025402006 0.048208345 0.024211152 -0.051616434 7.523e-41 7.352e-41 -6.388e-41 7.9716e-41
5.56e-42 8.3503e-41 4.3094e-41 -2.521e-41 -2.1176e-41 -0.106389806 0.011398738 0.1672572
-0.00660648 0.118842 0.17512436 0.07981813 0.11359551 0.04978983 -0.041460596 0.033362865
0.08134711 0.02108003 0.08102712 0.16953571 0.007872385 0.10846639 0.14356565 -0.036799047
-0.07540978 0.028452707 -0.114719175 -0.087874435 0.077221535 -0.11708748 0.030952243 0.026819453
-0.11423035 -0.05837453 0.04134087 -0.06833437 0.027325323 0.08927504 0.04974772 0.091059126
0.052951187 -0.009872687 -0.00706975 -0.053723544 -0.023309136 -0.050260484 -0.114961036 0.0594271
-0.019747958 -0.15251404 -0.12646851 0.04238833 0.10567437 -0.06617287 -0.03292756 0.094790645
-0.0139688505 -0.0022932643 0.083279364 0.13379857 0.0908761 -0.10506114 0.07770239 0.014741417
-0.038023375 -0.029017394 -0.05078853 -0.03356618 -0.07533682 -0.052883327 0.055888835 -0.14741123
-0.0029518902 -0.029623598 -0.08314702 -0.0017813859 0.07544212 -1.5361472e-08 -1.2353971e-08 -4.2298587e-09
-2.6355713e-07 -1.7842915e-07 -3.8405844e-08 -6.8320276e-07 -6.0733066e-07 -5.2862015e-07 5.5669663e-31 4.925255e-31
4.7538082e-31 5.103804e-31 5.425477e-31 5.9251366e-31 1.1581667e-31 -7.168226e-32 7.242851e-32 -0.056764156
-0.07700115 -0.013584221 -0.08905181 -0.035501894 0.114049494 -0.020498432 0.016572189 0.059415136
-0.022188948 0.021024933 0.0024429264 -0.03595963 -0.052190766 0.09028517 -0.05218966 0.0031472696
0.0069270567 3.64e-41 -4.0118e-41 -3.391e-41 -4.8102e-41 -5.3967e-41 2.6389e-41 -6.918e-42
-1.6471e-41 -1.1761e-41 -0.022513615 0.031349227 0.022699893 -0.025053184 -0.044920903 0.03240197
-0.043724705 -0.038497522 0.00288308 0.029589579 0.008826056 -0.04323395 0.051462125 0.052062217
0.00402955 0.04143 0.050903667 0.030688971 -4.8083e-41 7.1674e-41 7.4151e-41 -1.0273e-41
-1.301e-41 -1.5547e-41 -2.9743e-41 5.9913e-41 -9.2606e-41 -0.097581506 -0.013968858 0.032537423
-0.20142233 -0.15422677 0.010302693 -0.1177848 -0.11219532 -0.0581752 0.048488967 0.05973924
0.0806179 -0.079091035 -0.031019147 0.11447021 -0.002316799 -0.03439851 0.02519123 0.059444465
0.0053508016 0.023701116 -0.0018032106 0.046886798 0.07561744 -0.024382088 -0.001856517 0.12127643
-0.018451767 -0.021909159 0.02590128 -0.05818475 -0.01703919 0.006676329 -0.081766464 0.013613465
0.030053232 -0.0033721894 -0.069474466 -0.05641659 0.0120210545 0.022424046 0.030025141 0.07234153
-0.0029243533 -0.011616494 0.00657929 0.041863244 0.062360197 -0.095306315 0.020555528 0.06714829
-0.05054828 -0.05826826 0.056271497 0.0198904 -0.0053935368 -0.018527828 -0.030946808 0.020709954
-0.087405026 0.024105243 0.044173934 -0.032862592 -0.0071712644 -0.012431577 -0.03295029 -0.031652283

conv4.bias f4 [16]
00000000: 0285 f2bc 13f4 593d 0a5e 11bd 8026 b53d
00000010: 3f19 30bd 49bd 0abb 803c 2a3d 52d8 7a3d
00000020: 5357 eebd d7cd 56bd ca91 493d 6452 00be
00000030: 802a c13d c07b 813d 118c 31bd 3d00 c1bd
-0.029604439 0.053211283 -0.035490073 0.08845234 -0.042992827 -0.0021169952 0.041561604 0.061241455
-0.116377495 -0.052442398 0.0492113 -0.1253143 0.09431934 0.063224316 -0.04334647 -0.094238736

fc1.weight f4 [64, 784]
00000000: e034 513c 2a97 913c b9b1 573c fc99 e33c
00000010: 090a 113d 6ca9 043d 8bc4 a03c 258b 9f3c
00000020: 105c f63c b12b 533c 9a05 3a3c 5e2d 9e3c
00000030: 5e5d 623c f0e6 5d3c 597f 533c 60da 6d3c
00000040: 2d4d b83b 7269 05bd c170 583b 2915 af3c
00000050: d081 f33b 20c9 353c 3be9 423c 07c5 19bc
00000060: 694a 0dbd bf6b b63c 61ec 863c 0231 983c
00000070: d26b 583b 5fa6 beba dfa2 ddbc b241 9e3b
00000080: 2b52 0f3d 9f20 ab3c 7aa5 62ba 61d6 243a
00000090: 1d26 0abc 8fc6 dabb 9dc0 2fba bb11 9abb
000000a0: 2de8 00bc bb6f 92bb bce1 ea3a 39cb 15bc
000000b0: b502 49bc 586f a9bc 5fc8 9cbc 42fa 0cbc
000000c0: dacd b6bb b6de 10bc a6d9 f33a c67d f4bb
000000d0: c5bc 33bc 76c1 8d39 233e 26bc b610 1ebc
000000e0: 8e6d dabb 230e 623b 771e 29bc 758d 2abc
000000f0: be33 91ba 1904 e7ba db7d 44bc d31e 843a
00000100: 1774 bb3b bd8c 08bc 7d11 33bb 42f2 183c
00000110: 5742 c0ba 9783 77bc 13d9 db3b d255 be3b
00000120: f610 823a 1bb7 4f3b 4da7 cb3c 70f0 0f3c
00000130: 049d 34bb 9a55 1c39 68ac f9ba 1e0f 973b
00000140: c2db 83b8 ba76 343c 9bb9 963b 97f7 c83b
00000150: 1dcd 77bb a604 87bb 46d9 c3b7 3b21 a43a
00000160: e17e 113c 87f1 e03b 9c8b 98bb ad9a b9bc
00000170: 18f0 5aba afaf fd39 1fd5 8d3b fe4a 883b
00000180: 422f 353b f4e6 24bc f6fa e4ba f99a a93b
00000190: 4c23 053b 3ed5 38bb aef4 a3b9 b40c 18bb
000001a0: 7f2a f8ba 1589 b63b 3e4e 2d3c bfc3 a5ba
000001b0: 4e31 903a 3ae9 a13b 4e4c 74bb 9fda 91ba
000001c0: 71f9 1cbb 4f9c 10bb db65 dfb9 f227 8d3a
000001d0: d69c 293b 5b9a b93b 3848 773a 1e4f 1cba
000001e0: f4f8 013b 3e42 aa3b 17b8 4b3c 7e84 8d3c
000001f0: aa45 3b3c 0695 ea39 f2ad 24bb 690b 5cb9
00000200: 5416 1aba b10f 8ebb 9090 7fbb 42d5 c537
00000210: de23 d83a 0ddf b6ba 90a3 663a e3e7 253b
00000220: 0459 ca3a 6fd2 113c 0a2a 313b 66af c7ba
00000230: e706 33bb 73e6 aa39 d3a9 ca3a 3fb4 b43b
00000240: 5a2e da3b dd5c 13bb 2b9c 0b3b 1336 9639
00000250: f403 d33a 25e2 083b 0ce6 133b d0d6 c63a
00000260: ae3e 903a 22f0 013a f4d4 a63b 3137 463b
00000270: 389e a03b 3fa6 e53b bdf9 723b 1c5d 0a3a
00000280: 483a 4b3a 414e 9b3b 9bb4 b33b 0848 9f3b
00000290: 5f62 b03a fe85 0bb8 c8af 84ba 3cb8 d839
000002a0: feb4 c93b 1f0f 173c fe24 b83b d00f 443b
000002b0: 85e5 233b 1464 8d3a 9ab6 8e3b 0801 513b
000002c0: 89b2 3d3b 44f9 8a3b a5f8 883b 8121 f83a
000002d0: f474 df3b 41a4 3f3a 2176 1938 a141 a5bb
000002e0: 3b06 2ebb a8e9 463b 9320 3239 ed93 efba
000002f0: a88f ad3a 4309 a6bb d8d6 81bb 5dfa efba
00000300: ba0d 31bb 06b1 1bbb 2907 74bb ffa9 f639
00000310: 0dbb 16bb 17d7 2bbc ad07 c0bc cd28 9ebc
00000320: b8ad 37bc b8a9 1ebc bb23 05bc aed9 05bc
00000330: fcd4 9ebc 1917 26bd 0dc1 51bd a02d 90bc
00000340: 02ef 3ebc 3101 35bc ea9a 65bc 1afc 49bd
00000350: 560f 02bd 45a8 39bc 467c 0ebd 19fb 35bc
00000360: 9fb9 d4bb 940f 55bc 304b 60bd 822a ec3b
00000370: b60d 983c 2510 1ebb f06a 8b3b 4c8d 073b
00000380: 03a2 ab3b e011 87bb ed40 da3b 0e18 d13b
00000390: 9ed1 23bb 3f17 e83b 1784 0bbb e5ad 94bb
000003a0: 6c75 c0bb fca8 273b 168b 3c3c 2c81 45ba
000003b0: d116 8b3a 0cfa 693a 7dc0 243b 6084 6abc
000003c0: 2604 a6bb 02ab 2bbc 7a90 bdbc 52ca c6bb
000003d0: 6350 25bc 4d4a 45ba 6c6b 8ab9 82f1 0139
000003e0: 34ca 9739 092c 4eba 797a 5aba cc70 1fba
000003f0: 51d4 993a af4b b5ba 1914 f8ba 964e 40bb
0.012768954 0.017772276 0.013164931 0.027783386 0.03540996 0.032388136 0.019624969 0.019475529
0.030073196 0.012888835 0.011353875 0.019308742 0.013816206 0.013543829 0.01290878 0.014517397
0.0056244344 -0.032571264 0.003302619 0.021372395 0.0074312463 0.011095315 0.011896427 -0.009385354
-0.03449479 0.022268174 0.016470136 0.018578056 0.003302325 -0.0014545432 -0.027055202 0.004829609
0.03499047 0.020889578 -0.0008645874 0.00062880485 -0.0084319385 -0.006676502 -0.0006704422 -0.0047018207
-0.007867855 -0.0044688857 0.0017920057 -0.00914269 -0.012268712 -0.020682976 -0.019138513 -0.008604588
-0.0055787386 -0.008842161 0.0018604293 -0.0074612824 -0.010970299 0.00027037755 -0.0101466505 -0.009647539
-0.006665892 0.003449329 -0.010322205 -0.010409703 -0.0011078042 -0.0017625123 -0.011992897 0.0010079987
0.005720626 -0.008334336 -0.0027323656 0.0093351025 -0.0014668208 -0.015107057 0.006709227 0.0058085704
0.0009923268 0.0031694833 0.024860049 0.008785352 -0.002755941 0.00014909208 -0.0019048573 0.0046099564
-6.2875e-05 0.011014635 0.0045997626 0.0061330306 -0.0037811466 -0.004120427 -2.3346987e-05 0.001252211
0.008880348 0.00686473 -0.0046553146 -0.022656763 -0.0008351817 0.00048386815 0.0043283845 0.0041593304
0.0027646576 -0.010064829 -0.0017469812 0.005175945 0.0020315228 -0.0028203274 -0.00031272083 -0.002320093
-0.0018933563 0.0055705407 0.010577736 -0.0012646838 0.0011001022 0.004941133 -0.0037276926 -0.0011127776
-0.002395239 -0.0022065823 -0.00042609763 0.0010769351 0.0025880835 0.0056641526 0.00094330637 -0.0005962717
0.0019832226 0.005195885 0.012434027 0.017275091 0.011430183 0.0004474299 -0.0025128094 -0.00020985086
-0.0005877961 -0.0043353667 -0.0038996078 2.3583536e-05 0.0016490181 -0.0013951972 0.00087981764 0.0025315217
0.0015437906 0.008900269 0.0027033114 -0.0015234768 -0.0027317347 0.00032596625 0.0015461989 0.005514651
0.0066583576 -0.002248577 0.00213028 0.00028650518 0.0016099201 0.0020886746 0.0022567539 0.001517022
0.0011005008 0.0004956742 0.005091304 0.00302453 0.0049016736 0.0070083435 0.0037075125 0.00052781566
0.000775252 0.004739553 0.0054841763 0.0048608817 0.0013457051 -3.3264972e-05 -0.0010123188 0.00041335996
0.006155609 0.009219914 0.005619644 0.0029916652 0.002500863 0.0010787272 0.004355264 0.0031891484
0.0028945527 0.0042411406 0.0041800314 0.0018930883 0.006819362 0.00073105475 3.658806e-05 -0.005043224
-0.0026554007 0.0030351672 0.00016987538 -0.0018278338 0.0013241665 -0.005067022 -0.003962379 -0.0018308867
-0.0027016238 -0.0023756637 -0.0037235713 0.00047047433 -0.0022999675 -0.010488293 -0.02344116 -0.019306565
-0.011210851 -0.009684019 -0.008126195 -0.008169575 -0.019388668 -0.04054937 -0.0512095 -0.01759988
-0.011653664 -0.011047647 -0.014013985 -0.04931269 -0.031752907 -0.0113316225 -0.034786485 -0.01110723
-0.0064918543 -0.013004202 -0.054759204 0.0072072158 0.018561225 -0.002411851 0.0042546913 0.0020683585
0.005237819 -0.004122004 0.006660572 0.0063810414 -0.0024996768 0.0070828493 -0.0021288448 -0.0045373314
-0.005873373 0.00255829 0.01150777 -0.0007534202 0.0010611658 0.00089255045 0.0025139146 -0.014313787
-0.0050664125 -0.010477783 -0.02314018 -0.006066599 -0.0100899665 -0.00075260253 -0.00026401447 0.00012392367
0.00028951617 -0.0007864838 -0.000833429 -0.00060821767 0.0011736249 -0.001383176 -0.0018926888 -0.0029343716

fc1.bias f4 [64]
00000000: 3912 0a3d 6c44 4faa 269b feba 51ff 393b
00000010: 6d6a 94b9 baee fd3c ce18 47bc d6a4 5ea7
00000020: 3da4 093d 5694 80ba bfe5 bb3c 9c68 beae
00000030: 8cad cb3c f379 523d e28e 703d 9acc c7b7
00000040: e1b7 073d 71f4 80b7 decc 08b2 d68e 9e3d
00000050: e749 cf9b b186 a83d 8d44 dab9 3f86 8c3c
00000060: 5d80 4cb0 d518 0e3b 6e9b 153d e9ec 763d
00000070: b2c9 57b7 2434 fd3c be75 143d 6c90 343d
00000080: 0b8e 563d d7a8 88b3 6b6e beb2 9227 883d
00000090: 64b3 933d e222 26ac 1caf 1fae 455e 6439
000000a0: e82c 4eb5 c47b 54af 9ec6 f93c 2048 0d3d
000000b0: e0cb 90a3 4e3d 0b3d ea38 10b3 5848 3f3c
000000c0: 1b2d 6dbb 7d06 993d fa6b 983d c844 a43c
000000d0: 54b4 083d a3e7 9fb8 0721 133d 7a8c 57b0
000000e0: 79a9 6197 c709 04ad 4f80 953d 6620 9cb9
000000f0: b19e 2c3d ba0e 503d ce8e 20ae 762f b03c
0.033708785 -1.8409032e-13 -0.00194249 0.002838094 -0.00028308053 0.030997623 -0.01215191 -3.0898047e-15
0.033603895 -0.0009809833 0.0229367 -8.658782e-11 0.024863027 0.05138583 0.058730014 -2.3817924e-05
0.033134345 -1.5372616e-05 -7.962823e-09 0.077420875 -3.4293036e-22 0.08228815 -0.00041631275 0.017153857
-7.4397183e-10 0.0021682282 0.036525182 0.06028453 -1.28619595e-05 0.030908652 0.0362451 0.044083044
0.052381556 -6.363705e-08 -2.2169123e-08 0.066481724 0.072119504 -2.3609383e-12 -3.6307943e-11 0.00021778893
-7.680633e-07 -1.9325258e-10 0.030490216 0.034492612 -1.5698856e-17 0.03399401 -3.3579376e-08 0.011674963
-0.0036190215 0.07471941 0.0744247 0.020052329 0.0333751 -7.6248565e-05 0.03592017 -7.8416174e-10
-7.2915326e-25 -7.505502e-12 0.072998635 -0.00029778777 0.042143527 0.050795294 -3.6506624e-11 0.021507006

fc2.weight f4 [1, 64]
00000000: f56f 8dbe 924c 3db7 c1f2 373b a02e 91be
00000010: d334 41bb 9e25 5ebe fb97 153f 4f6f 63b6
00000020: f3ec 81be 1b24 27bb e53d d6be 9e58 b738
00000030: f6d8 153f a71a e3be 41af d23d 0564 6f3b
00000040: f541 b33d ede4 7d3a 85ca 043a a291 0c3e
00000050: d1bf c0b5 a397 e93d 02a4 8bb9 26d4 4fbe
00000060: c27f 403a 6a29 5bbe d48f 193f 2c1c 073e
00000070: c651 3abb bb74 a3be 0a42 b5be bf0b 6bbe
00000080: a9cd 733d 3345 acba b855 94ba 6f23 183e
00000090: 617d d43d 0511 35b3 c955 b437 4119 0d3f
000000a0: dfa3 cf3a 9825 2cba 7a2e 1a3f 5ecd edbe
000000b0: db1c 4e34 12a0 8cbe aa55 353b e3d0 113f
000000c0: f20d 9dba c376 b33d 62c9 093e feee 8dbe
000000d0: a4aa 91be 53c8 473a ca26 d5be 7800 7fb4
000000e0: bd4a 48ba a078 68ba df25 da3d bab3 893b
000000f0: 6132 dabe f491 90be 64fd 12bb 0e84 5bbe
-0.2762448 -1.1283106e-05 0.0028068277 -0.28355885 -0.0029480949 -0.21694037 0.5843503 -3.3890426e-06
-0.2537609 -0.0025503698 -0.41844097 8.742626e-05 0.5853418 -0.44356272 0.10287333 0.0036528122
0.08752815 0.00096852967 0.0005065578 0.1372743 -1.4360941e-06 0.114058755 -0.0002663434 -0.20295772
0.0007343256 -0.21402517 0.5998509 0.1319434 -0.0028430088 -0.31924996 -0.35401946 -0.229537
0.059522305 -0.0013143182 -0.001131705 0.14857267 0.10375477 -4.2157826e-08 2.1497619e-05 0.5511666
0.0015841684 -0.0006566881 0.6022717 -0.46445745 1.9195743e-07 -0.27465874 0.0027669468 0.5695936
-0.0011982305 0.087628864 0.13455728 -0.277214 -0.284505 0.0007621098 -0.41631156 -2.3748896e-07
-0.00076405314 -0.0008868072 0.106517546 0.0042023333 -0.4261656 -0.28236353 -0.0022428865 -0.21437094
