code/learned_models/breakout_trexnet_reward.params (torch_old, 259926 bytes, 11 tensors)

conv1.weight f4 [16, 4, 7, 7]
0.021770012 0.03567366 -0.063665845 -0.03150369 -0.033041805 -3.119466e-05 -0.015749814 0.07801161
0.0056652334 0.015811626 -0.026217435 -0.049665533 -0.081586644 -0.044059835 -0.04721684 0.0012925554
0.04766092 0.017050466 -0.08979984 -0.06456207 -0.0052165575 0.07211867 0.0104496 0.07189938
-0.00059114356 0.017736923 0.053609576 -0.13038318 -0.024982763 -0.031175436 -0.010242081 0.0957453
-0.0053266147 -0.005996924 -0.097831726 -0.06910794 -0.065634266 0.047770422 0.056769624 0.07019356
0.045228377 -0.0326086 -0.0036503004 -0.121867746 -0.11245779 -0.06769063 0.051159628 0.09441193
-0.0033369947 -4.315506e-05 0.06024579 0.08886643 0.09157065 0.056497503 0.06942823 -0.032400407
-0.0026163312 -0.05242953 -0.013069367 0.028780032 0.06709232 0.06451651 -0.006444706 -0.024153672
0.033476144 -0.008151659 0.030379597 0.06294021 0.070275955 0.089260586 -0.061450545 -0.03873504
0.048114438 0.081725456 0.096367925 0.046141773 0.02024478 -0.0924709 -0.02330632 -0.072128356
-0.06964027 0.013026414 0.01553042 -0.05628245 -0.010132773 -0.04227165 -0.065730296 -0.03725856
0.029322162 -0.016039176 0.08397291 -0.022617469 0.0069518676 -0.018323671 -0.08536693 -0.059655685
0.046518583 0.043260492 -0.04757271 -0.014181724 0.10031827 0.13445313 0.021099431 0.015535715
-0.008271154 0.031572748 -0.0044957357 0.02502451 0.04663131 0.036141366 0.006371152 0.06833218
0.0047482336 0.112992965 0.12359656 -0.044888154 0.01439585 0.026764408 0.016396536 0.07601818
0.09140128 0.05938272 -0.0039688577 0.04974076 -0.031600818 -0.061264746 0.0012225565 0.0017175484
-0.0369787 -0.07089347 -0.06986708 -0.0038317281 -0.031649597 -0.0027784193 0.065204844 -0.040713966
-0.01325827 -0.015236796 0.059703737 0.1609046 0.075291365 0.057321034 0.032205593 0.01008125
-0.055801157 0.011115708 0.18525192 -0.0135338325 -0.07212789 -0.103433006 -0.10849673 -0.10821524
-0.03973672 0.036800984 0.037308663 -0.08454905 0.009975887 -0.10017173 -0.06098818 -0.05482238
-0.03039131 -0.03944987 -0.10418987 -0.10044627 -0.053094175 -0.04981865 -0.08096424 -0.024763586
-0.10107568 -0.05402353 0.016974587 -0.056759547 0.021690177 0.0066058165 -0.072246775 0.050651703
0.022137424 -0.01954412 0.04536242 -0.048415203 0.006097124 -0.041567594 0.12166727 0.110520884
0.09696343 0.09320764 0.029293144 -0.062293135 -0.10703609 0.020024026 0.051467896 0.024007583
-0.05896659 -0.00848301 -0.094366275 -0.07610189 -0.050766468 0.009656569 -0.08016962 -0.029599478
-0.006359227 0.033734053 -0.056516774 -0.05076264 -0.042256437 0.021357145 -0.06141805 0.036645442
0.0060197324 0.0027394542 0.001671017 -0.020543529 -0.011954721 -0.028276734 -0.00074911583 0.009247755
-0.025182674 -0.0246734 0.06893586 -0.07717375 -0.010851203 0.07454153 0.029384498 0.012469735
-0.10214649 -0.017351732 -0.099560946 -0.067874454 -0.07133973 -0.059517615 -0.0513605 0.019221166
-0.03663789 0.008118815 0.0026580296 -0.08991904 -0.014411031 -0.09965469 -0.06806701 -0.014811863
0.009898655 0.029175386 -0.061986025 -0.034864523 0.017643737 -0.058781125 0.039774466 -0.08699574
-0.019434638 -0.0105515495 -0.04084074 0.019663477 0.07304566 -0.012437472 -0.057030797 -0.047182653
00000000: 0657 b23c 8b1e 123d 3d63 82bd 030a 01bd
00000010: d856 07bd 03d7 02b8 c105 81bc 8dc4 9f3d
00000020: 6ca3 b93b 6287 813c f2c5 d6bc 166e 4bbd
00000030: e616 a7bd 1678 34bd 7266 41bd f66a a93a
00000040: 1938 433d 6bad 8b3c fae8 b7bd 1e39 84bd
00000050: a8ef aabb f4b2 933d cd34 2b3c fb3f 933d
00000060: f9f6 1aba 064d 913c b795 5b3d 2b83 05be
00000070: a7a8 ccbc a163 ffbc 67ce 27bc 1d16 c43d
00000080: e28a aebb d881 c4bb 005c c8bd 7788 8dbd
00000090: 426b 86bd ebaa 433d 4487 683d a4c1 8f3d
000000a0: 6441 393d 9890 05bd e139 6fbb cc95 f9bd
000000b0: 4550 e6bd 63a1 8abd c28c 513d 0b5b c13d
000000c0: 7bb1 5abb 6501 35b8 4ac4 763d 9aff b53d
000000d0: 6589 bb3d ed69 673d 6330 8e3d 4ab6 04bd
000000e0: c176 2bbb 59c0 56bd e620 56bc 1ac4 eb3c
000000f0: b367 893d 3b21 843d 1d2e d3bb ecdd c5bc
00000100: 481e 093d 898e 05bc a2de f83c cce6 803d
00000110: d7ec 8f3d 41ce b63d 91b3 7bbd a2a8 1ebd
00000120: a513 453d ad5f a73d 8c5c c53d 28ff 3c3d
00000130: 62d8 a53c 6261 bdbd e5ec bebc 08b8 93bd
00000140: 8f9f 8ebd be6c 553c 4d73 7e3c 6d88 66bd
00000150: ee03 26bc 0a25 2dbd 9b9d 86bd 6f9c 18bd
00000160: 0835 f03c 9764 83bc fdf9 ab3d 4548 b9bc
00000170: 7ecc e33b 861b 96bc dbd4 aebd 8559 74bd
00000180: 458a 3e3d ea31 313d 9adb 42bd 765a 68bc
00000190: aa73 cd3d 15ae 093e b7d8 ac3c 8389 7e3c
000001a0: bc83 07bc 6d52 013d f750 93bb 3400 cd3c
000001b0: 7900 3f3d f808 143d 19c5 d03b bef1 8b3d
000001c0: 1297 9b3b db68 e73d 3120 fd3d a4dc 37bd
000001d0: 92dc 6b3c 0841 db3c 0752 863c 6baf 9b3d
000001e0: 9830 bb3d 4c3b 733d 310d 82bb f8bc 4b3d
000001f0: dc6f 01bd bef0 7abd 303e a03a 5c1f e13a
00000200: fa76 17bd 9830 91bd 7916 8fbd bb1d 7bbb
00000210: 02a3 01bd 2416 36bb 1e8a 853d b0c3 26bd
00000220: 3739 59bc c1a3 79bc e88b 743d 2dc4 243e
00000230: 5c32 9a3d 76c9 6a3d 03ea 033d d42b 253c
00000240: c18f 64bd a91e 363c aeb2 3d3e 02bd 5dbc
00000250: cab7 93bd afd4 d3bd 8933 debd f49f ddbd
00000260: f9c2 22bd a1bc 163d f8d0 183d 0d28 adbd
00000270: e771 233c d626 cdbd bece 79bd 6f8d 60bd
00000280: 32f7 f8bc 3096 21bd 8061 d5bd c6b6 cdbd
00000290: 4779 59bd a40e 4cbd 94d0 a5bd 01dd cabc
000002a0: c400 cfbd c747 5dbd 4a0e 8b3c b37c 68bd
000002b0: 99af b13c 9b75 d83b 1ef6 93bd 2978 4f3d
000002c0: 8b59 b53c fe1a a0bc f2cd 393d 054f 46bd
000002d0: 62ca c73b c842 2abd b12c f93d c658 e23d
000002e0: c394 c63d a6e3 be3d 2df8 ef3c 1627 7fbd
000002f0: bd35 dbbd 6d09 a43c 00d0 523d 8dab c43c
00000300: f386 71bd 53fc 0abc 1b43 c1bd 4fdb 9bbd
00000310: 80f0 4fbd 9636 1e3c f82f a4bd 9b7a f2bc
00000320: 1061 d0bb b82c 0a3d 227e 67bd 7cec 4fbd
00000330: 1615 2dbd 2ef5 ae3c 7e91 7bbd 8819 163d
00000340: 2d41 c53b 6a88 333b 0706 db3a e74a a8bc
00000350: bcdd 43bc 9ca4 e7bc 5060 44ba e583 173c
00000360: e54b cebc df1f cabc 3f2e 8d3d 450d 9ebd
00000370: 3fc9 31bc 3ba9 983d c2b7 f03c dc4d 4c3c
00000380: 2e32 d1bd 3825 8ebc 9ce6 cbbd c301 8bbd
00000390: 901a 92bd bec8 73bd 635f 52bd b575 9d3c
000003a0: 9d11 16bd c704 053c 5632 2e3b 7927 b8bd
000003b0: 3f1c 6cbc c217 ccbd b766 8bbd 75ad 72bc
000003c0: f82d 223c 3801 ef3c 0fe5 7dbd 1ace 0ebd
000003d0: 9989 903c 7ac4 70bd 8dea 223d d32a b2bd
000003e0: 6435 9fbc 68e0 2cbc 9f48 27bd 4d15 a13c
000003f0: f798 953d 8ac6 4bbc 2099 69bd 9942 41bd

conv1.bias f4 [16]
0.00050756376 0.0049802186 -0.0086201085 0.015799165 0.0040185233 0.044618607 0.01970833 0.017212436
-0.0027415694 -0.031794257 0.012766294 0.038467932 -0.011298636 -0.047947578 0.0023068727 0.0114935115
00000000: 070e 053a 1a31 a33b 5b3b 0dbc 406d 813c
00000010: d1ad 833b 00c2 363d 5d73 a13c 1801 8d3c
00000020: e7ab 33bb b23a 02bd b829 513c 8d90 1d3d
00000030: ea1d 39bc ae64 44bd e72e 173b 484f 3c3c

conv2.weight f4 [16, 16, 5, 5]
0.042780485 -0.12374244 0.03446769 -0.008616551 0.11798567 0.041713126 0.07049216 -0.046063945
0.0041700443 0.049332663 -0.060648933 -0.023006054 -0.064623915 -0.046998475 -0.0044050426 0.011527352
-0.0029247985 -0.0082597835 -0.12008328 0.019167474 0.07201262 0.063117646 0.09971935 -0.00026989434
0.10277114 -0.012975784 -0.021209504 -0.048900995 -0.06519135 0.010391793 0.008755184 0.021930771
0.04100894 0.034119505 0.022269307 -0.07455317 -0.11190274 -0.08797411 -0.08041217 -0.060928855
0.049084038 -0.019844996 0.027448302 -0.005948486 -0.06347573 0.05102912 -0.01581589 -0.034885895
-0.051361315 -0.03729013 0.05365365 0.007928007 0.004967072 0.048816822 0.04328657 0.10219998
0.10367118 0.1804027 0.071938284 0.20133065 0.080110304 0.10234705 0.117138356 0.12319687
0.12275007 0.14260474 0.10620542 0.12516065 0.013715154 0.12787078 0.08993398 0.062227167
0.048531134 0.15597947 0.04918329 0.016830059 0.040764563 0.02510794 -0.0065780953 -0.025966
-0.0069367387 -0.043967884 0.00752242 -0.036725517 -0.013880686 0.011726743 0.047986694 -0.02124473
-0.0012020005 -0.05564987 0.012786766 0.010859412 0.00097184593 -0.07178913 -0.04650962 0.05094619
-0.0014023319 0.03900257 0.056970567 -0.024669176 -0.04145808 -0.044668246 0.019555476 0.009668001
-0.009696562 -0.031290274 -0.038270444 0.015592878 -0.020947605 -0.0067560575 0.0026498907 -0.04500179
0.051787835 -0.012191297 0.021794 0.026252782 -0.046467505 0.061277617 -0.03907872 0.027491441
-0.0129297385 -0.003019642 -0.04577167 -0.034230758 0.021106381 0.011928239 -0.02522267 0.0066489633
-0.011614962 0.044398367 -0.019904727 0.0534443 -0.03219291 -0.03225636 0.013203729 -0.019741233
0.029887311 -0.021041794 0.05256781 0.05668799 0.0034588946 0.011575562 0.043375142 0.035359576
-0.033090264 0.0246371 -0.023318445 0.05867748 0.02498627 0.022912966 -0.013103097 -0.059558608
0.0038106346 0.008403112 -0.056055296 0.011108967 0.0229732 0.056202915 -0.033067863 0.071623504
0.011896958 0.04815273 -0.0066140126 -0.028486423 -0.017913941 -0.0033169454 -0.016237065 -0.0492033
0.017234731 -0.018807432 0.016004162 0.0712315 0.011525083 -0.009966861 0.0038243951 0.01587915
-0.0039024325 -0.011560418 0.02474998 0.030066226 -0.029994227 -0.05584385 -0.060882144 -0.013590599
0.018885886 -0.061325114 0.011213064 -0.019429069 0.055478986 0.012219188 0.022848167 -0.04119474
0.004692994 -0.004176567 0.039278723 0.043192435 -0.011846612 0.04033186 0.022726778 0.05576275
0.009145556 0.030368663 0.010532455 0.051887445 -0.004898405 0.026013833 -0.019581413 0.030977711
-0.056106664 -0.030220436 0.03051882 -0.0016476192 0.014814128 -0.02299358 0.075830504 -0.032781355
-0.014495431 -0.028160904 -0.044180658 0.020664575 -0.012726252 -0.017934915 0.0123015605 0.00892539
0.10517777 0.014112422 -0.036068413 -0.023293817 0.0063203657 0.004089633 0.027572408 -0.025543984
-0.025736948 -0.0035729567 0.0048606354 -0.039050702 -0.023380091 -0.006184411 -0.06271622 -0.019256985
-0.049247455 -0.022037884 -0.027950527 -0.06897259 -0.067218706 -0.010631852 -0.037871588 -0.037966073
0.006020864 -0.02972008 -0.06878151 -0.05603258 -0.05818027 -0.031391278 -0.0639435 0.043354142
00000000: 973a 2f3d ad6c fdbd fe2d 0d3d 6f2c 0dbc
00000010: 79a2 f13d 62db 2a3d 325e 903d 8cad 3cbd
00000020: dea4 883b 0c11 4a3d 046b 78bd 3177 bcbc
00000030: 8b59 84bd 7981 40bd 2d58 90bb 38dd 3c3c
00000040: faad 3fbb 0b54 07bc 39ee f5bd 1b05 9d3c
00000050: 5a7b 933d d343 813d a939 cc3d 9b80 8db9
00000060: ad79 d23d 6298 54bc 8ebf adbc 694c 48bd
00000070: 0b83 85bd 5742 2a3c e771 0f3c 29a8 b33c
00000080: fef8 273d e5c0 0b3d 1f6e b63c 55af 98bd
00000090: 442d e5bd c52b b4bd 23af a4bd 8990 79bd
000000a0: 580c 493d f991 a2bc 43db e03c 84eb c2bb
000000b0: 90ff 81bd e903 513d 5390 81bc 83e4 0ebd
000000c0: 3e60 52bd 89bd 18bd eec3 5b3d 79e4 013c
000000d0: d2c2 a23b 26f4 473d 424d 313d 394e d13d
000000e0: 8e51 d43d 7cbb 383e 6154 933d 9f29 4e3e
000000f0: df10 a43d 559b d13d 3ce6 ef3d a44e fc3d
00000100: 6464 fb3d fa06 123e 3a82 d93d 1d2a 003e
00000110: 86b5 603c 8ff0 023e 4e2f b83d eae1 7e3d
00000120: 95c8 463d 15b9 1f3e 6b74 493d 31df 893c
00000130: bef8 263d 2baf cd3c 108d d7bb a6b6 d4bc
00000140: 954d e3bb ab17 34bd a27e f63b 7f6d 16bd
00000150: d16b 63bc 8621 403c b28d 443d 6e09 aebc
00000160: 728c 9dba 1ef1 63bd 957f 513c adeb 313c
00000170: 7ac3 7e3a 2e06 93bd df80 3ebd f4ac 503d
00000180: 73ce b7ba 29c1 1f3d f859 693d 0317 cabc
00000190: f3cf 29bd 0df6 36bd ce32 a03c 8966 1e3c
000001a0: 54de 1ebc 3b2a 00bd 78c1 1cbd 4579 7f3c
000001b0: 509a abbc eb61 ddbb caa9 2d3b cc53 38bd
000001c0: 7b1f 543d 01be 47bc 5589 b23c 1310 d73c
000001d0: b654 3ebd 3dfe 7a3d 0211 20bd bb35 e13c
000001e0: 41d7 53bc 30e5 45bb 137b 3bbd 8d35 0cbd
000001f0: 4ae7 ac3c a96e 433c c69f cebc 8cdf d93b
00000200: ae4c 3ebc 10db 353d 3d0f a3bc 69e8 5a3d
00000210: b6dc 03bd 3f1f 04bd 7454 583c 5eb8 a1bc
00000220: 3cd6 f43c d75f acbc 5851 573d aa31 683d
00000230: 9fae 623b 6da7 3d3c 22aa 313d 34d5 103d
00000240: a889 07bd bed3 c93c 5306 bfbc cc57 703d
00000250: 02b0 cc3c f9b3 bb3c 5fae 56bc baf3 73bd
00000260: d7bb 793b 35ad 093c 3d9a 65bd 6202 363c
00000270: 4b32 bc3c 0735 663d 2b72 07bd 58af 923d
00000280: 75eb 423c cc3b 453d 5cba d8bb 5c5c e9bc
00000290: 42c0 92bc 1c61 59bb 9803 85bc 6689 49bd
000002a0: da2f 8d3c 0b12 9abc 291b 833c d2e1 913d
000002b0: b4d3 3c3c 0c4c 23bc b4a2 7a3b fe14 823c
000002c0: f4bf 7fbb e867 3dbc 78c0 ca3c 724d f63c
000002d0: 74b6 f5bc 85bc 64bd 8e5f 79bd 1bab 5ebc
000002e0: 93b6 9a3c 0b30 7bbd 00b7 373c b629 9fbc
000002f0: ef3d 633d fd32 483c 142c bb3c d1bb 28bd
00000300: b0c7 993b 95db 88bb bae2 203d 8dea 303d
00000310: 4b18 42bc 0533 253d 822d ba3c 7b67 643d
00000320: 3ed7 153c b4c7 f83c 5190 2c3c ee87 543d
00000330: cd82 a0bb f61a d53c 3369 a0bc f8c4 fd3c
00000340: 1ad0 65bd d990 f7bc 9b02 fa3c edf4 d7ba
00000350: f5b6 723c 085d bcbc 064d 9b3d be45 06bd
00000360: 3f7e 6dbc b2b1 e6bc c7f6 34bd c148 a93c
00000370: c581 50bc 3eec 92bc 7c8c 493c cd3b 123c
00000380: 7167 d73d ca37 673c 79bc 13bd add2 bebc
00000390: 121b cf3b 5402 863b 88df e13c 9e41 d1bc
000003a0: 4bd6 d2bc 4428 6abb f745 9f3b a1f3 1fbd
000003b0: 9b87 bfbc 99a6 cabb 5d71 80bd d3c0 9dbc
000003c0: b3b7 49bd cb88 b4bc 81f8 e4bc 8041 8dbd
000003d0: f6a9 89bd 3831 2ebc 3d1f 1bbd 5082 1bbd
000003e0: ab4a c53b 8677 f3bc 52dd 8cbd 6b82 65bd
000003f0: 6f4e 6ebd 2494 00bd cff4 82bd 1d94 313d

conv2.bias f4 [16]
-0.04922809 0.04181298 -0.0041143754 -0.011210641 0.016966807 -0.020482559 0.008536081 0.032946967
0.032591186 0.04681354 0.044670142 -0.025248237 0.0063902186 0.059641752 -0.013500566 0.008426587
00000000: 65a3 49bd 1644 2b3d e2d1 86bb d6ac 37bc
00000010: f9fd 8a3c 0acb a7bc ebda 0b3c 66f3 063d
00000020: 567e 053d 8ebf 3f3d 0af8 363d 64d5 cebc
00000030: 0a65 d13b e94a 743d 7a31 5dbc ab0f 0a3c

conv3.weight f4 [16, 16, 3, 3]
0.098647684 0.04325918 0.05782858 0.11170762 0.017983891 -0.11524746 0.02952938 0.021904789
-0.2406537 -0.033569418 0.08849529 0.001057842 -0.06674616 0.08326509 0.16647935 0.056856442
0.08048952 -0.022741733 0.10152558 -0.030442156 -0.035388812 0.01508986 -0.04786456 0.0113233505
0.030198194 0.070772186 0.055578344 0.018874895 -0.03760777 0.0368243 0.08993411 0.11394936
0.17956735 0.1108672 0.030833676 0.04871434 0.08051892 -0.03414612 -0.08967716 -0.012319182
-0.14089572 -0.33142522 -0.078259856 -0.102892324 0.0023890713 -0.053432487 -0.01911098 -0.10332584
0.08157742 -0.04610468 -0.111789756 0.07611839 -0.18251456 -0.16921653 -0.014608829 -0.05750443
-0.0018891566 -0.069420904 -0.08372815 0.12950426 0.06439145 -0.053651586 0.11494972 0.11544864
0.04986327 0.09602826 0.08939903 0.017847888 0.07917094 -0.014313939 0.00046473485 -0.11760494
0.019356536 -0.038367976 0.11110492 -0.022232179 0.038897254 0.21111001 0.057249382 0.012786784
0.04377312 -0.1317138 0.08102851 -0.046960276 0.07440114 0.004385137 -0.040480386 -0.10185208
-0.08993024 0.052898917 0.06782715 0.060119282 0.096658945 0.11816202 -0.101202175 0.00091586396
0.05042543 0.030455498 -0.050024435 0.17340745 0.110143565 0.008976163 0.052472916 0.0023974143
0.04600907 -0.11189277 -0.01253515 -0.19885345 -0.042391676 -0.07252328 -0.0071247513 0.06482586
0.029936315 0.08198771 0.07176841 -0.045896992 0.08435888 -0.20708151 0.12051029 -0.06330708
-0.2142257 -0.105808765 -0.017358392 -0.14304954 -0.15146981 -0.062178 0.0028590537 0.06365263
-0.23060802 0.090156816 0.024515666 -0.26775602 0.019216552 0.021663005 0.052718744 0.24927045
0.095990494 -0.036942508 0.20825936 0.005465659 -0.15562518 -0.09926273 -0.059947662 -0.24356292
0.00012961832 0.0001427641 6.666707e-05 2.3845956e-05 4.4987904e-05 3.2527227e-05 -2.1689832e-05 -3.1381576e-05
-5.3507585e-05 2.8041104e-05 0.0003886014 0.00041174938 -0.0011526959 -0.0008127768 -0.00046948495 -0.0021463186
-0.0021276136 -0.002006198 -0.0020473106 -0.0016871783 -0.001741301 -0.0021203929 -0.0017939089 -0.0017607976
-0.0020410158 -0.002186938 -0.0022559501 -0.0021599408 -0.0017864339 -0.0016720294 -0.0027122719 -0.0023128297
-0.0021344167 -0.0024556513 -0.0024728363 -0.0024671855 -0.0021007368 -0.0018524906 -0.0020876054 -0.0017288881
-0.0016120882 -0.0017754438 -0.0012660515 -0.0012069572 -0.0013573193 -0.0012877523 -0.0011974479 -0.0013532841
-0.0013340961 -0.0011666222 -0.001308083 -0.00064746034 -0.000612408 -0.0007411004 -0.00035509127 -0.00020247827
0.00012308998 -0.0013240795 -0.0010071727 -0.0008160223 -0.0012589121 -0.0010842024 -0.001122327 -0.0004861747
-0.0004776911 -0.0004344741 -0.0012430206 -0.0012529006 -0.001143354 -0.0016468783 -0.0015139426 -0.0014019634
-0.0014133861 -0.0010329101 -0.0006334598 -0.0020159092 -0.0018162093 -0.0016538462 -0.00261623 -0.0025879093
-0.0025589343 -0.0039258525 -0.003729824 -0.0034819911 -0.004218914 -0.0041843075 -0.0039776242 -0.0031517453
-0.0030977607 -0.00280243 -0.0017698025 -0.0016740286 -0.0015870386 -0.0018947123 -0.0017976289 -0.0017196599
-0.001684859 -0.0016515962 -0.0016047991 -0.0005244385 -0.00038398683 -0.0004981952 -0.00037901048 -0.00030749376
-0.0003174233 -0.0003590515 -0.00032333468 -0.00032660583 -0.0004072662 -0.00037356294 -0.00036710987 -0.0005275545
00000000: cc07 ca3d 8a30 313d a9dd 6c3d f7c6 e43d
00000010: f452 933c dc06 ecbd 99e7 f13c ac71 b33c
00000020: ec6d 76be 1680 09bd 053d b53d 4aa7 8a3a
00000030: 36b2 88bd e386 aa3d 9079 2a3e 4de2 683d
00000040: b1d7 a43d df4c babc a5ec cf3d d461 f9bc
00000050: dcf3 10bd 763b 773c a10d 44bd 9385 393c
00000060: 3462 f73c 02f1 903d 1ea6 633d 869f 9a3c
00000070: 9b0a 1abd 14d5 163d 602f b83d 485e e93d
00000080: 81e0 373e 580e e33d e896 fc3c b088 473d
00000090: 1be7 a43d cddc 0bbd a9a8 b7bd 65d6 49bc
000000a0: f846 10be 91b0 a9be b446 a0bd 36b9 d2bd
000000b0: f791 1c3b 06dc 5abd a18e 9cbc 7f9c d3bd
000000c0: 1012 a73d 43d8 3cbd 07f2 e4bd f5e3 9b3d
000000d0: 19e5 3abe 1947 2dbe df59 6fbc c489 6bbd
000000e0: 949d f7ba 8c2c 8ebd aa79 abbd c49c 043e
000000f0: aadf 833d c4c1 5bbd c26a eb3d 5670 ec3d
00000100: 6e3d 4c3d 77aa c43d d716 b73d bc35 923c
00000110: 6024 a23d 0385 6abc a8a7 f339 dcda f0bd
00000120: 9991 9e3c bd27 1dbd fa8a e33d 4220 b6bc
00000130: ba52 1f3d 392d 583e 547e 6a3d a97f 513c
00000140: 714b 333d fbdf 06be 47f2 a53d 6b59 40bd
00000150: a05f 983d 32b1 8f3b c3ce 25bd d397 d0bd
00000160: 582d b8bd 89ac 583d f6e8 8a3d a33f 763d
00000170: 20f5 c53d eefe f13d 1643 cfbd 9716 703a
00000180: e58a 4e3d cf7d f93c 6ce6 4cbd b991 313e
00000190: f392 e13d c210 133c d7ed 563d f01d 1d3b
000001a0: 0274 3c3d 0928 e5bd 3b60 4dbc 3da0 4bbe
000001b0: e5a2 2dbd 1687 94bd bf76 e9bb 6cc3 843d
000001c0: 013d f53c 2ce9 a73d 51fb 923d 7cfe 3bbd
000001d0: 59c4 ac3d 2d0d 54be 19ce f63d 24a7 81bd
000001e0: fb5d 5bbe 44b2 d8bd 3033 8ebc 947b 12be
000001f0: e71a 1bbe 5cae 7ebd f65e 3b3b 4f5c 823d
00000200: 8224 6cbe 23a4 b83d 14d5 c83c 5117 89be
00000210: 086c 9d3c 9d76 b13c 9cef 573d c140 7f3e
00000220: aa96 c43d 0751 17bd f141 553e 4519 b33b
00000230: 355c 1fbe 424a cbbd ae8b 75bd 8f68 79be
00000240: 27ea 0739 f2b2 1539 9ccf 8b38 cd08 c837
00000250: 65b1 3c38 d86d 0838 8ff2 b5b7 b69f 03b8
00000260: 556d 60b8 d039 eb37 32bd cb39 11e0 d739
00000270: 0e16 97ba 8710 55ba 3425 f6b9 40a9 0cbb
00000280: 6f6f 0bbb 6b7a 03bb 2c2c 06bb 4f24 ddba
00000290: 5e3c e4ba 4af6 0abb 9821 ebba 90ca e6ba
000002a0: 90c2 05bb bb52 0fbb 90d8 13bb cb8d 0dbb
000002b0: c626 eaba ff27 dbba 5fc0 31bb d892 17bb
000002c0: 92e1 0bbb feee 20bb 4f0f 22bb 81b0 21bb
000002d0: 84ac 09bb 45cf f2ba 35d0 08bb dc9b e2ba
000002e0: b44c d3ba 02b6 e8ba a4f1 a5ba c332 9eba
000002f0: 14e8 b1ba ccc9 a8ba aff3 9cba ae60 b1ba
00000300: d6dc aeba 58e9 98ba fb73 abba 54ba 29ba
00000310: 018a 20ba 6846 42ba 8b2b bab9 5950 54b9
00000320: b711 0139 bc8c adba 1c03 84ba 54ea 55ba
00000330: 1502 a5ba cc1b 8eba 0c1b 93ba 43e5 feb9
00000340: 9d72 fab9 20ca e3b9 daec a2ba 5e38 a4ba
00000350: 98dc 95ba 11dc d7ba 7c6f c6ba 16c2 b7ba
00000360: 5e41 b9ba b662 87ba c40e 26ba 581d 04bb
00000370: df0d eeba dfc5 d8ba 0e75 2bbb ea99 29bb
00000380: cbb3 27bb 70a4 80bb 1070 74bb 1e32 64bb
00000390: d13e 8abb 841c 89bb bb56 82bb 838d 4ebb
000003a0: cd03 4bbb f9a8 37bb b8f8 e7ba 146b dbba
000003b0: 2e04 d0ba ff57 f8ba 6b9e ebba 3666 e1ba
000003c0: 7dd6 dcba 5f7a d8ba 1f58 d2ba 797a 09ba
000003d0: d751 c9b9 5099 02ba edb5 c6b9 1d37 a1b9
000003e0: d66b a6b9 143f bcb9 3f85 a9b9 4b3c abb9
000003f0: 5886 d5b9 c5da c3b9 a778 c0b9 954b 0aba

conv3.bias f4 [16]
-0.03481171 -0.004783082 0.07455314 0.08911113 -0.00047195054 0.052673414 0.076716736 -0.019528914
0.06981546 -0.06360446 0.08404708 -0.025720084 -0.04179663 -0.035007846 -0.00038786395 0.0727932
00000000: b996 0ebd 66bb 9cbb 51af 983d e57f b63d
00000010: 2170 f7b9 14c0 573d aa1d 9d3d 1afb 9fbc
00000020: 68fb 8e3d 0e43 82bd e020 ac3d edb2 d2bc
00000030: f132 2bbd 6364 0fbd 385a cbb9 9a14 953d

conv4.weight f4 [16, 16, 3, 3]
-0.17915702 -0.094056174 0.07347139 -0.024043702 -0.039228816 0.026030295 0.051565066 0.007602344
0.07415155 0.000231669 9.323704e-05 0.00023763253 5.526331e-05 -3.2029377e-05 -0.00011216907 -0.0028034775
-0.0028715518 -0.0028124608 -0.08044956 -0.07416508 -0.12094038 -0.022276588 -0.15870611 -0.11662078
0.080952324 -0.0012152647 0.038842563 0.13463144 0.12300315 0.17552304 0.025927259 -0.017821645
-0.009343813 -0.2995582 -0.23064587 -0.19920242 5.4214497e-11 7.6754256e-11 8.5800686e-11 1.1741275e-13
1.1239124e-13 2.2902855e-13 4.3941613e-12 3.1573192e-12 3.1608626e-12 -0.047247488 0.042479523 -0.052728396
0.019188846 -0.06273496 -0.010014037 0.09713362 0.066986136 0.07018441 0.020629223 0.06457038
-0.001943087 0.10182584 0.07094959 0.09790376 -0.009525388 0.021166548 0.07424576 -0.004482196
-0.024590846 0.15992178 -0.0041060806 -0.0208202 0.14421663 -0.086969 0.05609838 -0.049032893
0.0053711683 -0.003934178 -0.020935152 0.06621281 0.006467856 -0.02712083 0.16025451 0.103610046
0.08366763 -0.014007188 0.08047884 0.0917187 -0.04924357 0.0070725596 -0.025431095 0.04091139
0.009828664 -0.097064845 -0.04734728 0.08735502 0.10415888 0.03686449 -0.01834081 0.04995134
0.070369385 -0.0017363538 0.031884085 0.13121536 0.08320408 0.0602235 -0.013631719 -0.019213896
0.023258802 -0.20636277 -0.15056306 -0.032064065 0.08145282 0.037944503 0.07256487 -0.16937146
-0.014921138 -0.10398004 0.08234609 0.10016764 0.11665914 -0.1219929 -0.080012 -0.10350211
-0.055021442 0.0605892 0.0065924814 0.056503393 -0.07818782 -0.084132016 -1.8174807e-16 -2.1621933e-16
-2.4765623e-16 -9.6730534e-17 -4.0635846e-17 -2.745257e-18 -5.577941e-20 -3.6736172e-22 -4.8379678e-26 -0.057883166
-0.07590261 -0.094063625 -0.044107787 -0.024267532 0.08976292 0.03203465 -0.021580879 0.021802176
0.022099134 0.046090472 0.068069264 -0.053675227 -0.05574045 0.16753267 -0.20093545 -0.025083283
0.019860338 -0.003232431 -0.0032628158 -0.0031976842 -0.003771829 -0.0036181172 -0.0032069392 -0.0033150695
-0.003200154 -0.0030166043 -0.040782634 0.04112654 0.029728943 0.007401224 -0.029860884 0.052446473
-0.09410837 0.04051639 0.015611927 0.029400067 0.012400053 0.015694546 0.17835328 0.18534276
0.25493878 0.20504014 0.1972955 0.24230435 4.513783e-19 3.0011984e-19 5.7262845e-19 6.256855e-20
4.5070317e-21 1.3113245e-21 4.744304e-23 5.7214943e-22 1.1666301e-22 -0.09290463 -0.032965723 -0.044820473
0.013056862 -0.0021795304 0.067968324 -0.11829691 -0.033564072 -0.089879304 0.038501684 0.10069406
0.10176856 -0.09423336 -0.001352764 0.089569196 0.037190255 -0.02107763 -0.07627617 0.039236635
-0.0068177464 0.096874475 -0.07361645 0.08585636 0.13786589 -0.017340036 0.029185813 0.2521757
-0.15099396 -0.08993715 -0.17138815 -0.0042872974 0.009386358 -0.041223355 0.050077554 0.09345736
0.052503277 0.03793925 0.0022633653 0.013215844 -0.014956148 0.06460937 0.14805894 0.024586624
0.047538135 0.053007524 -0.0064363433 0.0332501 0.04151913 -0.0860815 0.062114883 -0.03444821
-0.021823663 -0.039428927 -0.021274785 0.06308083 0.0044986117 0.012357622 -0.021779524 -0.05016588
-0.01981853 0.12146483 0.05383739 0.10944148 -0.016263219 -0.05800563 -0.059298795 -0.023098242
00000000: f074 37be 86a0 c0bd 2b78 963d 4cf7 c4bc
00000010: 65ae 20bd 7c3d d53c e435 533d 151d f93b
00000020: c5dc 973d 2cec 7239 4188 c338 ff2c 7939
00000030: 87ca 6738 4857 06b8 503c ebb8 8cba 37bb
00000040: a530 3cbb 4351 38bb bdc2 a4bd dde3 97bd
00000050: 97af f7bd 647d b6bc db83 22be e0d6 eebd
00000060: 55ca a53d 8449 9fba 6119 1f3d d3dc 093e
00000070: 13e9 fb3d 50bc 333e 6765 d43c b3fe 91bc
00000080: cb16 19bc b15f 99be 6e2e 6cbe b8fb 4bbe
00000090: 1970 6e2e cec8 a82e 7ead bc2e ec31 042a
000000a0: 2415 fd29 7eee 802a 169b 9a2c 352d 5e2c
000000b0: 0a6d 5e2c 9586 41bd 02ff 2d3d bbf9 57bd
000000c0: ed31 9d3c 307b 80bd ea11 24bc feed c63d
000000d0: 0730 893d d8bc 8f3d 9efe a83c 7a3d 843d
000000e0: 2eaf feba 118a d03d 054e 913d c481 c83d
000000f0: 5f10 1cbc 7865 ad3c 290e 983d 63df 92bb
00000100: be72 c9bc 89c2 233e 4d8c 86bb 208f aabc
00000110: 86ad 133e ce1c b2bd 6ac7 653d b7d6 48bd
00000120: a000 b03b 47ea 80bb 3280 abbc 959a 873d
00000130: 4ff0 d33b 812c debc c219 243e 8131 d43d
00000140: ef59 ab3d 687e 65bc 17d2 a43d 04d7 bb3d
00000150: a0b3 49bd eec0 e73b df54 d0bc b492 273d
00000160: 6808 213c efc9 c6bd 39ef 41bd 30e7 b23d
00000170: 4051 d53d 38ff 163d 773f 96bc c799 4c3d
00000180: d31d 903d 5e96 e3ba e398 023d 525d 063e
00000190: e766 aa3d ebac 763d 9357 5fbc 7666 9dbc
000001a0: 3e89 be3c c350 53be 342d 1abe 9c55 03bd
000001b0: bcd0 a63d b26b 1b3d e49c 943d b66f 2dbe
000001c0: ca77 74bc 7df3 d4bd 11a5 a83d b124 cd3d
000001d0: fdea ee3d 6ad7 f9bd 55dd a3bd eaf8 d3bd
000001e0: 2a5e 61bd 622c 783d be05 d83b 1a70 673d
000001f0: f020 a0bd 684d acbd 908a 51a5 af48 79a5
00000200: 9cc3 8ea5 a10b dfa4 5766 3ba4 7090 4aa2
00000210: 96b4 839f 790e de9b 8790 6f95 e616 6dbd
00000220: d472 9bbd 6ea4 c0bd 5eaa 34bd b4cc c6bc
00000230: 9fd5 b73d c436 033d 62ca b0bc 7a9a b23c
00000240: 3e09 b53c 5dc9 3c3d e667 8b3d 8eda 5bbd
00000250: 1950 64bd af8d 2b3e 06c2 4dbe 757b cdbc
00000260: 26b2 a23c 31d7 53bb f7d4 55bb 3d90 51bb
00000270: ca30 77bb ef1d 6dbb 832b 52bb a341 59bb
00000280: adb9 51bb 39b2 45bb b10b 27bd 4e74 283d
00000290: 1d8a f33c f885 f23b d09e f4bc 1dd2 563d
000002a0: e4bb c0bd 84f4 253d 2bc9 7f3c 69d8 f03c
000002b0: 9829 4b3c d991 803c 3ea2 363e 7eca 3d3e
000002c0: 5687 823e 0bf6 513e d507 4a3e a21e 783e
000002d0: 2e39 0521 d428 b120 9502 2921 5ebc 931f
000002e0: 5645 aa1d 6929 c61c a46b 651a ebeb 2c1c
000002f0: 7409 0d1b c844 bebd 1107 07bd ac95 37bd
00000300: 73ec 553c 74d6 0ebb fa32 8b3d a645 f2bd
00000310: 7b7a 09bd a412 b8bd f1b3 1d3d b038 ce3d
00000320: 096c d03d 6bfd c0bd 3a4f b1ba 0e70 b73d
00000330: cf54 183d feaa acbc ae36 9cbd 98b6 203d
00000340: 6767 dfbb 2066 c63d 39c4 96bd 76d5 af3d
00000350: b72c 0d3e b10c 8ebc 1617 ef3c 2c1d 813e
00000360: 299e 1abe f830 b8bd 6080 2fbe 757c 8cbb
00000370: 3dc9 193c d2d9 28bd 1f1e 4d3d 9366 bf3d
00000380: ad0d 573d 3066 1b3d f854 143b 4487 583c
00000390: a20a 75bc eb51 843d c39c 173e e369 c93c
000003a0: 59b7 423d 6b1e 593d f6e7 d2bb 4231 083d
000003b0: f70f 2a3d 7f4b b0bd 2d6c 7e3d 9119 0dbd
000003c0: 8ac7 b2bc 3a80 21bd 7548 aebc 8630 813d
000003d0: 1769 933b a077 4a3c f96a b2bc bd7a 4dbd
000003e0: 785a a2bc 8ec2 f83d 9884 5c3d db22 e03d
000003f0: 713a 85bc 5097 6dbd 4be3 72bd 8638 bdbc

conv4.bias f4 [16]
-0.040139448 0.004000672 -0.02313595 0.105538875 0.00094051874 0.011286617 0.007962678 -0.0012884255
-0.047838487 -0.028747713 0.043227397 -0.029366488 0.07216757 0.010433596 0.0007501409 -0.034882978
00000000: 4369 24bd 1218 833b 9b87 bdbc c424 d83d
00000010: 258d 763a 81eb 383c e475 023c 63e0 a8ba
00000020: 4af2 43bd 5380 ebbc 360f 313d fd91 f0bc
00000030: 97cc 933d acf1 2a3c 1ba5 443a 74e1 0ebd

fc1.weight f4 [64, 784]
-2.1661e-41 7.466e-41 -6.997e-42 4.9724e-41 -1.6059e-41 2.9012e-41 -7.8384e-41 -7.9683e-41
-6.4423e-41 -3.8777e-41 -1.1388e-41 5.0437e-41 -1.002e-42 -3.2684e-41 8.0632e-41 -7.981e-41
1.17552e-40 -1.1191e-41 -6.9479e-41 -3.2036e-41 -2.1643e-41 8.998e-41 3.6781e-41 4.0908e-41
-2.8734e-41 -1.17e-42 -2.3334e-41 -8.5957e-41 8.6031e-41 2.8966e-41 -8.1528e-41 -5.9877e-41
-7.0488e-41 2.5152e-41 1.9998e-41 4.1668e-41 -2.878e-42 -4.3873e-41 1.3783e-41 4.4546e-41
-3.9061e-41 -6.5651e-41 -5.8824e-41 1.22972e-40 6.4418e-41 1.7707e-41 6.712e-41 -3.7354e-41
-6.1625e-41 -6.7442e-41 1.04995e-40 7.7998e-41 6.136e-41 1.5496e-41 1.1041e-41 -4.9819e-41
1.03486e-40 5.0267e-41 -6.1205e-41 6.59e-42 1.05277e-40 5.2832e-41 -8.0999e-41 9.554e-42
-1.0608e-41 -4.3662e-41 -2.8078e-41 4.6326e-41 2.5128e-41 -7.9912e-41 5.8592e-41 9.275e-42
8.2874e-41 -4.2688e-41 2.1836e-41 -4.2483e-41 5.2317e-41 1.4177e-41 -2.9646e-41 7.7e-42
-6.003e-42 1.1875e-41 4.1879e-41 -2.4234e-41 -2.562e-41 9.3692e-41 2.8896e-41 7.7195e-41
-9.2833e-41 5.985e-41 -2.1307e-41 -4.616e-41 9.9627e-41 1.08938e-40 -7.9339e-41 -9.7003e-41
-3.4416e-41 -2.2777e-41 -4.619e-41 -1.6e-41 -6.166e-41 -1.14565e-40 1.9065e-41 8.8135e-41
-8.8926e-41 -7.0851e-41 4.7382e-41 -2.3346e-41 6.0474e-41 3.1853e-41 -3.1688e-41 4.1536e-41
-7.095e-42 -8.163e-41 2.8605e-41 5.8479e-41 -1.9582e-41 -8.5276e-41 -5.5334e-41 -4.6461e-41
5.1335e-41 -3.0519e-41 -1.764e-41 9.904e-41 4.964e-41 -9.4513e-41 1.07317e-40 -5.9398e-41
6.7474e-41 -1.13488e-40 2.2391e-41 -1.12646e-40 -1.7111e-41 -9.8123e-41 8.8167e-41 3.299e-42
1.2464e-40 -4.6897e-41 -4.5553e-41 -1.0169e-41 1.7163e-40 9.6081e-41 -1.09783e-40 -6.1312e-41
1.1376e-40 -2.3252e-41 -7.599e-42 1.3171e-41 4.473e-42 -7.1839e-41 3.5093e-41 4.3048e-41
-9.865e-42 -6.0463e-41 -8.2797e-41 1.889e-42 8.166e-41 4.4885e-41 6.5044e-41 7.1384e-41
-7.4237e-41 4.6938e-41 1.2928e-41 -1.01384e-40 4.8503e-41 -8.0598e-41 3.4728e-41 1.4648e-41
-7.2199e-41 -3.2132e-41 -4.4724e-41 6.6867e-41 8.5729e-41 1.1166e-41 -5.2645e-41 -1.06078e-40
7.4436e-41 8.7136e-41 3.0852e-41 -3.5045e-41 -1.1774e-41 7.2072e-41 -2.9651e-41 -2.809e-41
-8.3042e-41 5.3698e-41 6.5921e-41 8.307e-41 4.46e-41 -8.58e-41 -6.9545e-41 -2.6665e-41
5.6645e-41 3.393e-41 -8.4721e-41 4.3317e-41 -5.77e-42 -7.9042e-41 7.9361e-41 -2.87e-42
1.13679e-40 9.96e-43 -1.1031e-40 8.6425e-41 2.1382e-41 -8.8957e-41 -8.3143e-41 -5.1802e-41
9.5301e-41 2.1363e-41 -1.4544e-41 -9.1627e-41 -1.0901e-40 4.6869e-41 -6.294e-41 -2.4336e-41
8.1103e-41 -2.7198e-41 -3.8555e-41 4.3306e-41 -8.1249e-41 -7.29e-41 -7.1329e-41 -9.0536e-41
-5.6212e-41 -7.7825e-41 1.4488e-41 -2.5483e-41 9.446e-41 -5.377e-41 4.5085e-41 -6.1499e-41
7.2073e-41 -1.3029e-41 1.10799e-40 -1.01476e-40 -1.02024e-40 6.85e-42 -7.8813e-41 1.02711e-40
-6.774e-42 9.2568e-41 -9.8646e-41 5.867e-41 4.2888e-41 -1.0088e-41 -5.3263e-41 -2.2097e-41
-5.4523e-41 -2.8968e-41 8.6645e-41 -6.4702e-41 -1.03033e-40 -2.0778e-41 1.211e-41 -1.04059e-40
00000000: 623c 0080 1fd0 0000 8113 0080 9c8a 0000
00000010: c42c 0080 e050 0000 81da 0080 20de 0080
00000020: 96b3 0080 186c 0080 bf1f 0080 998c 0000
00000030: cb02 0080 1c5b 0080 c5e0 0000 7ade 0080
00000040: b047 0100 321f 0080 aec1 0080 4e59 0080
00000050: 553c 0080 d4fa 0000 8866 0000 0972 0000
00000060: 1950 0080 4303 0080 0c41 0080 9def 0080
00000070: d2ef 0000 bf50 0000 44e3 0080 eaa6 0080
00000080: 7ec4 0080 1d46 0000 bf37 0000 2774 0000
00000090: 0608 0080 4d7a 0080 6c26 0000 2d7c 0000
000000a0: e36c 0080 02b7 0080 faa3 0080 cc56 0100
000000b0: 92b3 0000 5c31 0000 1abb 0000 2168 0080
000000c0: c9ab 0080 00bc 0080 af24 0100 6dd9 0000
000000d0: 0cab 0000 322b 0000 c71e 0000 e08a 0080
000000e0: 7a20 0100 208c 0000 9daa 0080 5f12 0000
000000f0: 7825 0100 4693 0000 cbe1 0080 a21a 0000
00000100: 921d 0080 b679 0080 454e 0080 2381 0000
00000110: 0c46 0000 c3de 0080 55a3 0000 db19 0000
00000120: 05e7 0000 ff76 0080 df3c 0000 6d76 0080
00000130: d791 0000 8527 0000 a452 0080 7715 0000
00000140: bc10 0080 1a21 0000 be74 0000 8e43 0080
00000150: 6b47 0080 2d05 0100 8d50 0000 30d7 0000
00000160: c802 0180 d6a6 0000 653b 0080 ad80 0080
00000170: b815 0100 ad2f 0100 2add 0080 680e 0180
00000180: f05f 0080 7e3f 0080 c280 0080 9a2c 0080
00000190: e2ab 0080 5c3f 0180 2535 0000 aff5 0000
000001a0: e4f7 0080 81c5 0080 1584 0000 1441 0080
000001b0: 94a8 0000 cb58 0000 5558 0080 c973 0000
000001c0: c713 0080 8de3 0080 bd4f 0000 04a3 0000
000001d0: 9636 0080 b7ed 0080 409a 0080 8481 0080
000001e0: 1a8f 0000 1355 0080 2c31 0080 1514 0100
000001f0: 608a 0000 7707 0180 282b 0100 94a5 0080
00000200: 17bc 0000 5c3c 0180 6b3e 0000 033a 0180
00000210: b32f 0080 8711 0180 c6f5 0000 3209 0000
00000220: 725b 0100 bb82 0080 fc7e 0080 591c 0080
00000230: 6fde 0100 d60b 0100 0832 0180 eaaa 0080
00000240: 1e3d 0100 d140 0080 2f15 0080 b724 0000
00000250: 780c 0000 42c8 0080 d361 0000 0078 0000
00000260: 801b 0080 8ca8 0080 cee6 0080 4405 0000
00000270: a3e3 0000 1f7d 0000 51b5 0000 fdc6 0000
00000280: f1ce 0080 d882 0000 0a24 0000 9e1a 0180
00000290: 3587 0000 ade0 0080 cf60 0000 d528 0000
000002a0: 43c9 0080 9259 0080 ac7c 0080 66ba 0000
000002b0: faee 0000 201f 0000 c192 0080 b427 0180
000002c0: 7fcf 0000 e6f2 0000 0156 0000 b161 0080
000002d0: d220 0080 e8c8 0000 a852 0080 4e4e 0080
000002e0: 7de7 0080 b095 0000 c3b7 0000 91e7 0000
000002f0: 547c 0000 2def 0080 ddc1 0080 554a 0080
00000300: e79d 0000 955e 0000 2bec 0080 c078 0000
00000310: 1610 0080 56dc 0080 3add 0000 0008 0080
00000320: e43c 0100 c702 0000 8033 0180 ebf0 0000
00000330: 9b3b 0000 faf7 0080 c5e7 0080 6790 0080
00000340: a909 0100 8d3b 0000 8b28 0080 6bff 0080
00000350: e02f 0180 a782 0000 73af 0080 d743 0080
00000360: 15e2 0000 d14b 0080 7a6b 0080 b878 0000
00000370: 7de2 0080 37cb 0080 d6c6 0080 61fc 0080
00000380: b29c 0080 f2d8 0080 6328 0000 0947 0080
00000390: 5107 0100 e495 0080 ae7d 0000 6fab 0080
000003a0: e9c8 0000 5224 0080 dd34 0100 e01a 0180
000003b0: 671c 0180 1813 0000 b3db 0080 511e 0100
000003c0: e212 0080 0b02 0100 fc12 0180 8ca3 0000
000003d0: 8e77 0000 1f1c 0080 7a94 0080 993d 0080
000003e0: fd97 0080 c050 0080 88f1 0000 5db4 0080
000003f0: 371f 0180 ec39 0080 c221 0000 1322 0180

fc1.bias f4 [64]
-2.8943962e-25 -6.3453e-16 -5.5858538e-05 -0.00015460367 -2.8020313e-06 -2.3429282e-08 -1.8205722e-11 -2.662821e-20
-1.5590716e-23 -1.3426122e-09 -1.4258667e-13 -7.1718035e-24 0.059410863 -0.0012893069 0.011462021 -1.5238296e-05
-0.0033826479 -0.017086513 0.0023027132 0.084473476 -7.6800066e-10 0.04152739 -1.818989e-09 -1.3332955e-21
-0.001695895 -0.007955443 0.039480347 0.015574412 0.020630814 0.008951095 0.022565145 0.073839694
0.031649422 -1.4323615e-06 -4.638015e-07 0.064125694 0.07335921 -0.0028131695 0.00078875636 -0.00028940637
-6.899246e-21 -0.00013595291 0.030728318 -3.983456e-19 0.0185678 0.038305674 0.058187008 0.05775674
-9.2849123e-10 0.036196284 0.040521923 0.012833185 -0.0008819785 -0.016199308 -2.9563622e-11 0.03565151
-0.0140577555 -4.3533987e-12 0.041033134 -1.7899511e-26 -0.00036024614 -2.4293827e-34 -2.1444038e-08 0.02923668
00000000: 8a27 b396 0de4 36a6 a649 6ab8 1b1d 22b9
00000010: 880a 3cb6 8941 c9b2 a423 a0ad 107f fb9e
00000020: bec8 9699 f886 b8b0 cf89 20aa 0db9 0a99
00000030: ce58 733d f6fd a8ba 33cb 3b3c fca7 7fb7
00000040: 6aaf 5dbb 04f9 8bbc 1ee9 163b 6e00 ad3d
00000050: 3e1b 53b0 a018 2a3d fcff f9b0 5f7b c99c
00000060: cb48 deba 8c57 02bc 25b6 213d d22b 7f3c
00000070: f401 a93c 9da7 123c 8ada b83c 4439 973d
00000080: d3a2 013d 913f c0b5 6500 f9b4 5554 833d
00000090: 5a3d 963d 275d 38bb 8bc4 4e3a 77bb 97b9
000000a0: b552 029e 958e 0eb9 f4b9 fb3c 4924 eba0
000000b0: 801b 983c 69e6 1c3d 8055 6e3d 5592 6c3d
000000c0: c338 7fb0 8e42 143d 51fa 253d 4742 523c
000000d0: 9334 67ba 69b4 84bc ae05 02ae 5107 123d
000000e0: 8052 66bc ee2b 99ac 5c12 283d a744 b194
000000f0: 6bdf bcb9 ce75 a187 f033 b8b2 c381 ef3c

fc2.weight f4 [1, 64]
-1.4835644e-05 -4.62977e-05 0.0005750234 -0.0016449868 6.3955624e-05 -8.172761e-05 3.986987e-06 0.0005769552
0.00039984297 -0.0007884184 0.00052833307 -7.3208445e-05 0.1330268 0.0018388111 0.22351496 9.960391e-05
0.23730005 -0.16641209 0.23146206 0.15030083 0.0017612264 0.34439373 -0.0013591576 -0.0004294213
-0.002119176 -0.4631285 0.24092232 0.25997773 -0.5474515 -0.09625739 -0.48511457 -0.53067124
0.21152337 -0.0004083542 0.0003436227 0.15841952 0.116205275 0.0022804958 -9.5268435e-05 -0.0008311963
-6.455363e-05 0.0023256363 0.24578741 -0.0007101243 0.37648705 -0.61172116 -0.53722894 0.098348245
-2.7498187e-05 0.21945122 0.26069635 -0.50048244 -0.0017893343 0.32588252 -2.354277e-06 -0.51525515
0.21753818 0.00045830422 0.27280474 5.9582268e-05 0.0027331393 3.4637337e-06 0.00038207724 -0.46909568
00000000: 9be6 78b7 c72f 42b8 2bbd 163a 999c d7ba
00000010: ea1f 8638 2d65 abb8 f5c7 8536 cf3e 173a
00000020: 04a2 d139 ddad 4eba d57f 0a3a 7c87 99b8
00000030: 2d38 083e 4304 f13a 1be1 643e 71e2 d038
00000040: c9fe 723e ee67 2abe 6404 6d3e 76e8 193e
00000050: f4d8 e63a 6054 b03e c325 b2ba f423 e1b9
00000060: e0e1 0abb 2e1f edbe 57b4 763e cd1b 853e
00000070: c825 0cbf 9822 c5bd f060 f8be 12da 07bf
00000080: 9599 583e 5f18 d6b9 4228 b439 ba38 223e
00000090: 08fd ed3d 5f74 153b daca c7b8 a4e4 59ba
000000a0: f760 87b8 b469 183b b2af 7b3e a327 3aba
000000b0: e9c2 c03e c299 1cbf d687 09bf ce6a c93d
000000c0: e8ab e6b7 d2b7 603e fe79 853e 9e1f 00bf
000000d0: 1988 eaba 13da a63e 2cfe 1db6 c3e7 03bf
000000e0: 54c2 5e3e 8d48 f039 10ad 8b3e f9e7 7938
000000f0: 781e 333b 7e72 6836 8a51 c839 4f2d f0be
