code/learned_models/enduro_trexnet_reward.params (torch_old, 259926 bytes, 11 tensors)

conv1.weight f4 [16, 4, 7, 7]
000000 28 42 25 3d ec 35 68 3d 00 b6 b7 bb fe ef 46 3c
       0.040346295 0.05669205 -0.005606413 0.0121421795
000010 d0 16 62 3b cf 75 40 3d 77 3a 9c 3c 46 8e d0 3c
       0.003449846 0.04698735 0.019070847 0.025458466
000020 f1 d9 ba bc 9e d7 2b 3d 4f 6b 93 3c 2b 61 97 bc
       -0.022809 0.041953675 0.017995505 -0.01847895
000030 09 86 18 bd ac e4 74 bd 9e 34 78 bd a8 14 45 3c
       -0.0372372 -0.05978839 -0.060597055 0.012028851
000040 a5 32 57 3d 70 91 24 3d 2a 7a a8 bc 34 1e 14 bd
       0.052538533 0.040177763 -0.020566065 -0.036161616
000050 14 a4 10 3d 8e e1 8b 3d 5c 6b f4 3a 65 ee 63 3d
       0.035312727 0.068301305 0.0018647718 0.055647273
000060 9b be 56 3c 4d 1c 92 bb b9 6a 89 3d cc 08 49 bd
       0.013106967 -0.00445894 0.06709809 -0.049080655
000070 1a ab 0f bd c4 68 ca bc 0f 40 fb bc 98 2b 1c 3d
       -0.035075285 -0.02470816 -0.030670194 0.03812751
000080 95 81 30 bd ce 25 27 bd b5 04 7a bd b6 b5 2b bd
       -0.04309233 -0.040807538 -0.061039645 -0.04192134
000090 5f 4a 3f bd 26 d5 56 3d 7b a3 9b 3c a6 db 15 3d
       -0.046701785 0.052449368 0.018998852 0.036586426
0000a0 f4 18 49 3d d2 23 19 bd 6c 0a 58 3c 19 33 9d bd
       0.049096063 -0.037387677 0.0131860785 -0.07675762
0000b0 88 45 87 bd 13 e8 5f bd cc a6 85 3d 17 16 a4 3d
       -0.06605059 -0.054664683 0.065259546 0.08012026
0000c0 e3 74 f2 bc fa 66 41 3c 91 ea 82 3d ae a3 95 3d
       -0.029596752 0.011804337 0.06392396 0.0730661
0000d0 60 b7 1d 3d 13 18 35 3c 13 75 06 3d 68 e3 7d bd
       0.03850496 0.011053103 0.032826494 -0.06198445
0000e0 96 59 01 3d 49 6d 35 bc 22 8f 00 3c 37 35 4c bc
       0.031579576 -0.011073419 0.0078466255 -0.012463859
0000f0 1e 31 55 3d c9 f2 88 3d 0e 1c 00 bd 15 1c 8e 3d
       0.052048795 0.066869326 -0.031276755 0.0693895
000100 1c 30 21 3d 2c 15 9e bc f4 09 63 3d 86 5e 58 3d
       0.03935252 -0.019297205 0.055429414 0.05282452
000110 9d fa 18 3d 08 b6 c1 3d 98 9a 5d bd f8 60 98 bc
       0.03734838 0.09458548 -0.05410251 -0.018600926
000120 d4 b3 bd 3b b6 39 11 3d f9 48 b6 3d 7e 3e 8a 3d
       0.0057892594 0.035455428 0.08900637 0.06750201
000130 8c bf e7 bc ce 68 6f bd 9a ae a2 3b 07 a9 86 bd
       -0.028289579 -0.05844956 0.004964662 -0.06575208
000140 5b af d8 bd 69 12 95 3d e3 14 2c 3d 2c 62 c1 bd
       -0.105803214 0.07278902 0.042012107 -0.09442553
000150 f5 da 11 3d 91 e3 78 3c 58 ff 4e 3d ed 3a 3f 3b
       0.035609204 0.015190975 0.050536484 0.002917941
000160 b9 6c 1f 3d 56 d4 5a bb ca 90 b1 3c 04 24 23 3d
       0.038922045 -0.0033390722 0.021675486 0.03982927
000170 5d d4 ae 3d e6 7e 04 3d fa c6 21 bd 8a 32 c6 bb
       0.08536599 0.032347582 -0.0394964 -0.006048505
000180 10 f9 b8 3c 11 3b 7c ba e1 4a 41 bc b7 1f 1c bd
       0.0225797 -0.00096218387 -0.011797638 -0.038116183
000190 ad 31 77 3d ca 07 12 3d 55 90 90 bd e4 f6 26 bd
       0.06035011 0.03565196 -0.07058779 -0.040762797
0001a0 c4 28 9b bd 9e a7 33 bc c8 29 e4 bc a5 5d 76 bd
       -0.07576135 -0.010965256 -0.027851954 -0.0601479
0001b0 e8 f2 73 bb 63 8a 15 3b 7b eb 9f bd 3b 6d 31 3d
       -0.003722364 0.002281808 -0.07808586 0.04331706
0001c0 9e 1e 9a bd b0 f3 81 3d 68 51 18 3d 8c 0e 9e bd
       -0.07525371 0.06345308 0.03718701 -0.07717618
0001d0 03 d4 39 bd 7e 0b 1e bd a7 83 cc bc e6 ac da 3c
       -0.045368206 -0.03858518 -0.02496512 0.026693773
0001e0 06 dc 25 3d d3 c7 8e bc 91 bf ba bc a7 29 42 3d
       0.040493034 -0.017429268 -0.022796424 0.047403004
0001f0 8b 8b d3 bd 1e 9f 50 bd 22 e9 de bc f0 cb 72 bd
       -0.1032935 -0.050932996 -0.027210776 -0.05927652
000200 ea 75 83 3b 3b 84 11 b8 ff 9b a5 bc 29 40 00 3c
       0.004011859 -3.4693843e-05 -0.020215986 0.007827797
000210 84 cf 67 bd 05 0b 92 3d 0e 81 cd 3d 8b c0 ca 3d
       -0.056594387 0.07131008 0.10034381 0.09900006
000220 c3 86 c5 3d d4 aa 7a 3d 2e 93 cb 3d 4c ac fa 3d
       0.096448444 0.06119807 0.09940182 0.12239894
000230 d3 47 c2 3d b3 17 c7 3d dc 9b 16 3e cb 41 07 3d
       0.09486356 0.09721317 0.14707893 0.03302173
000240 59 12 16 bc 32 e9 00 3c 05 8a a8 3d 31 19 30 bd
       -0.009159648 0.007868098 0.0822945 -0.042992774
000250 bb d5 6f bd de 00 00 be 90 11 d4 bd 02 89 c7 bd
       -0.05855344 -0.12500331 -0.10354912 -0.09742929
000260 75 3a a1 bd ce 30 b6 bc 64 45 9b 3c 08 d8 85 bd
       -0.07872478 -0.022240069 0.018953986 -0.06535345
000270 2e 25 c5 3a ec 79 c7 bd 91 c2 f9 bb a5 e5 80 bd
       0.0015040988 -0.097400516 -0.007622071 -0.06293801
000280 2d 32 61 bd 49 b8 43 bc d1 e3 a9 bd 1c ee e4 bd
       -0.054979492 -0.0119457925 -0.08295406 -0.11178228
000290 d6 5a df bc e2 f7 7c bc 54 2d 14 bd 46 2b 57 3c
       -0.027264994 -0.015439959 -0.03617604 0.013132876
0002a0 ce 26 96 bd 50 6a 06 bd b3 64 4f 3c be 95 f2 bc
       -0.0733162 -0.03281623 0.012658286 -0.029612418
0002b0 64 f7 c4 3c e4 88 74 3d cd da 8e bd 71 76 a9 3b
       0.024043746 0.05970086 -0.06975327 0.00517159
0002c0 bb c9 b0 bb 3b 22 b7 bc a0 0e 18 3d bc 5b 26 bd
       -0.005395142 -0.02235519 0.037123322 -0.04061483
0002d0 ad 52 ac 3c ea 97 66 bd 69 89 77 3d d9 1c 92 3d
       0.021035517 -0.05629722 0.06043378 0.071344085
0002e0 09 26 ec 3d 36 80 8d 3d eb 0e 36 3d d6 a1 d4 3c
       0.11530692 0.0690922 0.04444782 0.025956076
0002f0 8e 3d 07 bd 75 8d 05 3c 12 4e 63 3c df b3 9d 3c
       -0.033017687 0.008151402 0.013873594 0.019250808
000300 6c d8 af bd 60 86 87 bd f1 03 10 be cb 7c ce bd
       -0.08586201 -0.06617427 -0.14064004 -0.10082396
000310 ab 51 2b 3b 21 88 fa 3c 81 27 2c bd 1b 1a e2 3c
       0.0026141207 0.03058249 -0.04202986 0.027600339
000320 ce d7 bd 3c cd 3c f7 3c ff b4 e9 bc a7 c9 88 3c
       0.023174193 0.03018036 -0.028528688 0.016697718
000330 f0 23 37 bc 96 a6 8a 3d 2e d9 5e 3c 35 5a d6 3d
       -0.011178002 0.06770055 0.013601584 0.104664244
000340 c7 a9 96 3d 98 d3 89 3d 1d ca a0 bc 8d 0c 06 3c
       0.07356601 0.067298114 -0.019627625 0.008181703
000350 78 e4 1e bc d8 32 f9 39 2a e1 bb 3c e9 71 24 bc
       -0.009698026 0.00047530863 0.022934515 -0.010036924
000360 7c 33 9a bd c1 a7 98 bd 01 4f 41 3d 2b 91 40 bd
       -0.07529351 -0.074538715 0.047194485 -0.047013443
000370 b5 ab a8 3b ab b2 90 3d 0e 0b 5e 3d 21 90 67 bc
       0.005147422 0.07065328 0.05420976 -0.014133484
000380 60 53 b1 bd 93 bb 5c bc 46 d0 27 bd e2 d8 1c bd
       -0.08658481 -0.013472456 -0.04097011 -0.038292773
000390 fe e9 92 bd c4 12 7e 3c 7a 7c 6a bb aa c0 68 3d
       -0.07173537 0.015507404 -0.003577976 0.056824364
0003a0 0b ef d9 3c 8e 8f 60 3b 09 4a 3b 3c fc 8b 0d bd
       0.026603242 0.0034265253 0.011431226 -0.034557328
0003b0 72 10 c6 3b 27 1c 76 bd e2 86 34 3c c7 6e c5 3c
       0.006044441 -0.060085442 0.011018487 0.024100674
0003c0 c8 fe 10 3d 16 90 8e 3d da 47 16 bd 3b 18 83 3d
       0.03539923 0.06961076 -0.036689617 0.06401106
0003d0 2c 83 99 3d 59 b3 94 bd 24 81 85 3c 7e 38 88 bd
       0.07495722 -0.0726077 0.01629693 -0.066514
0003e0 12 99 6a bc e3 b5 51 bd f0 7a 9c bd a5 10 08 bd
       -0.014318721 -0.05119885 -0.07640636 -0.033219
0003f0 df 21 65 3d b1 7a f7 bc b6 7f 62 bd 1e 0e ae bc
       0.055940505 -0.030209871 -0.055297576 -0.021246966

conv1.bias f4 [16]
000000 21 14 97 3d f2 e1 14 3d 34 41 68 3a a4 17 94 3b
       0.07376886 0.03634829 0.00088598137 0.0045194197
000010 56 1a 42 bd e4 bd ba 3d fd d5 f6 3c cf 17 99 39
       -0.047388397 0.0911825 0.030131334 0.00029200173
000020 d9 86 02 3c 1e bc c8 bd 43 21 32 3c fa 47 0b 3e
       0.0079667205 -0.098015055 0.010872188 0.13601676
000030 59 5f 4f 3b 09 90 ee bd 65 6a 63 3c 44 d5 80 3d
       0.0031642525 -0.11648566 0.013880347 0.06290677

conv2.weight f4 [16, 16, 5, 5]
000000 77 15 ab bc a1 bd 0b bd 5e 1a ac bb c8 79 11 bd
       -0.020884259 -0.03411639 -0.0052521667 -0.03551653
000010 de ad 21 bc f1 dd 1a 3d 59 60 5b 3d f1 aa f0 bb
       -0.009868113 0.037809316 0.05355868 -0.0073445966
000020 24 39 fd 3d de 27 57 3a bd b7 e7 bc 2b 65 88 bc
       0.12364414 0.000820754 -0.028285855 -0.016649803
000030 e2 81 0b bd 44 79 e5 3a e6 f7 40 3b d3 5d 39 3c
       -0.034059413 0.0017507453 0.0029444634 0.011313873
000040 61 a5 61 bb 12 5c 0f 3d fe 38 2b 3d 02 b9 2e 3d
       -0.003443085 0.034999914 0.0418024 0.042656906
000050 34 1f be ba 63 28 58 bd 06 a4 6e 3d 91 c7 5d 3b
       -0.0014505149 -0.05277289 0.058261894 0.0033840875
000060 f2 3c 86 3d 81 62 51 3c d1 f3 c7 3c 71 b8 9d bc
       0.06554593 0.012779833 0.024408253 -0.019252988
000070 f5 af 0c bd 8b cb ad 3d 99 7b 58 ba e7 d0 85 3d
       -0.034347493 0.08486088 -0.00082581636 0.065339856
000080 1c 08 24 3d 51 9c d8 3d 55 de 7d 3b 54 5f 41 bd
       0.040046796 0.1057669 0.0038737257 -0.047210053
000090 c4 3b 1b bd 55 03 2d bd 8c f1 74 bb b3 95 3c bd
       -0.037898794 -0.042239506 -0.0037375418 -0.0460412
0000a0 3c 0f 4c 3d fc f6 99 3d 00 9d 52 3d f7 98 a4 3d
       0.049819216 0.07517812 0.051419258 0.08036988
0000b0 58 b2 b0 bc c0 d9 df bc b6 88 91 bc 6f 36 05 bd
       -0.021569416 -0.027325511 -0.017765384 -0.032522615
0000c0 9f ba 56 3b a5 d2 ae 3b c8 67 5e bd 0e 03 89 bc
       0.0032765043 0.0053351694 -0.054298192 -0.01672509
0000d0 9f 44 8a 3c 1e 33 63 3d 5f 07 02 3e 63 87 02 3b
       0.016878424 0.05546867 0.12698124 0.0019917123
0000e0 c5 61 bd 3d e3 ce 66 3c 9f f4 9e 3d cf 73 03 3d
       0.09247164 0.014087412 0.077615015 0.032092866
0000f0 7b 75 d0 3b cd 63 4c 3d 33 b1 d2 3c f6 9e 98 3d
       0.006361661 0.049899865 0.02571926 0.074521944
000100 81 92 f7 3d 86 cc 2a 3d 7b 88 37 3d fd e2 f4 3c
       0.1208849 0.041698955 0.044807892 0.029893393
000110 53 8a 3c bd 46 52 65 3d 59 d2 b2 3d 25 e7 ba 3d
       -0.046030354 0.055986665 0.08731527 0.091261186
000120 93 b1 28 3c c4 9c 87 3d 6d 7f 84 3d f1 70 73 bc
       0.010296243 0.066216975 0.06469617 -0.01485847
000130 bc ab ad 3d b9 fd 0b 3d a8 7e c6 3d e2 20 93 3c
       0.08480021 0.034177516 0.096921265 0.017960016
000140 6b 5e 02 3d 5d 65 d7 bd 0b d2 fc 3c e5 fb 34 bd
       0.031828325 -0.105173804 0.030861875 -0.044185538
000150 59 c0 12 3a 2d b1 e5 3c b8 ba 69 3d 4a 08 0c bd
       0.000559812 0.028038586 0.057062835 -0.034187593
000160 4f 9a 87 3c d1 8a 19 bc 77 70 c9 3d f7 b1 1a 3d
       0.016553072 -0.009371475 0.09835904 0.037767377
000170 66 14 1c 3d 85 22 91 bd 0b 73 10 bc c9 4e 86 3d
       0.03810539 -0.07086662 -0.008816491 0.06557996
000180 68 36 a3 bc e6 17 ab 3c 42 ea 2e 3d 65 16 c5 3c
       -0.019923404 0.02088542 0.042703874 0.02405853
000190 6b 9f 2e bd 06 6a ac bd d0 bb f7 3c 18 41 9d bc
       -0.0426325 -0.0841866 0.030240923 -0.019196078
0001a0 72 22 84 ba de 36 31 bd 53 2a ea bc c4 fd d2 3b
       -0.0010081066 -0.043265216 -0.028584635 0.0064389426
0001b0 b9 b4 0f 3d a2 9d c7 bc a3 9f 88 bd c3 ad 9a bd
       0.03508446 -0.024367157 -0.06671073 -0.07552674
0001c0 d4 44 a2 3c b0 45 8b bc f5 0a 36 bd e6 6d a8 bc
       0.01980821 -0.017001003 -0.044444043 -0.020560216
0001d0 1d cd a9 bb 53 12 4c 3c a7 37 64 bc bb ec d4 bb
       -0.005181922 0.012455541 -0.013929284 -0.006497947
0001e0 31 58 df 3c 85 77 81 bc 3a d2 59 3b aa ca 6b bb
       0.027263733 -0.015804062 0.0033236877 -0.0035978951
0001f0 d1 50 cd 3b f3 8e e8 3c 85 8c a3 3c e0 6b 33 3d
       0.0062657376 0.028388476 0.019964466 0.04380405
000200 13 35 21 3d 1d bd b0 3d 2e 5f 10 bd 84 53 9c 3d
       0.039357256 0.086298205 -0.03524702 0.07633117
000210 29 8b 0a bb da 91 a7 bc 34 c0 88 3d 1d c0 5a bc
       -0.0021140075 -0.02045529 0.06677285 -0.013351467
000220 34 47 84 bc 72 74 18 bc 6c ec 2f 3d bf f2 6a 3d
       -0.016147234 -0.0093051065 0.04295008 0.057360407
000230 eb 47 c2 bb ea cb b4 3c 11 85 17 3d 2c 8b 01 3c
       -0.0059289834 0.02206989 0.036992136 0.007906716
000240 6c 89 9b bc a4 04 a0 3c 49 6f 5a bc ed 8f b7 3c
       -0.018986426 0.019533463 -0.0133321965 0.022407496
000250 7a 9a f4 bc 45 74 ce bc 70 a8 16 bd 5c 29 8e bd
       -0.029858816 -0.025201926 -0.03678173 -0.069414824
000260 9e c8 3d bc c2 eb 2a bd 0f ef 7a bd 40 5a 55 3d
       -0.011583475 -0.041728742 -0.06126314 0.052088022
000270 10 aa e3 3d 2e 40 e9 3d b7 fa 8f 3d 1d 29 b6 3d
       0.11116421 0.113891944 0.07030242 0.088945605
000280 84 ad 57 3b 2e 2a 1b bb 53 39 18 bd cb a0 c6 bd
       0.003290982 -0.0023676264 -0.037164044 -0.096986376
000290 da c7 39 bd 82 bf 8c 3d 68 66 b3 3d da 5c 7a bc
       -0.04535661 0.06872465 0.08759767 -0.015280927
0002a0 ff c2 a6 3d 89 e5 b2 3c 7a 99 c7 3c c4 c0 07 3c
       0.08142661 0.021837967 0.024365176 0.008285705
0002b0 6e 95 d4 bc 7a ff 8c 3b 0d 60 fc 3c eb 39 2c bc
       -0.02595016 0.004302916 0.03080752 -0.010511856
0002c0 e2 85 32 bd 2f 90 50 bd a1 a9 5e 3d 4a 33 0d 3d
       -0.04358471 -0.050918754 0.05436099 0.03447274
0002d0 59 68 a0 bc 73 23 8d bd 9d c1 a1 bd 82 8d 75 bc
       -0.019581007 -0.06891527 -0.07898257 -0.014987351
0002e0 f0 60 d6 3c 8e f8 05 bd 24 5c 9b 3c e1 48 5d bd
       0.02616927 -0.032707743 0.018964835 -0.05402458
0002f0 07 f0 5d 3d d8 9d db bc cd 34 72 3b ec b4 20 bd
       0.054183986 -0.026808664 0.0036957741 -0.03923504
000300 6c 95 29 bd a7 1d 12 3d 4c 5b 16 bc 90 2d 7d 3d
       -0.041402265 0.03567281 -0.00917704 0.06181103
000310 68 ce 35 bb f2 c3 7e 3d b0 49 9b 3d 59 d1 b7 3d
       -0.0027741436 0.062198587 0.07582414 0.08975477
000320 7b 0c 4b bc 58 8d 31 3d 2b 4b f2 ba 0d 06 36 3d
       -0.012393112 0.043347687 -0.0018485537 0.044439364
000330 ec 48 93 bc ec 6f ca bb f0 73 95 3c c3 01 2a 3d
       -0.017979108 -0.006177893 0.01824376 0.041505586
000340 93 fb 94 3c c2 0a 5d 3d c7 e7 66 bd 8e 0d 83 bd
       0.018186366 0.053965338 -0.056373384 -0.0639907
000350 b5 a9 22 bd c0 2a 3c bc b1 9a 0a 3d 6f 6a 00 3d
       -0.039712626 -0.011484802 0.03383893 0.031351503
000360 0d 50 43 3d 3d d6 3c bc 44 f5 60 3d 66 40 c9 bc
       0.047683764 -0.011525688 0.054921404 -0.02456684
000370 6b ad 86 3d 42 fc 46 3c d6 1b 1c 3d e0 1e d1 3d
       0.065760456 0.012145104 0.038112484 0.10210967
000380 48 e4 41 39 c6 48 70 3d b3 ab ed bb a5 85 7a bc
       0.00018490956 0.058663152 -0.007253134 -0.015290652
000390 76 cd 54 bc 03 a1 96 3a a4 9e 6b bd c1 c5 2b bd
       -0.012988439 0.0011492077 -0.05752434 -0.04193664
0003a0 af cb b0 bd 0e bf df 3c 3e d7 b4 bc 0c f8 fb 3c
       -0.086325996 0.027312782 -0.022075292 0.030757926
0003b0 0a ac 83 3c 51 07 2f 3b ee 61 1c bd c3 83 77 bd
       0.016073246 0.0026707242 -0.03817933 -0.060428392
0003c0 97 81 0e bd 21 66 14 bd 38 66 b1 3c e6 99 39 bc
       -0.034791555 -0.03623021 0.021655187 -0.011328196
0003d0 2a 67 52 bc e5 12 18 bd ce 10 a1 bc fe 88 15 3d
       -0.012841979 -0.037127394 -0.019661333 0.0365076
0003e0 ee 91 1d 3c 70 2c 9c bc 93 13 74 bc f8 70 c2 bc
       0.009617312 -0.019064158 -0.014897245 -0.023735508
0003f0 c3 50 6f 3c bb b1 8f 3a c5 db f7 bc 93 3a 92 bb
       0.014606657 0.0010963002 -0.030256161 -0.004462549

conv2.bias f4 [16]
000000 65 7e 30 bd 27 6a 66 3d c5 0d 3d 3d c2 d3 a9 3c
       -0.04308929 0.05625358 0.04615571 0.020730857
000010 52 96 bf 3c 39 a6 0b 3c 3b 76 88 bc 88 4f c9 3c
       0.023387108 0.008523517 -0.01665794 0.024574056
000020 dc e0 58 3d 30 29 d3 3c 1b 42 96 3d 84 6a cc 3b
       0.052948818 0.025776476 0.07336827 0.0062382836
000030 13 37 97 bd 17 a0 1a 3c ad 22 69 bc 08 1d ec 3c
       -0.073835514 0.009437582 -0.014229459 0.028822437

conv3.weight f4 [16, 16, 3, 3]
000000 82 4b ba 3d 21 3c 34 bd 1f 9d 3d 3d d1 f1 5a 3b
       0.09096433 -0.044002656 0.04629242 0.0033408294
000010 bb 77 9c bd 05 b1 dc bd 82 2e 98 bd 48 6b de 3c
       -0.07640024 -0.10775951 -0.07430746 0.027150765
000020 2d 0e 74 bb ca c2 1a bd 93 ec b2 3d 92 f9 21 bd
       -0.0037239895 -0.03778342 0.08736529 -0.03954465
000030 48 0f a7 bc 65 df af 3d 2a d1 11 3d 10 26 18 3d
       -0.020393029 0.08587531 0.035599865 0.037145674
000040 e2 28 b9 3d 0d b0 17 3d dc 80 bf 3d f7 a9 cb bc
       0.09041001 0.03703313 0.0935075 -0.024861319
000050 0c 11 03 be 74 60 34 3d 1f 77 ac 3c f5 b9 9e 3c
       -0.12799472 0.044037297 0.021052895 0.01937578
000060 19 2c 29 bd ce 2f 8b 3c d5 98 8b 3b 26 44 96 bd
       -0.04130182 0.016990568 0.0042601624 -0.07337217
000070 67 ac 03 be 7d b8 9e bd 68 b1 fd 3c 19 87 f8 3d
       -0.12858735 -0.07750032 0.030968383 0.12135143
000080 da 83 c0 3d c3 7e 81 3c ea e7 2e bd 01 a2 1d 3d
       0.09400149 0.015807515 -0.04270164 0.038484577
000090 e0 f1 41 3d f2 76 1b 3b ff a2 1d 3d 05 3a d4 bd
       0.04734981 0.002372202 0.038485523 -0.10362629
0000a0 14 11 64 bd 9b b6 a8 bd cd ca 33 3d d5 84 df bc
       -0.05568035 -0.08237954 0.043894578 -0.027285019
0000b0 fe 11 8a 3d f6 80 d8 3c ca f1 84 3d 46 90 1a bc
       0.06741713 0.02642868 0.0649143 -0.0094338115
0000c0 fe d7 0b 3c aa 67 9c bd 9f 13 28 be 37 88 7d 3d
       0.008535383 -0.0763696 -0.16413735 0.061897483
0000d0 75 f2 bd bd ef 41 4d 3d 4c 00 bc bc 1f 5c b8 bd
       -0.09274761 0.050111707 -0.02294936 -0.09001946
0000e0 92 52 f0 bd de ad 3f be 3b a2 0c be 81 ba ad bc
       -0.11734499 -0.18718669 -0.13733761 -0.021207096
0000f0 37 62 03 3c 06 70 85 bd be 21 87 3d fa 99 10 3e
       0.008019022 -0.065155074 0.06598233 0.14121237
000100 b2 7e a2 3d f5 39 37 3e ff 0a b8 3d 47 da 10 3d
       0.079343215 0.17893203 0.08986472 0.035364415
000110 3a 61 89 3d bf 0d 71 bd 1c 7d a3 bc 4c 7f 91 bc
       0.067079976 -0.058851 -0.019957118 -0.017760895
000120 40 86 1e 3d 02 bd 54 3c a7 8d 06 3e 40 41 b0 3d
       0.03870225 0.012984516 0.13139974 0.086061954
000130 55 01 1e 3e e1 37 45 3e 20 d4 bd 3b 8c d4 9c bc
       0.15430196 0.19259597 0.0057931095 -0.019144319
000140 9c b4 2a 3c 3c 17 d6 bd cb 2a aa 3d 46 35 e3 bd
       0.010419037 -0.1045365 0.08308943 -0.110941455
000150 f2 5a d7 3d 6f 6b 7e 3d b6 be f2 bc 90 22 03 bd
       0.10515393 0.062114175 -0.029631954 -0.032015383
000160 d2 61 14 bd 94 38 cf 3d cb 55 10 3e 8d d6 26 3e
       -0.0362261 0.10118213 0.14095227 0.16292782
000170 a5 b7 1e 3e 06 44 a5 3d 28 27 c8 bd 7b e0 b2 3c
       0.15499742 0.08069615 -0.097730935 0.021835556
000180 31 06 8a 3c 73 8e 74 3c 24 dd d4 bc aa 8e 1d 3d
       0.016848655 0.014926541 -0.025984354 0.038466133
000190 9e 63 a5 3d 65 21 5a bc 92 e7 ec bd 05 3a c5 bd
       0.08075641 -0.013313626 -0.11567606 -0.09630207
0001a0 f5 53 27 3d ef d7 ed 3c 46 67 ae bd 14 c3 33 bb
       0.040851552 0.02903363 -0.085157916 -0.0027429508
0001b0 1c 31 8e 3d c2 50 4a 3d 1e e2 08 3e e6 26 a2 3d
       0.069429606 0.049393423 0.13367507 0.079175755
0001c0 3a c0 e2 3d b8 69 28 3d 08 ac b1 bd 88 f5 ee bd
       0.110718206 0.041116446 -0.086753905 -0.11667925
0001d0 31 96 8c bc 56 1c d0 bc 5e 97 7f 3d 9b 9c 60 bd
       -0.01716146 -0.025404137 0.062400214 -0.05483685
0001e0 05 fc 18 bd e0 55 26 bc c3 9a 84 bc f4 bc f5 3a
       -0.03734972 -0.01015231 -0.016187077 0.0018748329
0001f0 d8 ee 1d 3c 51 fc 5d bc f9 cd 5f bd 85 19 5c bd
       0.009639464 -0.013548926 -0.05463979 -0.053735275
000200 4b 50 23 be 86 51 95 bd 96 38 95 bc 13 6f 2d bd
       -0.15948598 -0.0729094 -0.018215459 -0.042342257
000210 cd 4c ef 3c a1 c7 02 be 75 58 9b 3c 6a 9c 3a 3d
       0.029211426 -0.12771465 0.018963078 0.045559324
000220 2f 0d 38 3d 05 bc e9 3a ca 15 93 3d 3e dc 21 bd
       0.044934448 0.0017832523 0.0718189 -0.03951668
000230 26 88 1f bd 72 ab ba bd fe bc 5f bd 7b 70 e8 bd
       -0.0389482 -0.09114732 -0.054623596 -0.11349579
000240 43 5e 9b 3d 50 a1 69 3c 9f 3a 7a bd f5 fd 0c bd
       0.07586338 0.014259651 -0.06109106 -0.03442188
000250 7a d3 2f be fc fc da bd 74 10 3e bc 2c ba cd bb
       -0.17170516 -0.10692784 -0.011600602 -0.006278297
000260 5b 3e 0f 3d b4 d4 22 3c 65 c2 6f bc 9c b3 10 bd
       0.034971576 0.009938408 -0.01463375 -0.03532754
000270 ca b5 ed bb 86 4e 5b 3d a5 83 63 3d 5a 9a 8e bc
       -0.007254337 0.053541683 0.055545468 -0.017407585
000280 38 9a 39 3c 41 eb 9a 3d 99 4f c8 3c 68 9b 06 bd
       0.0113282725 0.07564402 0.024452018 -0.03286305
000290 bf 82 12 bd 7c 1b 65 3d 2b 2e a8 3d d5 0b 7f 3d
       -0.03576922 0.055934414 0.08211931 0.062267143
0002a0 6a 60 ff 3c 13 15 87 3d ca 0e b9 3d 2e c5 06 bc
       0.031173903 0.065958165 0.09036024 -0.008225722
0002b0 33 4f c0 3c 3f 7b 89 bd 4d 18 4f 3c 44 83 c2 3c
       0.023475265 -0.067129605 0.012640071 0.023744233
0002c0 a6 60 36 bd 58 69 83 bb 8a 74 36 bc 63 9a d3 3b
       -0.044525765 -0.0040103607 -0.0111361835 0.0064576133
0002d0 90 89 25 3b d9 58 14 3c f0 4f aa 3b 97 5e 2d bd
       0.0025258996 0.009054386 0.0051975176 -0.042326536
0002e0 b9 f3 e2 bc a7 ed 80 bc e6 64 d0 3d 6d 6c e5 bc
       -0.027704107 -0.015738321 0.10175495 -0.028005803
0002f0 b3 bd 49 3d 09 f8 5f 3b 67 19 d2 3a bb ea 3d bc
       0.049253177 0.003417494 0.0016029299 -0.011591609
000300 28 45 9a 3d 92 5d 56 3d e9 56 73 3d e9 db 99 bc
       0.07532722 0.05233533 0.059409056 -0.01878162
000310 27 6c b8 3a 2f ed 06 3d 86 26 da 3d f5 63 42 3d
       0.0014070318 0.03294104 0.10651879 0.047458608
000320 2b f8 77 bd 46 6b a6 bd 2e 13 36 be 4b 4d f1 bd
       -0.060539406 -0.081259295 -0.17780754 -0.117823206
000330 13 f3 ff 3c 7b 03 c2 3c 69 6c 85 3c c2 ff d2 3c
       0.031243837 0.0236833 0.016287046 0.02575672
000340 e7 cc 94 bc 04 1d 32 3d 3a ae 29 bd 74 73 44 bb
       -0.018164111 0.043484703 -0.04142592 -0.0029976042
000350 b4 07 83 3d c2 7f 19 3d 25 26 a2 bd d3 ce 73 bd
       0.06397954 0.037475355 -0.07917432 -0.059523415
000360 41 6d 27 bc c3 b6 36 3d a3 cb 2c 3d 95 d0 2e bd
       -0.010218919 0.04460789 0.04218639 -0.042679388
000370 0f e7 01 bc 27 a9 e2 bd 8f cb 4f bd de 85 ad bd
       -0.007928624 -0.110674195 -0.050731238 -0.08472799
000380 a2 33 18 bd d1 60 99 3d c8 4b 61 3c a9 f2 0b 3d
       -0.037158616 0.074891694 0.013750978 0.034166966
000390 f3 55 23 bb 78 ce dc bc 1d 23 ef 3d f1 b9 a5 bd
       -0.0024923056 -0.02695392 0.11676619 -0.08092106
0003a0 aa 26 27 bd 11 46 72 3d 8b 02 26 3b 0c ac 04 bd
       -0.040808357 0.05914885 0.0025331106 -0.03239064
0003b0 9e 5a 85 bd cd 98 f9 bc 08 d2 76 bd fd d8 a5 3c
       -0.065114245 -0.030468369 -0.060258895 0.02024507
0003c0 1f 32 a4 3d c4 ac 2d bd 0b 6f 25 3d 3e 1a a6 bc
       0.08017372 -0.04240109 0.040389102 -0.020276185
0003d0 ab 39 56 bd 41 9c 26 3c 25 46 53 bd ea 85 d5 3b
       -0.05230109 0.01016909 -0.051580567 0.006516208
0003e0 36 b9 91 3c 7a db 05 bd 61 27 18 bd 91 d2 53 3d
       0.01778851 -0.032680012 -0.03714693 0.051714484
0003f0 4e 84 72 bd b1 a3 c0 3c 4b 4b a6 3a 12 a7 9c bd
       -0.059208207 0.023515554 0.0012687234 -0.07649054

conv3.bias f4 [16]
000000 d2 52 91 3c 3b 4c 99 3b 2a 09 d0 3d 29 48 d4 3d
       0.017739687 0.004678277 0.10157998 0.10365326
000010 4b 36 b2 bc b3 d0 a8 3d 12 f0 08 3e 02 ae d4 ba
       -0.021754405 0.08242931 0.1337283 -0.0016226175
000020 a3 37 bc 3d b2 23 a8 bd 47 95 b2 3d 88 35 2d bd
       0.09190299 -0.08209933 0.08719879 -0.04228738
000030 9b aa aa bd 25 5d 7c bc 19 99 9d bd ca 5f 90 3d
       -0.08333322 -0.015403067 -0.07695217 0.0704952

conv4.weight f4 [16, 16, 3, 3]
000000 e9 74 2c bd d5 b4 5f bd 0f 20 76 3d 95 70 6f 3d
       -0.04210368 -0.054615814 0.060089167 0.058456976
000010 b1 c2 ea bd 9e 54 11 be ff 70 5a bd b6 8c d9 bd
       -0.11462916 -0.14192435 -0.053330418 -0.106225416
000020 45 00 27 bd 25 0a 65 3d 25 6e 48 3d 8e 7b 8c 3d
       -0.04077174 0.055917878 0.048933167 0.06859504
000030 64 f0 ff bb 63 0d 9d bd 14 88 8e bd 4c 5a 6b bd
       -0.007810639 -0.07668569 -0.069595486 -0.05745916
000040 32 10 be bd 8c e2 b0 bd 9b fd 38 bd 53 05 09 bd
       -0.09280433 -0.086369604 -0.045163732 -0.033452343
000050 7e 9d f8 bd 1e e4 99 3d fb 85 60 bd e0 44 c9 3a
       -0.12139414 0.07514213 -0.054815274 0.0015355609
000060 f3 0d ba 3d cf b9 3d 3d 32 df 47 3d 90 15 d2 3d
       0.09084692 0.04631978 0.04879684 0.10258019
000070 1e b4 2b 3e 6b 4c f4 3d e9 ba 03 bd bd 2c 9e bd
       0.16767928 0.11928638 -0.032160673 -0.07723377
000080 7e dd 96 bd db ad 16 bc 50 40 00 bd 84 9b 99 bd
       -0.07366465 -0.009196724 -0.031311333 -0.075003654
000090 24 54 6c bc c3 01 17 3c 38 b5 09 3e f0 ca 05 bd
       -0.014424358 0.009216729 0.13448036 -0.03266424
0000a0 e1 d8 1e bd ea 6d 87 3b 4d bc 77 bd 22 18 16 bd
       -0.03878105 0.004132976 -0.060482312 -0.03664411
0000b0 e9 b5 d8 bc 38 bb 26 3d 79 45 47 bc 16 0e 6e bd
       -0.026453929 0.04070589 -0.01216256 -0.058118902
0000c0 0f 2a 2e 3e aa cd 39 be f9 29 a0 be 52 cd 8e 3e
       0.17008232 -0.18144861 -0.31282023 0.27891022
0000d0 30 db 62 3e f9 60 4b 3e b7 bc 8b 3d 9a 4b c0 3d
       0.22153926 0.19861211 0.06823104 0.0938942
0000e0 39 4d a0 3d 73 f6 e1 3d c4 bc 0a 3e 0a bc 06 3e
       0.07827229 0.110333346 0.13548571 0.13157669
0000f0 d5 99 b6 3a 81 fd b4 3d 45 65 b1 3d 18 45 a6 3d
       0.0013931344 0.088374145 0.08661894 0.08118647
000100 ac 8f 6a 3d a3 d8 2e 3e 45 93 ac bd 9e 78 a1 bd
       0.057265922 0.17074828 -0.08426527 -0.07884334
000110 d3 ab b9 3d 4f ca 4b be b4 9b 0f bd 64 12 d8 bd
       0.09065976 -0.19901393 -0.0350606 -0.10550383
000120 4f b4 af bd d2 46 9c bc 87 4e 01 3d 8c fd 17 bd
       -0.08579313 -0.019076739 0.03156903 -0.037107036
000130 94 65 25 be f5 73 bf bd 09 3f f7 3d e2 03 67 bd
       -0.1615203 -0.09348289 0.1207257 -0.056400187
000140 ed 78 a2 be c8 59 05 be 60 77 c4 bd 9c 67 ae bd
       -0.31732884 -0.1302253 -0.095930815 -0.08515856
000150 0d a6 88 bc 51 e4 91 bc 5f 20 95 bd b4 24 f4 3c
       -0.016680742 -0.017809065 -0.07281565 0.029802658
000160 ff 2c 87 bb d7 32 a2 bc c2 45 1f bd e2 f8 bb 3d
       -0.004125237 -0.019799633 -0.038884886 0.0917833
000170 90 37 b6 3d bb da 2c 3c 57 e2 0f bd 64 00 8b 3d
       0.088973165 0.010550196 -0.035127964 0.06787184
000180 a2 c9 2d 3d f4 76 d4 bc bb cc 83 3c 2d fc 0e be
       0.04242862 -0.025935628 0.016088834 -0.13963385
000190 a5 57 fc bb f0 2e 0b be 66 a6 66 bd 8f b4 f8 bc
       -0.0077008777 -0.13592124 -0.056311034 -0.030359535
0001a0 41 23 b9 37 01 c9 eb bc 55 9b 1f bc 23 08 de 3d
       2.2070135e-05 -0.02878237 -0.009741624 0.10841396
0001b0 33 e4 7c 3d 16 31 4f 3d d6 82 de 3d 0e c7 5f bd
       0.061741065 0.05058392 0.10864799 -0.054633193
0001c0 4b db b1 3d 13 95 1d bd 21 0d cb bd 2e a5 5e bd
       0.08684405 -0.038472246 -0.099146135 -0.054356746
0001d0 a5 96 9c 3d 9f f4 d6 3c d3 70 53 3d e5 10 8b 3d
       0.07645921 0.026239691 0.05162127 0.06790332
0001e0 d1 02 0f be 18 13 03 3d f9 b1 96 3d 66 93 02 3d
       -0.13965918 0.03200063 0.07358164 0.03187885
0001f0 fb d2 96 bd ee e6 d9 bd 42 79 fa bd b0 29 15 be
       -0.0736446 -0.106397495 -0.12230159 -0.14566684
000200 fa 61 8d bd df 49 96 bd 56 1f 11 bd b3 97 12 be
       -0.06903453 -0.073383085 -0.035430275 -0.14315681
000210 5b 6a 08 3c 46 12 8a 3c bf db bb bd 41 1e 43 bd
       0.008326138 0.016854417 -0.091727726 -0.047636274
000220 4b 74 96 bd eb ee 22 bd 30 ea 8a bd 07 27 92 bd
       -0.073464 -0.03977863 -0.06782949 -0.0713635
000230 21 c0 7e 3d 5a 3d d1 bc b4 d2 90 bd 2e 8e 7a bd
       0.062194947 -0.02554195 -0.070714384 -0.06117075
000240 99 c5 5f 3d 50 01 c6 3d d3 da 2d 3d f8 72 9c 3d
       0.054631803 0.09668219 0.042445015 0.07639116
000250 81 5c 9c 3c 0b b9 8c 3d a3 04 15 bd f8 e4 ab 3d
       0.019087078 0.06871232 -0.036381375 0.08393282
000260 f3 ee 23 bc d4 83 8a bc 54 a2 26 bd 4e 0c 7e 3b
       -0.0100057 -0.016908564 -0.040682152 0.0038764658
000270 11 96 63 3d 96 44 bb bc eb 46 c1 bc 63 77 8e bd
       0.055563036 -0.022859853 -0.023593387 -0.06956365
000280 2b 3f f7 bd 6c af 90 bd a0 f9 ad bc bb 1f 4d 3d
       -0.12072595 -0.07064709 -0.021237195 0.05007909
000290 de 25 c7 3c 8c db a0 3c 02 a9 ab bc 2c ee a6 3d
       0.024310049 0.019635938 -0.020954613 0.081508964
0002a0 ad 10 11 bd b5 cb c1 3c 5d 43 8a b9 a8 e1 65 3d
       -0.035416294 0.023656705 -0.000263716 0.056123406
0002b0 eb da 67 3d d1 54 91 3c 79 e5 71 bd a0 be a3 bd
       0.05660526 0.017740639 -0.059056733 -0.07995343
0002c0 e2 59 8b bd 47 ae 10 bc 1c 5b 39 bd e3 f6 26 bd
       -0.06804253 -0.008830613 -0.045252904 -0.040762793
0002d0 c4 8d 4e bd ee 6a 50 bd ee 4d 28 3b c0 1f 06 be
       -0.050428167 -0.050883226 0.0025681215 -0.13098049
0002e0 60 19 00 3d 5a 73 33 3c 05 c8 17 bd af 2a d5 bd
       0.0312742 0.010952795 -0.037055988 -0.10408532
0002f0 7e 4d 06 bd 71 64 aa 3d 6c c5 41 3d 9e 86 79 3d
       -0.032788746 0.08319939 0.047307417 0.060919397
000300 48 a5 4a 3e 8e e3 0f 3e 56 2f 9c 3d e7 76 23 3e
       0.19789612 0.14051649 0.07626216 0.15963326
000310 5d b2 bd 3e 32 31 97 3e f7 4d b4 3b 34 96 ef 3c
       0.37050143 0.2952972 0.005502458 0.029246427
000320 31 82 3d 3c 56 f2 8c bd 3e 07 9b 3b 45 c7 eb 3d
       0.011566685 -0.068821594 0.004731088 0.11512617
000330 9d 76 32 3d 3e fb 21 bd 9e b4 4b bd f3 3c 65 bd
       0.04357015 -0.039546244 -0.049732797 -0.05596633
000340 9c 13 b6 bd 2b 6b c3 3c e3 28 4e be 96 cd b4 3c
       -0.08890459 0.023854813 -0.20132785 0.022070687
000350 af 4c ad 3b a3 ad 85 bd ac 6d f2 bd ff f8 ef 3b
       0.0052886824 -0.06527259 -0.118373245 0.007323384
000360 ea 5f 23 be 12 65 f2 bd 3d 81 a5 bd af 30 e3 3d
       -0.15954557 -0.11835684 -0.08081291 0.1109327
000370 5b 06 41 3e 16 3f 32 3d 0a 49 a4 3d c3 4f 2f 3e
       0.1885008 0.043517195 0.080217436 0.1712027
000380 cd 05 fe 3d 77 1e 2b 3c 05 6d 9f bc f0 44 ef bc
       0.1240345 0.010444275 -0.019461164 -0.029207677
000390 d4 3b 26 bd 4e 37 55 3d 02 03 bf 3d 95 32 22 3d
       -0.0405844 0.052054696 0.093267456 0.03959902
0003a0 e4 d9 0f bd 62 02 2e bd 7d 8c 23 bb a4 29 b0 3d
       -0.035119906 -0.04248274 -0.0024955564 0.08601692
0003b0 c9 36 99 3d 8e 7b c5 bd 87 75 7d 3d b4 14 00 3d
       0.074811526 -0.09642707 0.06187966 0.031269744
0003c0 08 e8 00 bd 5c f1 88 bd 80 32 21 bd 17 89 94 3d
       -0.031471282 -0.06686661 -0.0393548 0.0725271
0003d0 41 69 89 3d 2b 2f 78 3d 53 6b 94 bd 0a 2a 91 3d
       0.06709529 0.060591858 -0.07247033 0.070880964
0003e0 09 9e 29 bc 53 aa bb bd 8a c6 7c 3c 18 fe f2 3c
       -0.01035262 -0.09163346 0.015428195 0.029662177
0003f0 6d 45 08 3d 3c fc 2d 3d 96 0c 4a bc 0e a0 0b bd
       0.033269335 0.042476878 -0.012332102 -0.034088187

conv4.bias f4 [16]
000000 8f 80 81 bc 88 10 21 3d 34 f6 82 bb 2f 8f a4 3d
       -0.015808372 0.039322406 -0.003996635 0.080351226
000010 08 1c c6 bc cb 93 44 3d 70 20 66 3d d1 25 4b 3d
       -0.024183288 0.04799251 0.05618328 0.04959661
000020 b5 dc 6d bd e6 cb 1d bd 57 5e 01 3d 76 d7 7d bd
       -0.05807181 -0.03852453 0.03158411 -0.061973058
000030 58 d6 63 3d 0f da 75 3d 4c e2 82 bd fd 6b ce bc
       0.055624336 0.06002241 -0.06390819 -0.025197977

fc1.weight f4 [64, 784]
000000 11 c6 00 00 3b 29 00 80 36 c2 00 00 e7 78 00 80
       7.1053e-41 -1.4791e-41 6.967e-41 -4.3372e-41
000010 3a 7b 00 80 15 09 00 80 62 cf 00 00 12 0e 00 80
       -4.4205e-41 -3.258e-42 7.4395e-41 -5.047e-42
000020 da 21 00 80 f6 db 00 00 fa 02 01 80 b2 15 01 00
       -1.2144e-41 7.8907e-41 -9.2903e-41 9.9618e-41
000030 47 81 00 00 7b f2 00 00 21 b0 00 80 d1 ba 00 80
       4.6376e-41 8.6986e-41 -6.3183e-41 -6.7017e-41
000040 0f c5 00 00 88 5a 00 80 3b e7 00 80 d2 dc 00 80
       7.0691e-41 -3.2476e-41 -8.295e-41 -7.9215e-41
000050 ef b5 00 80 85 50 00 80 7a e8 00 80 65 08 00 80
       -6.5265e-41 -2.8885e-41 -8.3397e-41 -3.011e-42
000060 b8 54 01 00 92 4c 01 00 48 36 01 80 64 15 00 00
       1.22227e-40 1.19304e-40 -1.11308e-40 7.674e-42
000070 d2 2e 00 00 58 a1 00 80 cf 40 00 80 95 7a 00 80
       1.6796e-41 -5.7879e-41 -2.3249e-41 -4.3974e-41
000080 d4 12 01 80 c3 8a 00 00 d4 e0 00 00 16 d3 00 00
       -9.859e-41 4.9778e-41 8.0653e-41 7.5723e-41
000090 8a 3b 00 00 cf dc 00 80 05 c6 00 00 0f 78 00 80
       2.1359e-41 -7.9211e-41 7.1036e-41 -4.3069e-41
0000a0 84 e7 00 00 56 38 00 80 55 f8 00 00 2f 25 00 80
       8.3052e-41 -2.021e-41 8.9085e-41 -1.3339e-41
0000b0 af 3a 00 80 89 63 01 80 ce 12 01 00 c8 2f 00 80
       -2.1052e-41 -1.27542e-40 9.8581e-41 -1.714e-41
0000c0 53 4a 00 80 f2 06 01 00 bc c6 00 00 ab 2f 00 00
       -2.6663e-41 9.4327e-41 7.1292e-41 1.71e-41
0000d0 9b cb 00 80 d7 be 00 00 80 0e 00 00 b2 e0 00 00
       -7.304e-41 6.846e-41 5.202e-42 8.0605e-41
0000e0 4b 1d 01 00 a2 5e 00 80 15 31 01 00 db f0 00 00
       1.02344e-40 -3.3948e-41 1.09443e-40 8.6403e-41
0000f0 c3 ba 00 00 bb f2 00 80 1a 27 00 00 9b 28 01 00
       6.6997e-41 -8.7075e-41 1.4027e-41 1.06402e-40
000100 1c 09 00 80 f6 1c 01 80 13 a5 00 00 8d 0c 01 00
       -3.268e-42 -1.02225e-40 5.9217e-41 9.6338e-41
000110 b0 2d 01 00 71 7d 00 00 d4 9a 00 80 8d 8e 00 80
       1.08225e-40 4.5e-41 -5.5542e-41 -5.1138e-41
000120 7f 3f 00 80 95 3c 00 80 6d c1 00 00 f0 66 00 80
       -2.2778e-41 -2.1733e-41 6.9388e-41 -3.6927e-41
000130 12 02 01 80 b7 21 01 00 18 78 00 80 50 7a 00 00
       -9.2578e-41 1.0393e-40 -4.3082e-41 4.3877e-41
000140 bf 2d 01 80 98 43 01 00 60 82 00 00 76 49 00 80
       -1.08246e-40 1.16084e-40 4.677e-41 -2.6353e-41
000150 b9 9d 00 80 1d d1 00 00 b7 80 01 80 1b 52 01 00
       -5.658e-41 7.5016e-41 -1.3801e-40 1.2129e-40
000160 56 aa 00 00 5b 68 00 80 ac e6 00 80 b5 be 00 80
       6.1105e-41 -3.7436e-41 -8.275e-41 -6.8413e-41
000170 27 b9 00 00 6a 2d 00 00 d5 0a 00 80 4e 5a 01 00
       6.642e-41 1.6291e-41 -3.886e-42 1.24231e-40
000180 a8 de 00 80 bd 8b 00 00 79 27 00 00 22 6e 00 00
       -7.9874e-41 5.0129e-41 1.416e-41 3.9508e-41
000190 62 79 00 00 e7 3c 00 00 98 32 00 00 45 6a 00 80
       4.3544e-41 2.1848e-41 1.815e-41 -3.8122e-41
0001a0 3d a7 00 00 a5 39 00 00 79 17 00 00 5c 17 00 00
       5.9994e-41 2.0679e-41 8.42e-42 8.38e-42
0001b0 f0 dc 00 00 0e 8e 00 00 bf fa 00 00 53 00 01 00
       7.9257e-41 5.096e-41 8.9951e-41 9.1952e-41
0001c0 41 36 00 80 7e 05 00 00 71 64 00 80 54 5b 00 80
       -1.9463e-41 1.97e-42 -3.6032e-41 -3.2762e-41
0001d0 14 ec 00 00 8b 17 00 80 a6 db 00 80 d0 a8 00 80
       8.4689e-41 -8.446e-42 -7.8795e-41 -6.0559e-41
0001e0 89 a6 00 80 c7 b8 00 00 c8 32 01 80 8b 52 01 80
       -5.9742e-41 6.6286e-41 -1.10052e-40 -1.21446e-40
0001f0 22 9b 00 00 2e 87 00 80 b8 94 00 80 25 05 00 80
       5.5651e-41 -4.8493e-41 -5.335e-41 -1.846e-42
000200 7b c5 00 80 ce 3f 00 80 0f 21 01 80 23 5b 00 00
       -7.0843e-41 -2.2889e-41 -1.03695e-40 3.2694e-41
000210 a5 96 00 00 d8 ae 01 00 d2 5f 00 00 e9 46 00 80
       5.4041e-41 1.54558e-40 3.4374e-41 -2.5438e-41
000220 8a 0a 00 80 2a c3 00 00 97 30 01 00 f3 c2 00 80
       -3.781e-42 7.0012e-41 1.09266e-40 -6.9935e-41
000230 ef 64 00 80 3e 32 74 91 23 95 5b 9c 8e 37 ce 9f
       -3.6208e-41 -1.9263688e-28 -7.2653776e-22 -8.73363e-20
000240 e8 0b 9f 94 24 7c 00 80 12 7f 00 80 39 7e 00 00
       -1.6059593e-26 -4.4533e-41 -4.5584e-41 4.528e-41
000250 87 4f 00 00 a7 16 00 80 ab b6 00 00 bb a1 00 80
       2.8529e-41 -8.126e-42 6.5529e-41 -5.8018e-41
000260 97 e0 00 80 50 13 00 00 9c 14 00 80 35 ac 00 80
       -8.0568e-41 6.928e-42 -7.393e-42 -6.1776e-41
000270 0c bd 00 00 f9 e4 00 00 09 e2 00 00 81 32 00 00
       6.7817e-41 8.214e-41 8.1086e-41 1.8117e-41
000280 4c 98 00 80 6a e1 00 00 2b 01 00 00 10 5f 00 80
       -5.4634e-41 8.0863e-41 4.19e-43 -3.4102e-41
000290 f5 c9 00 80 a6 22 00 00 60 86 00 80 ce e2 00 80
       -7.2449e-41 1.243e-41 -4.8205e-41 -8.1362e-41
0002a0 10 91 00 00 3e a0 00 80 ad 02 01 80 0a 0c 01 00
       5.2039e-41 -5.7484e-41 -9.2795e-41 9.6154e-41
0002b0 e4 19 01 80 88 22 00 80 ec 55 01 00 f7 d8 00 00
       -1.01123e-40 -1.2387e-41 1.22658e-40 7.7832e-41
0002c0 bd be 00 00 92 a8 00 80 4a 10 00 80 9b 11 01 00
       6.8424e-41 -6.0472e-41 -5.843e-42 9.8151e-41
0002d0 47 e4 00 80 dd 91 00 80 2e 84 00 00 d9 18 00 80
       -8.189e-41 -5.2326e-41 4.7417e-41 -8.914e-42
0002e0 19 75 00 00 4b a7 00 80 36 90 00 00 73 1e 00 00
       4.2007e-41 -6.0013e-41 5.1733e-41 1.0923e-41
0002f0 8f 03 00 80 38 9f 00 80 30 e9 00 00 ab 2b 00 00
       -1.277e-42 -5.7117e-41 8.3652e-41 1.5665e-41
000300 15 d8 00 00 c4 2c 00 00 66 31 00 00 6a 5e 00 80
       7.7516e-41 1.6059e-41 1.7721e-41 -3.387e-41
000310 38 5f 00 80 5a 95 00 00 84 67 00 00 4b f8 00 80
       -3.4158e-41 5.3577e-41 3.7134e-41 -8.9071e-41
000320 9e 95 00 80 0c 3c 00 80 80 bf 00 80 c1 2e 00 80
       -5.3673e-41 -2.1541e-41 -6.8697e-41 -1.6772e-41
000330 75 d2 00 00 d4 66 00 00 ad ce 00 80 09 88 00 80
       7.5498e-41 3.6888e-41 -7.4141e-41 -4.88e-41
000340 d2 c9 00 80 41 d7 00 80 64 c7 00 00 9b 97 00 00
       -7.24e-41 -7.7219e-41 7.1528e-41 5.4386e-41
000350 d6 e9 00 00 67 73 00 80 6c 08 00 80 33 b3 00 00
       8.3885e-41 -4.1399e-41 -3.021e-42 6.4285e-41
000360 80 fe 00 00 cc 12 00 80 b8 1b 01 00 ad c0 00 00
       9.1297e-41 -6.743e-42 1.01779e-40 6.9119e-41
000370 f7 06 00 80 8d 43 00 80 7a dc 00 00 b0 94 00 80
       -2.499e-42 -2.4233e-41 7.9092e-41 -5.3339e-41
000380 38 cd 00 00 60 d4 00 00 8b ff 00 80 6b c5 00 80
       7.3619e-41 7.6186e-41 -9.1672e-41 -7.082e-41
000390 ee b1 00 80 e5 17 00 80 2f c2 00 00 c7 34 00 00
       -6.3829e-41 -8.572e-42 6.966e-41 1.8933e-41
0003a0 ef 27 00 80 a0 27 00 00 d0 89 00 00 8e a3 00 00
       -1.4325e-41 1.4215e-41 4.9438e-41 5.8672e-41
0003b0 92 be 00 00 53 58 00 80 87 d2 00 80 81 00 01 00
       6.8364e-41 -3.1685e-41 -7.5523e-41 9.2016e-41
0003c0 2a 4c 00 80 81 cf 00 00 60 50 00 00 53 19 01 80
       -2.7323e-41 7.4438e-41 2.8833e-41 -1.0092e-40
0003d0 01 24 00 00 f8 8f 00 80 c1 bc 00 00 f9 45 00 00
       1.2916e-41 -5.1646e-41 6.7712e-41 2.5101e-41
0003e0 4d 93 00 80 fa 39 00 80 ca 91 00 80 87 68 00 80
       -5.2842e-41 -2.0798e-41 -5.2299e-41 -3.7497e-41
0003f0 cd 7f 00 00 dd 7c 00 00 5a 37 00 80 2c 07 00 80
       4.5846e-41 4.4793e-41 -1.9856e-41 -2.573e-42

fc1.bias f4 [64]
000000 23 11 78 a7 73 96 d5 b7 d5 c1 76 bb 74 9f 98 b6
       -3.4426204e-15 -2.5461637e-05 -0.0037652154 -4.548516e-06
000010 9b 40 a0 b8 ad d5 51 b1 1e 0d 8f bc f9 d5 11 3d
       -7.641428e-05 -3.0534963e-09 -0.01746231 0.03560445
000020 08 ae e4 b9 d5 32 28 3d 78 62 83 3b 5a 54 c6 3c
       -0.00043617212 0.041064102 0.004009541 0.024210144
000030 aa 3e c0 3c da 2d 6c ac 07 0a df 3b be be 28 bb
       0.02346738 -3.356307e-12 0.0068066153 -0.0025748457
000040 fd 26 10 bc 14 37 04 3d 67 dd 70 bb 55 db 16 3d
       -0.008798358 0.03227909 -0.003675306 0.036830265
000050 18 40 64 a0 e8 50 59 3d 63 2c 36 ba 37 d3 b5 3c
       -1.9333558e-19 0.053055674 -0.0006949363 0.022195442
000060 c2 8c f5 ba cf 53 85 a9 67 41 45 3d 30 e1 92 3c
       -0.0018733966 -5.920925e-14 0.048158076 0.017929643
000070 db c2 19 ba 31 3b 35 3d 6c 3d 2c 3d fa 9e 7c 3d
       -0.00058655225 0.044245902 0.042050764 0.06167505
000080 2d 22 eb 3c b7 c6 bf 9a 66 63 a8 b3 67 78 9c 3c
       0.02870282 -7.931679e-23 -7.84119e-08 0.019100381
000090 68 1f df 3c 5c f0 9b 3c d8 d5 71 8e 55 ea 81 aa
       0.027236655 0.01903551 -2.9808505e-30 -2.3077604e-13
0000a0 fe 19 65 ba 93 e1 96 ab 94 a2 29 3d 73 15 9c af
       -0.000873953 -1.072075e-12 0.041414812 -2.8391475e-10
0000b0 8f 5a 95 3c a5 62 af ba 69 ff 06 3d 34 0f dc 3c
       0.018231658 -0.0013380839 0.03295842 0.026862718
0000c0 4e 8d 15 3d 39 c8 46 3d a9 cc 1e 3d ef 54 fd 3c
       0.03651171 0.04853079 0.038769398 0.030924289
0000d0 0b 52 10 ac d7 ad 6a bc 36 38 05 3d 07 12 b3 b6
       -2.0509174e-12 -0.014323673 0.03252431 -5.3367144e-06
0000e0 62 aa 6c a8 c2 f6 67 3d 7e ff 21 3d 15 57 7b b9
       -1.31375776e-14 0.05663181 0.039550297 -0.00023969666
0000f0 4c 64 3b b8 d6 b7 67 aa 7a f5 75 3c dd f5 a0 3c
       -4.4677683e-05 -2.0580702e-13 0.015012139 0.019648487

fc2.weight f4 [1, 64]
000000 d5 63 59 36 1a 75 82 b9 82 d0 24 3b 52 08 d6 38
       3.239363e-06 -0.0002488278 0.0025148694 0.00010205865
000010 5b 4b 64 3a e1 7e 90 3a 56 25 8d 3e bb 12 87 be
       0.00087087386 0.0011024141 0.27567548 -0.26381478
000020 89 76 a3 39 44 4b 7d be ec 04 4d be f6 d3 95 be
       0.00031178098 -0.24735743 -0.20021409 -0.29263276
000030 8f 2b 56 3e f8 82 52 bb 3a 31 99 3e 65 3d 95 b7
       0.20915054 -0.003212152 0.2992037 -1.7790773e-05
000040 d2 53 44 3e 8c cf fe be d6 06 0e 3b 24 7a 68 3e
       0.191726 -0.4976772 0.0021671555 0.22702843
000050 4b 93 15 38 a7 f3 09 3e 0b 15 9e 38 54 fe 6e be
       3.5661546e-05 0.13471852 7.537947e-05 -0.23339206
000060 b1 90 7a 3b 69 c7 87 35 19 9f d5 3d 56 08 9d 3e
       0.0038233215 1.011632e-06 0.10430736 0.30670422
000070 7a 0e 21 38 2f 7f 6a be 0b 00 07 be 84 73 43 be
       3.8398874e-05 -0.22900079 -0.1318361 -0.19087034
000080 81 d4 37 3e 53 8b 21 37 6c b2 4e 31 1a 2b 7b 3e
       0.17952158 9.628787e-06 3.0078366e-09 0.2452816
000090 ab e5 82 3e a1 11 99 be 3a f0 ac 3a c6 f1 49 b9
       0.25565848 -0.29896262 0.0013194152 -0.00019258921
0000a0 69 17 13 39 bc 6f 82 ba e0 bd 49 3e 0b 38 25 3a
       0.00014027733 -0.0009951512 0.19701338 0.00063026015
0000b0 a1 c0 77 3e 81 85 a5 ba 02 35 53 3e 04 16 e1 3d
       0.24194576 -0.0012628288 0.2062569 0.10990527
0000c0 86 0c 80 be 1e 1d ea 3d 24 53 6c 3e 10 94 84 be
       -0.25009555 0.11431335 0.2307859 -0.25894213
0000d0 27 7b 06 ba a1 e1 78 3e 5f a7 2d be e1 4d ca 3a
       -0.00051300455 0.2430482 -0.16958378 0.0015434587
0000e0 57 aa d6 3a 03 d9 87 be 35 45 60 3e 72 5e 0b 3b
       0.001637767 -0.26532754 0.219014 0.002126601
0000f0 63 da 3d 3a 68 41 6f b9 96 dc 21 be a3 0f c2 be
       0.000724232 -0.00022817182 -0.15806803 -0.37902555
