code/learned_models/seaquest_trexnet_reward.params (torch_old, 259926 bytes, 11 tensors)

conv1.weight f4 [16, 4, 7, 7]
0.01028361 0.07047011 -0.047840975 -0.03787292 -0.010569438 0.031311348 0.022848167 -0.009764618
-0.017800136 0.0012230746 0.02385591 0.03891489 -0.031143486 -0.03473947 -0.043495197 0.0037232784
0.0093708355 0.025938109 -0.059110146 -0.07087817 -0.031409863 0.025829166 -0.007173658 0.084266394
0.025086205 -0.031295564 0.024479385 -0.073878616 -0.040303368 -0.02215657 0.02187249 0.08563703
-0.012043505 0.005863094 -0.05557419 -0.027781937 -0.014817455 0.061409306 0.039072823 0.048995145
0.023581157 -0.022073152 0.03032059 -0.04584845 -0.038486317 -0.010511538 0.065230094 0.050957598
-0.006986896 -0.060788274 0.023377202 0.09467713 0.02263813 -0.060040608 0.015076848 -0.0785145
0.02748167 -0.027360847 0.003196835 0.053514615 0.023466783 -0.0069534006 -0.05151082 0.02505809
0.052809037 -0.045332603 -0.009591287 0.025346028 0.045977734 0.060143344 -0.025287094 -0.079399
0.032990187 0.105074346 0.08325505 0.106882595 0.041249044 -0.07275009 -0.014909487 -0.018158942
-0.039601203 0.06542477 0.053823277 -0.07134533 0.0018896906 -0.009065274 -0.021669447 -0.010262429
0.04249435 -0.051147837 0.04034211 0.024363602 0.045773886 0.034020163 -0.032481298 -0.015827408
0.02442431 0.05406093 -0.03954853 0.05106531 0.117270574 0.06906381 0.051499818 0.034020938
-0.038884126 0.0054911477 0.011560608 0.0063676843 0.02498321 0.06330936 -0.010592904 0.068750285
-0.052372303 0.07751987 0.05287851 -0.041880425 0.03762905 0.04236992 0.055214804 -0.0051257014
0.024761932 -0.024876315 -0.0326994 0.06566782 -0.08125638 -0.0288339 -0.010811196 -0.048755303
-0.020676928 -0.0072382353 0.02891048 0.06343759 -0.016662864 -0.0059912624 0.062196717 -0.008027612
0.001624204 0.025141485 0.030235425 0.10635199 0.06522235 0.047791068 0.097057514 0.0056575406
-0.08829093 -0.018450435 0.094482005 -0.045832206 -0.030804018 -0.11451441 -0.103424385 -0.16197634
-0.11303878 -0.07331555 -0.08000161 -0.10607998 0.022922568 -0.10452695 -0.055523127 -0.06730825
-0.045155488 -0.06601287 -0.13241406 -0.09448356 0.0049664313 -0.05035731 -0.018759504 0.005424127
-0.07666094 -0.03501598 0.04011675 -0.034960087 0.010540873 0.02104705 -0.04737754 0.028166568
0.035667017 -0.0072850953 0.05498237 0.001372565 0.008915053 -0.015296433 0.016239325 0.036166247
0.037343863 0.009601668 -0.017496955 -0.011584209 -0.059573047 0.072789595 0.11268218 0.09451905
-0.012916838 0.01402004 -0.016979473 0.025359327 -0.048372347 0.006646723 0.015820606 0.07514833
0.021310704 0.017766401 -0.02347432 -0.030754741 -0.008526231 0.08513151 -0.017904663 0.08762357
0.03541745 0.024281453 0.078419685 0.010327044 -0.0014617955 -0.0062376936 -0.030876523 0.05392795
-0.026635945 -0.027015464 0.07350256 0.017352216 0.0629052 0.116614394 0.11179643 -0.0017122944
-0.0585779 -0.0014595592 0.008283527 0.054547008 0.01297509 -0.031485144 -0.050277095 0.1146268
-0.0056916294 0.080950774 -0.0025808697 -0.059564885 2.3134744e-06 -0.049521223 -0.060514525 -0.010198649
0.039332744 0.06376348 -0.040212456 -0.066823974 0.024414076 -0.04414645 0.068008155 -0.060482755
0.042053767 0.020798918 0.0035608814 -0.014796456 0.07265808 0.007630716 -0.053033765 -0.041937783
00000000: 967c 283c a252 903d e6f4 43bd a320 1bbd
00000010: 702b 2dbc 5440 003d 142c bb3c c7fb 1fbc
00000020: 97d1 91bc 934f a03a 786d c33c 3865 1f3d
00000030: a020 ffbc f94a 0ebd 0528 32bd 3f02 743b
00000040: 2288 193c 287c d43c 7b1d 72bd 9328 91bd
00000050: a1a7 00bd b097 d33c 0111 ebbb dc93 ac3d
00000060: 9681 cd3c c72f 00bd fe88 c83c ac4d 97bd
00000070: 2515 25bd b281 b5bc f02d b33c 7862 af3d
00000080: 1f52 45bc 321f c03b c3a1 63bd f296 e3bc
00000090: e9c4 72bc 5388 7b3d d30a 203d 22af 483d
000000a0: 452d c13c c1d2 b4bc e362 f83c 96cb 3bbd
000000b0: d4a3 1dbd 9638 2cbc 5b97 853d eab8 503d
000000c0: 55f2 e4bb 20fd 78bd 8c81 bf3c 15e6 c13d
000000d0: 9973 b93c 24ed 75bd e204 773c 36cc a0bd
000000e0: 3d21 e13c db23 e0bc fe81 513b 2432 5b3d
000000f0: 693d c03c 5ad9 e3bb 02fd 52bd a046 cd3c
00000100: 4a4e 583d aeae 39bd c624 1dbc 79a2 cf3c
00000110: 2653 3c3d de58 763d e126 cfbc f19b a2bd
00000120: b820 073d 3831 d73d a081 aa3d 43e5 da3d
00000130: c2f4 283d 00fe 94bd ec46 74bc 10c2 94bc
00000140: df34 22bd 6cfd 853d cc75 5c3d 801d 92bd
00000150: 7faf f73a 8486 14bc 2084 b1bc bf23 28bc
00000160: 8e0e 2e3d 6580 51bd c53d 253d 2d96 c73c
00000170: 667d 3b3d ba58 0b3d 1c0b 05bd 7ba8 81bc
00000180: 7e15 c83c fe6e 5d3d a4fd 21bd dc29 513d
00000190: 8e2b f03d 5471 8d3d 79f1 523d 8a59 0b3d
000001a0: f644 1fbd 16ef b33b b468 3d3c 02a8 d03b
000001b0: 97a9 cc3c 56a8 813d dc8d 2dbc f3cc 8c3d
000001c0: 5784 56bd bdc2 9e3d 2397 583d cf8a 2bbd
000001d0: eb20 1a3d 158c 2d3d eb28 623d 80f5 a7bb
000001e0: 89d9 ca3c 6ac9 cbbc ceef 05bd da7c 863d
000001f0: bf69 a6bd 1235 ecbc 7121 31bc a4b3 47bd
00000200: a962 a9bc b82e edbb acd5 ec3c 91eb 813d
00000210: 8f80 88bc 5a52 c4bb fcc1 7e3d 3f86 03bc
00000220: 3ee3 d43a 84f5 cd3c 48b0 f73c 12cf d93d
00000230: 4c93 853d 91c0 433d 17c6 c63d e462 b93b
00000240: e0d1 b4bd 5e25 97bc c87f c13d 8dba 3bbd
00000250: b558 fcbc 8886 eabd 2ad0 d3bd 20dd 25be
00000260: e080 e7bd 7726 96bd e2d7 a3bd 7640 d9bd
00000270: 1cc8 bb3c 3a12 d6bd 386c 63bd e8d8 89bd
00000280: f6f4 38bd c131 87bd 8d97 07be 9980 c1bd
00000290: 72bd a23b 7743 4ebd 88ad 99bc e0bc b13b
000002a0: 6900 9dbd eb6c 0fbd 7651 243d 4f32 0fbd
000002b0: a0b3 2c3c dd6a ac3c f40e 42bd 93bd e63c
000002c0: 9417 123d cfb7 eebb 3235 613d a4e7 b33a
000002d0: 7110 123c e49d 7abc 5508 853c 0f23 143d
000002e0: e1f5 183d 5150 1d3c c655 8fbc b2cb 3dbc
000002f0: de02 74bd b612 953d eac5 e63d 3493 c13d
00000300: 25a1 53bc 4fb4 653c 8918 8bbc 5dbe cf3c
00000310: 1522 46bd c1cc d93b 379a 813c 5ee7 993d
00000320: c993 ae3c d88a 913c 384d c0bc 5ef1 fbbc
00000330: 9bb1 0bbc 6e59 ae3d cdac 92bc fc73 b33d
00000340: e311 113d e6e9 c63c 809a a03d c332 293c
00000350: b899 bfba 9165 ccbb c3f0 fcbc 8ee3 5c3d
00000360: a033 dabc 894f ddbc 8388 963d 3c26 8e3c
00000370: 71d4 803d 87d3 ee3d 87f5 e43d 116f e0ba
00000380: 61ef 6fbd ae4e bfba a1b7 073c af6c 5f3d
00000390: 7995 543c 91f6 00bd 5bef 4dbd 75c1 ea3d
000003a0: d980 babb 85c9 a53d cf23 29bb 4ffa 73bd
000003b0: 3041 1b36 c4d6 4abd 14de 77bd 3c18 27bc
000003c0: 5f1b 213d 6d96 823d d1b5 24bd 02db 88bd
000003d0: 0700 c83c e8d2 34bd dc47 8b3d c4bc 77bd
000003e0: 9240 2c3d 7e62 aa3c ad5d 693b d66c 72bc
000003f0: c2cd 943d 160b fa3b ef39 59bd f4c6 2bbd

conv1.bias f4 [16]
0.06839086 0.0112924315 -0.008047521 0.041160155 0.029681105 0.08728138 0.08255761 0.023538955
-0.029300924 -0.06250101 -0.0048948573 0.088303454 -0.024508392 -0.026814928 0.006250016 0.033884566
00000000: 8210 8c3d e403 393c c0d9 03bc 8d97 283d
00000010: ca25 f33c 95c0 b23d f713 a93d c4d4 c03c
00000020: 7e08 f0bc 8800 80bd 0a65 a0bb 71d8 b43d
00000030: d3c5 c8bc fbaa dbbc efcc cc3b 8bca 0a3d

conv2.weight f4 [16, 16, 5, 5]
-0.12424903 -0.044394948 -0.078263104 -0.024156766 -0.048969734 0.003964743 -0.018528378 -0.045739897
-0.0067266226 -0.0021420997 -0.0009216757 0.02488494 0.006771655 0.016869549 0.031966344 0.101351835
0.12707494 0.10551036 0.11209976 0.106630184 0.009222577 -0.008932575 0.012769908 -0.008697736
0.013055566 -0.021341085 0.003408787 -0.038028747 -0.048279285 -0.0045653465 0.022975538 0.016716754
0.032273583 0.0022924957 0.0067049908 -0.022179114 -0.069672726 -0.011918286 -0.063810065 -0.05057363
0.072946936 0.047342118 0.06468567 0.041247856 0.013292745 0.008225719 -0.0050183847 -0.02411085
-0.01703521 -0.006053604 0.07738444 -0.05764682 -0.0069877096 -0.048279177 0.04813337 -0.21047297
-0.09333115 -0.12118817 -0.12051192 -0.08352229 0.09831309 0.078927964 0.063916884 0.037876323
0.10994397 0.0062137665 0.024006315 -0.0355567 0.002112122 -0.0015011585 0.115485296 0.02698295
0.09001403 0.055639543 0.09139971 0.00324424 -0.0070289564 -0.012632521 -0.007956581 -0.088520795
-0.034270927 4.8754475e-05 -0.03547898 -0.030538388 -0.047607798 0.05822547 0.06273685 -0.019217508
0.028626174 -0.02883353 0.034329873 0.041807972 0.020387879 -0.019188365 -0.012181564 0.0413796
0.010367159 0.049169477 0.053965755 0.006103512 -0.06633247 -0.024526307 -0.021898052 0.0013312184
-0.053022314 -0.017409582 -0.07760738 -0.00960433 -0.01370869 -0.013220205 -0.05407959 0.013923636
0.035770673 0.016544864 -0.033119712 0.03939832 -0.0076717283 0.03848816 -0.0016530462 0.052594483
0.0009312364 -0.026992125 -0.020441603 -0.014270958 -0.004330146 0.00050142425 -0.15907408 0.06769508
-0.061315577 -0.012576579 -0.048967425 -0.07668717 -0.031379532 -0.14520174 -0.048082903 -0.1293257
-0.0490819 -0.046110988 0.059115395 0.010823419 -0.123074755 -0.12974198 -0.038065236 -0.009302017
0.028417695 -0.09961185 -0.0035961221 0.21321017 0.034588177 0.1310452 -0.09466503 -0.044224087
-0.037195824 0.00031474634 -0.07409699 0.042328805 0.06924751 0.047156833 0.009020298 0.03648332
0.010412982 0.055347525 -0.012994286 -0.0002165177 0.0022900826 -0.005512338 -0.014280824 -0.025796179
0.013272324 -0.01899015 0.028594527 0.045601137 0.016259376 0.0031964434 0.04008301 0.008657936
-0.026509777 -0.03603524 0.0046190233 0.038328152 0.010196897 -0.07589464 -0.020128595 -0.06814972
-0.0030523234 0.0114636645 0.008026031 -0.009836971 -0.025203211 -0.0027392542 0.017073145 -0.041256912
-0.03523971 -0.006933201 0.0022785496 0.04023655 -0.033663016 -0.0032221514 -0.059419796 -0.044252504
0.043352593 -0.06535051 -0.06131761 -0.094367675 -0.08558114 -0.023839135 -0.004690069 -0.018111464
0.00081169436 0.030442603 0.007660527 0.0061426405 0.011439092 -0.035653565 0.0010435042 0.048655033
0.025160156 0.023769528 0.004583593 0.015311326 -0.005784326 0.016520932 -0.013055905 0.05770661
-0.03495562 0.008190883 -0.060515452 -0.03111531 -0.029748471 -0.0385563 0.0021257652 0.0004149553
0.0028015038 -0.021275798 -0.009427382 -0.022503396 0.0068433257 -0.00028298955 0.0023567649 -0.052376624
-0.0062917485 0.011949854 0.0033228004 -0.04647458 -0.033086684 0.013979578 0.017764175 0.037524983
0.026102051 -0.045920666 -0.073913254 -0.054818034 0.009301258 0.04809699 0.018880855 0.07461846
00000000: 4776 febd 7ad7 35bd 6848 a0bd 69e4 c5bc
00000010: 7d94 48bd adea 813b d3c8 97bc c259 3bbd
00000020: 006b dcbb 7862 0cbb 9c9c 71ba 80db cb3c
00000030: c2e4 dd3b 0232 8a3c 24ef 023d 8d91 cf3d
00000040: ef1f 023e d115 d83d 8f94 e53d ed60 da3d
00000050: 4b1a 173c ef59 12bc e038 513c f380 0ebc
00000060: 03e7 553c 80d3 aebc f565 5f3b 08c4 1bbd
00000070: 80c0 45bd e798 95bb 3237 bc3c 93f1 883c
00000080: 4e31 043d b23d 163b 8ab5 db3b f9b0 b5bc
00000090: 93b0 8ebd ea44 43bc daae 82bd 4b26 4fbd
000000a0: 3465 953d cfe9 413d ec79 843d 83f3 283d
000000b0: d0c9 593c 2bc5 063c 4371 a4bb 1e84 c5bc
000000c0: 6d8d 8bbc 505d c6bb bc7b 9e3d 121f 6cbd
000000d0: 28f9 e4bb 63c0 45bd 7f27 453d 3a86 57be
000000e0: 6724 bfbd 8131 f8bd f4ce f6bd bc0d abbd
000000f0: 6058 c93d fca4 a13d dbe6 823d 3424 1b3d
00000100: 4e2a e13d da9c cb3b e4a8 c43c e7a3 11bd
00000110: 876b 0a3b 85c2 c4ba 8e83 ec3d 590b dd3c
00000120: 4759 b83d 4ae6 633d c52f bb3d 519d 543b
00000130: 2953 e6bb a2f8 4ebc 525c 02bc 644a b5bd
00000140: ac5f 0cbd b87d 4c38 6852 11bd a42b fabc
00000150: 6500 43bd d57d 6e3d 2d7c 803d 096e 9dbc
00000160: 7081 ea3c 4c34 ecbc 7b9d 0c3d d63e 2b3d
00000170: 7b04 a73c eb30 9dbc 2f95 47bc a87d 293d
00000180: 04db 293c ef65 493d 320b 5d3d f8ff c73b
00000190: 51d9 87bd 65eb c8bc 8b63 b3bc 477c ae3a
000001a0: ed2d 59bd 8a9e 8ebc 9ef0 9ebd 7b5b 1dbc
000001b0: 6a9a 60bc 8f99 58bc 8f82 5dbd f61f 643c
000001c0: 4584 123d 1889 873c 89a8 07bd 2260 213d
000001d0: 1f63 fbbb c3a5 1d3d 07ab d8ba 506d 573d
000001e0: 381e 743a 971e ddbc 2675 a7bc bcd0 69bc
000001f0: e6e3 8dbb 0372 033a 51e4 22be b8a3 8a3d
00000200: 0b26 7bbd ff0d 4ebc 1192 48bd 2a0e 9dbd
00000210: d387 00bd c4af 14be 94f2 44bd f56d 04be
00000220: 1a0a 49bd e0de 3cbd fc22 723d b654 313c
00000230: 9e0e fcbd 15db 04be 4bea 1bbd 7d67 18bc
00000240: 3acc e83c 4c01 ccbd ebac 6bbb c453 5a3e
00000250: 55ac 0d3d b730 063e bddf c1bd 5124 35bd
00000260: a65a 18bd 8a04 a539 2ac0 97bd f860 2d3d
00000270: a3d1 8d3d 8627 413d dfc9 133c 896f 153d
00000280: 369b 2a3c 16b4 623d fce5 54bc 0709 63b9
00000290: 3615 163b d8a0 b4bb 1efa 69bc 8252 d3bc
000002a0: 2974 593c 3b91 9bbc 123f ea3c 42c8 3a3d
000002b0: 6232 853c 6c7b 513b 152e 243d 04da 0d3c
000002c0: 082b d9bc b099 13bd 2d5b 973b fbfd 1c3d
000002d0: e310 273c a66e 9bbd b9e4 a4bc 1592 8bbd
000002e0: 7d09 48bb 18d2 3b3c 9d7f 033c 3f2b 21bc
000002f0: f776 cebc 0f85 33bb fbdc 8b3c 02fd 28bd
00000300: 8457 10bd e82f e3bb b853 153b 15cf 243d
00000310: 3be2 09bd bb2a 53bb 2c62 73bd 1d42 35bd
00000320: 7d92 313d 7dd6 85bd 2d28 7bbd d743 c1bd
00000330: 2a45 afbd 4a4a c3bc 26af 99bb 7e5e 94bc
00000340: e3c7 543a c462 f93c 2805 fb3b 3448 c93b
00000350: 086b 3b3c 7909 12bd 31c6 883a 804a 473d
00000360: ac1c ce3c 50b8 c23c f731 963b 5bdc 7a3c
00000370: 718a bdbb e856 873c 6fe8 55bc c45d 6c3d
00000380: a02d 0fbd 0e33 063c 0ddf 77bd 89e5 febc
00000390: 11b3 f3bc 36ed 1dbd 6c50 0b3b 5c8e d939
000003a0: 6f99 373b 954a aebc 4e75 1abc 0b59 b8bc
000003b0: fa3d e03b 375e 94b9 f473 1a3b df88 56bd
000003c0: 032b cebb 52c9 433c 57c3 593b 215c 3ebd
000003d0: e785 07bd 9a0a 653c 2d86 913c ccb3 193d
000003e0: f8d3 d53c 4f17 3cbd d55f 97bd e088 60bd
000003f0: 4e64 183c 5901 453d 06ac 9a3c 90d1 983d

conv2.bias f4 [16]
-0.029726394 0.039388996 0.012140642 0.023115404 0.025543902 -0.016558617 0.004689054 0.0666744
0.062018394 0.039897982 0.03731019 -0.01314735 -6.4311106e-10 0.056848947 -7.728394e-05 0.0038991095
00000000: c484 f3bc 5b56 213d 8be9 463c 845c bd3c
00000010: 7241 d13c f0a5 87bc a3a6 993b 968c 883d
00000020: 0007 7e3d 116c 233d 92d2 183d fc67 57bc
00000030: ebc6 30b0 71da 683d 8013 a2b8 3488 7f3b

conv3.weight f4 [16, 16, 3, 3]
0.082936235 -0.07524071 0.024539934 0.15085623 0.030682942 0.011582025 0.020325687 0.08109491
0.08341645 -0.068115115 0.149417 -0.084489994 -0.060186997 0.07033395 -0.011363359 0.036661644
0.10178833 -0.050918832 0.10977704 -0.011448367 -0.0853091 0.0073033203 -0.04578835 -0.02920152
-0.0965914 -0.14219333 -0.18919347 -0.015541173 -0.0636785 0.002115801 0.020159123 0.10883369
0.121420205 -0.037044 0.027047805 0.09581887 0.04348002 -0.007726696 0.012446797 -0.020712959
-0.023188481 -0.09648598 -0.017947095 -0.100429356 -0.05202993 -0.050152447 -0.023732647 -0.02322763
0.044576414 -0.009810465 -0.026097424 0.112360425 -0.06981849 0.10440554 -0.04054721 -0.066288814
-0.1029814 -0.02012811 -0.031057037 0.08708369 0.061925463 -0.092749394 0.061040215 0.094789416
0.050562546 0.16600712 0.12690192 0.044388376 0.18745093 -0.06506054 0.011031117 0.04609778
-0.014500533 -0.05575435 0.043674923 -0.034366153 0.021679914 0.09172864 0.0058943084 0.013102982
0.13747019 -0.104485095 0.13451493 -0.17920892 0.06577129 0.0018445139 -0.12092132 -0.06749885
-0.045070693 -0.023279237 0.092369154 -0.043864906 -0.0070958384 0.1875287 -0.12811935 -0.082609944
0.15004697 0.10505687 -0.01184884 -0.082461946 0.045340925 0.028426195 -0.06536222 -0.04199231
0.10162543 0.034806684 -0.06417163 0.078727536 -2.5526e-41 -4.6016e-41 1.3985e-41 -1.4134457e-25
-1.543996e-29 -1.29539e-29 -4.2898928e-19 -6.1977107e-19 -2.8288238e-19 -0.051021315 0.0016092159 -0.12807472
-0.11304954 -0.026786372 -0.033444818 -0.10598842 -0.059845224 -0.13351049 0.008978967 -0.0029509978
-0.08919463 -0.013911126 -0.01897849 -0.013612276 -0.00035652443 -0.0918398 0.004046547 0.039453965
-0.0006500938 0.0059123673 0.078747086 -0.047810845 -0.022357378 0.02890891 0.0047595478 -0.12437311
-9.5296775e-07 -6.339008e-06 -1.2093307e-05 -3.5388257e-05 -8.011727e-05 -8.9665635e-05 -4.5209385e-06 -1.05114195e-05
-9.501135e-06 -2.7883853e-22 -1.250997e-18 -7.799093e-23 -1.1271433e-05 -1.2501321e-05 -9.001863e-06 -4.861908e-05
-4.227952e-05 -3.6862126e-05 -6.402442e-06 -9.5938985e-06 -1.00906245e-05 -1.67486e-06 -1.944314e-06 -1.6399304e-06
-1.8151602e-10 8.176571e-12 8.531185e-11 -2.0322927e-05 -2.323627e-05 -2.6026666e-05 -3.6705853e-05 -5.3742642e-05
-5.0437706e-05 -1.3878943e-07 -3.952104e-07 -3.745409e-08 -9.744509e-06 -1.5246405e-05 -2.33248e-05 -0.00011925059
-0.00013710537 -0.00015102641 -6.117908e-07 -4.6288073e-07 -3.2143944e-07 -1.1264607e-06 -5.745484e-06 -9.3531235e-06
-1.7468219e-05 -4.2824628e-05 -4.6615285e-05 2.0677599e-11 -3.2282282e-10 5.3354494e-09 -1.8388735e-06 -8.658273e-06
-1.0817603e-05 -2.461814e-07 -1.7659636e-06 -9.835602e-07 7.160653e-10 2.4232472e-08 1.0698423e-07 -9.372656e-06
-5.00862e-06 -3.170774e-06 -1.2187364e-05 -6.881728e-06 -4.358728e-06 -2.3174194e-05 -1.1607042e-05 -9.052343e-06
-0.00016258845 -0.00022795865 -0.00022203737 -0.00030433194 -0.00039428571 -0.0003136654 -0.0002222814 -0.00029745616
-0.00018502478 -8.4687063e-10 -1.5454289e-08 -3.1885797e-08 -2.6470724e-07 -9.85667e-07 -1.191358e-06 -1.061621e-05
-1.0757028e-05 -1.03305465e-05 8.593112e-18 -1.2449774e-12 -2.1877478e-12 -4.2806114e-08 -5.7782313e-07 -8.305135e-07
-3.0790193e-11 -5.040608e-10 -3.3356892e-10 -7.998412e-06 -1.0688577e-05 -1.4463099e-05 -0.00020506038 -0.00024528374
-0.00025243653 -8.609699e-07 -3.9330616e-06 -2.7972246e-06 7.6274e-41 1.5639e-40 8.4278e-41 1.12594e-40
00000000: 79da a93d cd17 9abd f907 c93c 0e7a 1a3e
00000010: cb5a fb3c 89c2 3d3c 0e82 a63c 1715 a63d
00000020: 3ed6 aa3d f07f 8bbd c500 193e 1709 adbd
00000030: a486 76bd 3f0b 903d 622d 3abc 852a 163d
00000040: 6676 d03d 4490 50bd c9d2 e03d ee91 3bbc
00000050: 8ab6 aebd b150 ef3b 918c 3bbd 0738 efbc
00000060: b6d1 c5bd 219b 11be efbb 41be 67a0 7ebc
00000070: e069 82bd 40a9 0a3b bf24 a53c 33e4 de3d
00000080: 28ab f83d 73bb 17bd 5c93 dd3c af3c c43d
00000090: 1b18 323d 3930 fdbb a7ed 4b3c 39ae a9bc
000000a0: c5f5 bdbc 719a c5bd c905 93bc e8ad cdbd
000000b0: 561d 55bd a76c 4dbd f86a c2bc df47 bebc
000000c0: c295 363d 13bc 20bc 44ca d5bc 391d e63d
000000d0: fffc 8ebd 92d2 d53d d514 26bd 6ec2 87bd
000000e0: eae7 d2bd b5e3 a4bc 546b febc ef58 b23d
000000f0: 8ea5 7d3d 65f3 bdbd 4e05 7a3d f420 c23d
00000100: ac1a 4f3d c5fd 293e 94f2 013e 96d0 353d
00000110: 23f3 3f3e 763e 85bd dcbb 343c 07d1 3c3d
00000120: a593 6dbc ac5e 64bd 7ae4 323d 86c3 0cbd
00000130: 139a b13c 3adc bb3d 0b25 c13b e4ad 563c
00000140: fcc4 0c3e 48fc d5bd 48be 093e 8b82 37be
00000150: 19b3 863d 9ec3 f13a 99a5 f7bd d63c 8abd
00000160: 0c9c 38bd 19b4 bebc 0a2c bd3d b0ab 33bd
00000170: 3584 e8bb 8607 403e b831 03be 672f a9bd
00000180: eaa5 193e 0e28 d73d a321 42bc cfe1 a8bd
00000190: 68b7 393d 0dde e83c a1dc 85bd 2100 2cbd
000001a0: fe20 d03d 7491 0e3d 6a6c 83bd e73b a13d
000001b0: 2847 0080 4680 0080 fc26 0000 e2f9 2e96
000001c0: 6e94 9c8f 3f5e 838f 073b fda0 94ec 36a1
000001d0: fafb a6a0 bafb 50bd 53ec d23a 0526 03be
000001e0: 8486 e7bd 186f dbbc 6ffd 08bd 7510 d9bd
000001f0: 4420 75bd f9b6 08be 841c 133c 8765 41bb
00000200: adab b6bd 7eeb 63bc c778 9bbc 0606 5fbc
00000210: e6eb bab9 8116 bcbd e698 843b 7b9a 213d
00000220: 0e6b 2aba 88bc c13b 2746 a13d 4ed5 43bd
00000230: d226 b7bc 61d2 ec3c fbf5 9b3b 54b7 febd
00000240: 72cf 7fb5 aab3 d4b6 5ce4 4ab7 da6d 14b8
00000250: a204 a8b8 df0a bcb8 91b2 97b6 345a 30b7
00000260: 1067 1fb7 2c8c a89b 559d b8a1 0c92 bc9a
00000270: 701a 3db7 c4bc 51b7 b506 17b7 57ec 4bb8
00000280: 4a55 31b8 689c 1ab8 8fd4 d6b6 7bf5 20b7
00000290: e74a 29b7 c0cb e0b5 0f7b 02b6 941b dcb5
000002a0: 3894 47af 01d8 0f2d 4d9a bb2e 277b aab7
000002b0: 83eb c2b7 d753 dab7 9cf4 19b8 b969 61b8
000002c0: 138d 53b8 2606 15b4 4e2d d4b4 35dd 20b3
000002d0: 597c 23b7 d0ca 7fb7 a0a9 c3b7 2c16 fab8
000002e0: f1c3 0fb9 d85c 1eb9 f239 24b5 d881 f8b4
000002f0: 4d92 acb4 e530 97b5 55c9 c0b6 5ceb 1cb7
00000300: b788 92b7 989e 33b8 c884 43b8 d0e1 b52d
00000310: 4679 b1af 1c53 b731 36cf f6b5 0043 11b7
00000320: 407d 35b7 ea2a 84b4 0c06 edb5 df02 84b5
00000330: 9ed4 4430 c527 d032 34bf e533 403f 1db7
00000340: b80f a8b6 7cc9 54b6 5478 4cb7 98e9 e6b6
00000350: 3041 92b6 3466 c2b7 debb 42b7 84df 17b7
00000360: 817c 2ab9 2f08 6fb9 b4d2 68b9 be8e 9fb9
00000370: 22b8 ceb9 7573 a4b9 3514 69b9 e4f3 9bb9
00000380: 3603 42b9 39c9 68b0 57c0 84b2 cef2 08b3
00000390: 161d 8eb4 434b 84b5 c0e6 9fb5 461c 32b7
000003a0: 1579 34b7 5c51 2db7 d383 1e23 0a37 afab
000003b0: f6f2 19ac d2d9 37b3 b41b 1bb5 74f0 5eb5
000003c0: ad6a 07ae 208e 0ab0 a761 b7af eb30 06b7
000003d0: 1753 33b7 8aa6 72b7 7a05 57b9 6d99 80b9
000003e0: 7559 84b9 671d 67b5 bef8 83b6 f4b7 3bb6
000003f0: 9fd4 0000 f4b3 0100 efea 0000 de39 0100

conv3.bias f4 [16]
0.0038335568 -0.00048712618 0.11154195 0.053862225 -7.035212e-06 0.031949993 0.091903746 -0.034730766
0.0051074144 -0.03773621 0.06850946 -0.018328805 -0.07675018 -0.0006045139 -0.0014157336 0.06917117
00000000: 693c 7b3b f864 ffb9 1b70 e43d a39e 5c3d
00000010: 0310 ecb6 ffdd 023d 0838 bc3d d941 0ebd
00000020: 195c a73b 4991 1abd b04e 8c3d 4a26 96bc
00000030: 332f 9dbd 3e78 1eba 2390 b9ba 9da9 8d3d

conv4.weight f4 [16, 16, 3, 3]
-0.08463669 -0.072296456 0.031113407 0.1296769 -0.055966083 0.19148149 0.015398506 -0.14088921
0.14124101 1.80282e-06 1.0404119e-06 8.608491e-07 -2.3107876e-05 -2.8376091e-05 -2.457821e-05 -3.1146928e-06
-2.2387212e-06 -9.3082724e-07 -0.086579785 -0.0579488 -0.10301156 0.0029176807 -0.092941865 0.02654808
0.06513649 0.053314835 0.24384184 0.002496057 0.0065916735 -0.01374597 -0.0080727115 -0.0034210784
-0.108686805 -0.09401511 -0.0069714803 -0.22058375 1.7577497e-08 8.571449e-09 3.1400997e-09 1.38503774e-11
7.838366e-13 3.823811e-14 2.534971e-13 2.9163778e-15 2.544336e-16 -0.054858554 0.011690529 -0.07838718
0.026773652 -0.040200405 -0.15851355 0.048327364 -0.03139538 -0.19916053 -0.008727982 0.039892256
0.02459657 0.06901451 0.04102626 0.16021289 -0.06405211 0.010745826 0.1387627 0.046692356
-0.053066403 0.07875141 -0.058374796 -0.052073274 0.26735437 -0.002774991 0.13858709 0.12186822
-0.0014529573 -0.0116427 -0.013733109 0.008195806 -0.011061696 -0.032403927 -0.1253483 -0.16089961
-0.13680653 -0.035556868 0.01050905 -0.005603704 0.043208063 0.041999668 0.038188428 0.16876115
0.087440945 0.0069993115 -0.034769185 0.05982781 0.048118114 0.05911073 -0.016645832 0.059608616
-0.023748133 -0.13403735 -0.021636568 0.06849588 0.049186744 0.029066319 0.055474967 0.029222535
0.12247267 0.11021967 0.0024723255 0.1357184 0.035303466 0.016771888 0.060514577 0.04260855
0.105359145 -0.0003552651 0.16151333 0.089105085 0.14314686 -2.2606771e-05 -2.6640642e-05 -2.5816422e-05
-3.6164056e-05 -4.4672655e-05 -4.5084125e-05 -5.051535e-11 -3.247971e-12 -9.6926766e-14 -0.0012301011 -0.0011107384
-0.00096808665 -0.00076593785 -0.0006197275 -0.000559038 -0.00074212847 -0.00069804373 -0.0006489839 -0.071133114
-0.10317612 -0.10348741 0.026359472 -0.029269082 0.08574677 0.12678665 -0.029442705 -0.020639382
0.008396357 0.0810685 0.0082139075 0.05589053 -0.0856385 0.17086549 -0.10876002 0.02393868
0.18316698 -4.974833e-13 -9.571456e-13 -1.734643e-13 -7.2347095e-05 -8.3560626e-05 -7.1676135e-05 -8.0602035e-07
-1.5005905e-06 -9.768502e-07 -0.036090065 0.026331598 -0.00075511285 0.009534502 -0.056539394 0.06169804
-0.065128565 -0.09124825 0.10203173 0.013387901 -0.01328246 -0.08403636 -0.047519322 -0.05662585
-0.19786206 -0.08123396 0.010676357 -0.12548038 5.528393e-10 1.8619196e-10 2.595431e-11 4.1205293e-14
9.72267e-16 1.7068104e-17 2.1470198e-14 2.9226417e-16 4.359575e-17 -0.009794851 0.01618621 -0.055783853
0.010766567 -0.100563675 -0.23826931 0.0148566235 -0.03679336 -0.21377689 0.0665284 0.08272737
0.086136736 -0.06996157 -0.03393859 0.095701545 0.07764191 -0.036892556 0.027215553 0.066282526
-0.007394316 0.092179194 -0.052345067 0.061217587 0.24511936 -0.022819908 -0.05061041 0.22012827
-0.016232198 -0.022520168 -0.047463898 -0.0068335184 0.0029552598 -0.045134842 -0.14362304 -0.009753803
-0.06442634 0.055819876 0.016899722 0.010682371 0.052797183 0.0998046 0.18236625 0.049897246
0.0036816618 0.08488745 -0.024152804 -0.0010173928 -0.028611762 -0.068869695 0.04700993 -0.044907574
-0.03458017 -0.03087944 -0.007142963 0.06614733 0.05716843 0.11302045 -0.07518723 0.01611247
0.03396664 0.023712816 0.051282447 0.10573686 0.019126184 0.024950463 -0.04886846 0.055411812
00000000: 0056 adbd 2a10 94bd 8be1 fe3c 05ca 043e
00000010: b13c 65bd b913 443e 044a 7c3c 4345 10be
00000020: 7ca1 103e 6cf8 f135 48a4 8b35 1a15 6735
00000030: c9d7 c1b7 3109 eeb7 4e2d ceb7 0406 51b6
00000040: f03c 16b6 f6dd 79b5 be50 b1bd b95b 6dbd
00000050: baf7 d2bd 8f36 3f3b 4e58 bebd 5c7b d93c
00000060: 4866 853d a860 5a3d adb1 793e e394 233b
00000070: f7fe d73b c736 61bc 6843 04bc 2c34 60bb
00000080: 3097 debd fe8a c0bd 0471 e4bb b5e0 61be
00000090: 53fd 9632 a241 1332 38c9 5731 8ea8 732d
000000a0: 61a1 5c2b 8a35 2c29 c8b4 8e2a ad25 5227
000000b0: c6ab 9225 5db3 60bd a289 3f3c 7589 a0bd
000000c0: 6b54 db3c 2ea9 24bd 6051 22be eaf2 453d
000000d0: 7198 00bd bdf0 4bbe cfff 0ebc 1066 233d
000000e0: bf7e c93c 7b57 8d3d 270b 283d d90e 243e
000000f0: c12d 83bd 430f 303c cf17 0e3e 7c40 3f3d
00000100: 285c 59bd 6b48 a13d 691a 6fbd c94a 55bd
00000110: ace2 883e a0dc 35bb c6e9 0d3e 0c96 f93d
00000120: 2871 beba 06c1 3ebc d600 61bc b447 063c
00000130: 1e3c 35bc fbb9 04bd 4e5b 00be dec2 24be
00000140: 0317 0cbe 14a4 11bd 272e 2c3c 479f b7bb
00000150: f0fa 303d d807 2c3d 786b 1c3d b9cf 2c3e
00000160: 3d14 b33d 7b5a e53b 226a 0ebd 010e 753d
00000170: 8017 453d 181e 723d d75c 88bc 2a28 743d
00000180: 728b c2bc 1641 09be 2c3f b1bc 9147 8c3d
00000190: 0a78 493d 7d1c ee3c b839 633d 1964 ef3c
000001a0: f4d2 fa3d daba e13d bd06 223b c4f9 0a3e
000001b0: 5e9a 103d 3365 893c 22de 773d 4e86 2e3d
000001c0: 89c6 d73d e042 bab9 c063 253e ba7c b63d
000001d0: 1795 123e aca3 bdb7 587a dfb7 5890 d8b7
000001e0: dcae 17b8 e65e 3bb8 b618 3db8 3a2b 5eae
000001f0: 3e8e 64ac 7a42 daa9 583b a1ba 3296 91ba
00000200: 32c7 7dba 38c9 48ba 3575 22ba 688c 12ba
00000210: 668b 42ba ecfc 36ba 9320 2aba 3dae 91bd
00000220: 004e d3bd 35f1 d3bd d2ef d73c b7c5 efbc
00000230: 019c af3d 5cd4 013e d431 f1bc ec13 a9bc
00000240: e090 093c 3e07 a63d a093 063c 78ed 643d
00000250: 3d63 afbd 5df7 2e3e 93bd debd 0d1b c43c
00000260: 2090 3b3e 7307 0cab ceb4 86ab ae4d 43aa
00000270: 0db9 97b8 453d afb8 d550 96b8 4c5d 58b5
00000280: e667 c9b5 511c 83b5 2dd3 13bd 5db5 d73c
00000290: c4f2 45ba 9a36 1c3c da95 67bd 16b7 7c3d
000002a0: 2062 85bd 5de0 babd 03f6 d03d ed58 5b3c
000002b0: ad9e 59bc 411b acbd 9fa3 42bd 82f0 67bd
000002c0: 5a9c 4abe fe5d a6bd e3eb 2e3c ee7d 00be
000002d0: 9bf6 1730 61b8 4c2f e94b e42d 7892 3929
000002e0: 521e 8c26 ec6c 9d23 e862 c128 947a a825
000002f0: c70c 4924 957a 20bc f198 843c 9c7d 64bd
00000300: 4166 303c 54f4 cdbd dffc 73be 3269 733c
00000310: a2b4 16bd 54e8 5abe 0b40 883d f86c a93d
00000320: 7568 b03d 0348 8fbd 3103 0bbd 2cff c33d
00000330: b902 9f3d a61c 17bd 27f3 de3c 22bf 873d
00000340: 054c f2bb 72c8 bc3d c867 56bd 4bbf 7a3d
00000350: 9200 7b3e d1f0 babc dc4c 4fbd 4e69 613e
00000360: 63f9 84bc 377c b8bc 8169 42bd b5eb dfbb
00000370: 08ad 413b 50df 38bd eb11 13be 6ace 1fbc
00000380: f5f1 83bd 62a3 643d 4971 8a3c 1d05 2f3c
00000390: dc41 583d 5b66 cc3d 38be 3a3e 0e61 4c3d
000003a0: 0948 713b 79d9 ad3d 1adc c5bc 0a5a 85ba
000003b0: 3763 eabc 8e0b 8dbd 7c8d 403d 01f1 37bd
000003c0: f0a3 0dbd e1f6 fcbc 840f eabb 4078 873d
000003d0: 7229 6a3d 4477 e73d c3fb 99bd 4cfe 833c
000003e0: 9a20 0b3d 6141 c23c 8b0d 523d 918c d83d
000003f0: 84ae 9c3c ea64 cc3c 4b2a 48bd 7ff7 623d

conv4.bias f4 [16]
-0.088179074 -0.011235823 -0.05034402 0.07487299 -0.015085077 0.019207262 0.041338876 0.05007899
-0.076818064 -0.08136272 -0.0020472049 -3.8078755e-33 0.067265466 0.044714257 -0.014657083 -0.045083452
00000000: 3b97 b4bd 7516 38bc 8835 4ebd 0357 993d
00000010: 6627 77bc 8c58 9d3c f452 293d a11f 4d3d
00000020: ca52 9dbd 7fa1 a6bd 662a 06bb 472c 9e89
00000030: 7ac2 893d 4c26 373d 4324 70bc 6da9 38bd

fc1.weight f4 [64, 784]
0.006163093 0.0018567366 -0.0029409009 -0.0035276809 0.004426239 0.007181124 0.0024622248 -0.0015901371
-0.0026202793 -0.012835822 -0.009744709 6.423362e-05 0.0021588115 0.007286013 0.008143931 0.003916819
-0.0118894465 -0.010993388 -0.0023842684 0.0030843243 0.0064056413 0.0007003563 -0.0013066799 -0.014656636
-0.012097745 0.0074720317 0.031383563 -0.008852453 0.016444083 -0.012221542 -0.031135332 -0.009381193
-0.06759981 0.005549051 -0.018204436 0.06644086 0.05707938 0.019316873 -0.017281596 -0.0095119
-0.012165631 0.020916944 0.026113182 0.016770888 -0.0010757046 -0.01130254 -0.0084557375 -0.0022165636
0.033976592 0.0033048945 0.0031179835 -0.004911012 -0.00015040817 0.0037564954 0.0055423854 -0.00049036235
-0.0007092018 0.0025214988 -0.014312445 -0.005415772 0.0031048697 0.016008513 0.0112284515 0.0054981136
0.0059141177 -0.013774078 -0.013473229 -0.0042568557 0.013599922 0.007403521 0.0049879677 -0.0065687094
-0.008697911 -0.0083779935 -0.0012271001 0.032832287 0.0015925512 -0.0049815043 0.010406094 -0.012509247
-0.02579593 -0.029589387 0.023409396 -0.013997563 0.007147186 0.033846874 0.0031496503 -0.023095068
-0.043949187 -0.017925644 -0.0046493723 0.019274574 0.018065134 0.013506325 -0.008147426 -0.010747398
0.0024966465 0.053758666 -0.002648456 -0.000878884 -0.00014799286 -0.01782832 0.0043221433 0.00218903
0.0034904657 0.024904437 0.007274463 -0.00993866 -0.01680389 -0.008226935 0.0061173784 -0.010705262
0.0144441165 0.0097086355 -0.0072612897 -0.010221798 -0.0010197269 0.011695218 -0.0016070486 0.016278924
0.016302157 0.005301712 -0.0076402603 0.012516916 0.02787388 0.007171905 0.012683825 0.0008352388
-0.03252742 -0.045061648 -0.035700705 -0.014273618 0.005143771 0.07690887 0.058335572 -0.0068820887
-0.024334695 -0.010658755 -0.013051992 0.007958673 0.05472675 0.028363807 0.0065708556 -0.00134529
-0.0085024 0.0016782801 0.01806955 1.42149e-40 8.7801e-41 7.678708e-07 2.4387702e-13 4.327589e-06
6.6771936e-05 -1.36e-42 0.008319604 0.0026339719 -0.0027100043 0.0070407824 0.0022725156 0.0007965059
0.0015142219 0.004383113 -0.004971021 -0.015041308 -0.0036740482 -0.006984252 -0.068660714 -0.08506291
0.018849876 -0.00025068212 -0.0022330799 -0.0037467 -0.0030226419 0.0038865015 -0.004735029 0.002405663
0.00379749 -0.024286944 -0.005432063 -0.016938603 -0.030454671 -0.014138048 0.03875569 0.00221436
0.0031514834 -0.015051098 -0.00990778 -0.0033407002 0.013285784 0.0036518394 -0.01345593 -0.016694319
0.008274004 0.010152448 0.017930381 0.044357534 0.008701139 -0.014048885 0.0018926383 -0.0015747158
-0.0043907706 -0.0008461188 -0.0092247985 -0.006416486 0.0013334216 0.011905602 0.0027882874 0.009981474
0.0055701016 0.014005764 0.011585083 0.006435219 0.017415047 -0.0008454285 -0.008050549 -0.0063937944
0.024919841 -0.017060956 0.0072087958 0.010752383 -0.00038047542 -0.0020211933 0.018511612 0.035136554
-0.011300018 0.0068248156 0.003143142 -0.019368105 -0.031671774 -0.059873775 -0.028072186 0.079557955
0.056407787 -0.0006539831 -0.012590067 -0.011796702 -0.022804737 0.0013120808 0.030915363 0.0116653675
-0.004986112 -0.0043034474 0.010807465 0.0033602766 0.009802263 0.0017937986 0.016156072 -0.01326717
0.0011983665 -0.0026730958 0.010200062 -0.0016320605 -0.002748905 0.019571364 -0.011925098 -0.0056781066
00000000: c5f3 c93b be5d f33a 21bc 40bb aa30 67bb
00000010: fc09 913b a24f eb3b 475d 213b 266c d0ba
00000020: feb8 2bbb 574d 52bc 46a8 1fbc 2ab5 8638
00000030: d97a 0d3b 82bf ee3b 1f6e 053c a958 803b
00000040: f4cb 42bc 9c1d 34bc 6341 1cbb 6022 4a3b
00000050: 6ae6 d13b 1e98 373a e744 abba 6322 70bc
00000060: 9f35 46bc f2d7 f43b 0d8c 003d e109 11bc
00000070: beb5 863c dd3c 48bc 860f ffbc 93b3 19bc
00000080: c571 8abd d0d4 b53b 7821 95bc 2512 883d
00000090: 11cc 693d 6b3e 9e3c 2292 8dbc cdd7 1bbc
000000a0: 5b52 47bc 035a ab3c 50eb d53c 1a63 893c
000000b0: a8fe 8cba 4a2e 39bc ef89 0abc c443 11bb
000000c0: 0a2b 0b3d ee96 583b 1557 4c3b 8eec a0bb
000000d0: e3b6 1db9 892f 763b e69c b53b a98b 00ba
000000e0: bae9 39ba bb3f 253b bf7e 6abc ca76 b1bb
000000f0: 127b 4b3b 4924 833c 8af7 373c 8529 b43b
00000100: 37cb c13b acac 61bc d1be 5cbc 187d 8bbb
00000110: 35d2 5e3c 3c99 f23b 1b72 a33b 543e d7bb
00000120: af81 0ebc da43 09bc a6d6 a0ba 267b 063d
00000130: 27bd d03a e33b a3bb 527e 2a3c 96f3 4cbc
00000140: fc51 d3bc 7165 f2bc 10c5 bf3c 0956 65bc
00000150: f132 ea3b 05a3 0a3d 5d6a 4e3b de31 bdbc
00000160: 1004 34bd cdd8 92bc c359 98bb b6e5 9d3c
00000170: 55fd 933c a249 5d3c c87c 05bc db15 30bc
00000180: c79e 233b 0c32 5c3d b891 2dbb e864 66ba
00000190: 882e 1bb9 b20c 92bc c4a0 8d3b d475 0f3b
000001a0: 4cc0 643b 6404 cc3c 9e5e ee3b c3d5 22bc
000001b0: 50a8 89bc 44ca 06bc 4a74 c83b 2065 2fbc
000001c0: 04a7 6c3c f810 1f3c 1df0 edbb 5479 27bc
000001d0: 5ba8 85ba 4d9d 3f3c 9aa3 d2ba 615b 853c
000001e0: 1a8c 853c fcb9 ad3b 265b fabb c013 4d3c
000001f0: c357 e43c 4d02 eb3b d1cf 4f3c edf3 5a3a
00000200: 793b 05bd 9092 38bd e73a 12bd e5db 69bc
00000210: 148d a83b 6682 9d3d 48f1 6e3d 2583 e1bb
00000220: 8e59 c7bc 0fa2 2ebc 06d8 55bc 1865 023c
00000230: 2829 603d 375b e83c 5550 d73b 7154 b0ba
00000240: a64d 0bbc bcf9 db3a 9806 943c 418c 0100
00000250: c1f4 0000 ae1f 4e35 624a 892a b535 9136
00000260: e907 8c38 cb03 0080 f34e 083c b79e 2c3b
00000270: 549a 31bb 5db6 e63b 7cee 143b 9bcc 503a
00000280: db78 c63a 37a0 8f3b f2e3 a2bb d16f 76bc
00000290: 4dc8 70bb 27dc e4bb fd9d 8cbd 7735 aebd
000002a0: 0e6b 9a3c fc6d 83b9 dd58 12bb 328b 75bb
000002b0: 8417 46bb adb4 7e3b 4d28 9bbb 54a8 1d3b
000002c0: 4fdf 783b 6af5 c6bc 72ff b1bb d3c2 8abc
000002d0: 137c f9bc 45a3 67bc 49be 1e3d cc1e 113b
000002e0: 1e89 4e3b e198 76bc 3e54 22bc a6ef 5abb
000002f0: 9eac 593c b353 6f3b 4376 5cbc 86c2 88bc
00000300: b08f 073c 7456 263c bce2 923c 3fb0 353d
00000310: 398f 0e3c 4b2d 66bc 6712 f83a b266 ceba
00000320: 74e0 8fbb 12ce 5dba 9c23 17bc 6341 d2bb
00000330: 34c6 ae3a b70f 433c b3bb 363b 5689 233c
00000340: 6685 b63b 6f78 653c 5ccf 3d3c 88de d23b
00000350: 00aa 8e3c bf9f 5dba 73e6 03bc 0983 d1bb
00000360: b224 cc3c 6bc3 8bbc c337 ec3b c32a 303c
00000370: 8c7a c7b9 ff75 04bb aaa5 973c 59eb 0f3d
00000380: b623 39bc b4a2 df3b 2cfd 4d3b dca9 9ebc
00000390: 43ba 01bd 343e 75bd a4f7 e5bc 48ef a23d
000003a0: da0b 673d 1070 2bba 9246 4ebc f446 41bc
000003b0: 00d1 babc 20fa ab3a 3742 fd3c 1920 3f3c
000003c0: 8a62 a3bb ef03 8dbb cb11 313c 1638 5c3b
000003d0: ac99 203c e51d eb3a bd59 843c 8b5e 59bc
000003e0: 8212 9d3a 1b2f 2fbb 291e 273c ddea d5ba
000003f0: f926 34bb 2054 a03c 7c61 43bc 690f babb

fc1.bias f4 [64]
0.0128500415 0.03455737 -0.000104447965 -2.9003842e-15 -8.834168e-07 -1.8902059e-08 -0.020459967 0.0052913944
0.012900676 -6.6198892e-18 -1.902083e-07 -0.0001921746 0.018730152 -3.6768285e-20 0.0052426425 -2.8666165e-05
-0.011368493 -0.008590775 -0.0030093514 0.032509204 0.007950849 0.035230897 -7.812748e-16 -6.3491854e-05
-0.00018428311 -0.0015456305 0.03132003 0.008773073 -0.021616796 0.010919774 -1.8261914e-06 0.01988309
0.027641915 -2.6937356e-19 -1.6755487e-14 0.013799213 0.023589656 -1.7176599e-07 -5.5656733e-07 -2.3143184e-26
-3.2895628e-06 -4.1976493e-22 0.051064517 3.0838066e-06 -0.00020583386 0.0013753006 -6.860785e-05 0.009005616
0.01032881 0.033347167 0.0372189 -3.9070205e-06 -2.3669003e-05 -0.024599839 0.032959953 -0.0014337517
-0.019459644 0.03219606 0.036834244 -2.759773e-12 0.025864469 1.3993763e-05 -1.2456894e-15 -0.00074690004
00000000: fb88 523c 078c 0d3d 130b dbb8 a5fe 50a7
00000010: f123 6db5 115e a2b2 a99b a7bc 6f63 ad3b
00000020: 5b5d 533c 163b f4a2 0f3c 4cb4 7a82 49b9
00000030: fa6f 993c 21a2 2d9f 79ca ab3b 1f78 f0b7
00000040: ea42 3abc 52c0 0cbc 8a38 45bb 5f28 053d
00000050: 4744 023c 464e 103d e82f 61a6 ee26 85b8
00000060: 1f3c 41b9 c196 caba 6f49 003d efbc 0f3c
00000070: b515 b1bc dae8 323c 751b f5b5 dde1 a23c
00000080: 4c71 e23c 9502 9fa0 86eb 96a8 1816 623c
00000090: 183f c13c ad6e 38b4 0467 15b5 f132 e594
000000a0: 42c2 5cb6 7abb fd9b 0729 513d 65f3 4e36
000000b0: 1bd5 57b9 6e43 b43a 8fe1 8fb8 4b8c 133c
000000c0: 2b3a 293c 0a97 083d d872 183d 0d19 83b6
000000d0: cc8c c6b7 9a85 c9bc 0401 073d b9ec bbba
000000e0: d569 9fbc 04e0 033d 81df 163d a733 42ac
000000f0: b9e1 d33c c1c6 6a37 d485 b3a6 9dcb 43ba

fc2.weight f4 [1, 64]
-0.11688625 -0.45005694 0.0004372163 0.00036914172 0.00048655499 0.00080546865 0.27272204 -0.13300753
-0.3463478 -3.2667856e-05 0.0019991463 -0.001681837 0.29700077 3.2473494e-05 0.27148372 -0.0026683924
0.27170986 -0.11074836 0.31725833 0.31077024 0.41000134 0.3007943 0.001833226 0.00037817055
0.00053664285 -0.0032716207 0.26393738 0.31390706 -0.24275732 -0.13855469 -0.00018381834 0.26396343
0.18522349 0.00010297172 -0.0011768667 0.33009872 0.27497086 0.0008313148 0.00017293064 -0.0008618123
-0.0014175661 0.00010196797 0.1334821 1.9343164e-05 -0.00091749855 0.001037051 -0.00059503847 0.27061415
-0.42234468 0.2662227 0.29054815 0.00050728855 0.0010727647 0.26151866 -0.4225655 0.0006446451
0.27264237 -0.30942702 0.2686205 2.4382498e-06 -0.13085225 4.5091447e-08 0.00011901309 -0.0016733201
00000000: 0f62 efbd dd6d e6be 2e3a e539 5d89 c139
00000010: 4e18 ff39 1626 533a 39a2 8b3e 2033 08be
00000020: 8054 b1be d804 09b8 1c04 033b 1671 dcba
00000030: 7c10 983e 2634 0838 eaff 8a3e 32e0 2ebb
00000040: 8e1d 8b3e 09d0 e2bd af6f a23e 471d 9f3e
00000050: b2eb d13e b601 9a3e db48 f03a 3145 c639
00000060: 7ead 0c3a b068 56bb cd22 873e 6db8 a03e
00000070: 6095 78be 48e1 0dbe 5cbf 40b9 3726 873e
00000080: 3aab 3d3e 85f2 d738 1841 9aba b302 a93e
00000090: fbc8 8c3e 98ec 593a b754 3539 3feb 61ba
000000a0: a0cd b9ba a3d7 d538 88af 083e 2143 a237
000000b0: 4984 70ba a8ed 873a 5bfc 1bba f08d 8a3e
000000c0: 903d d8be 574e 883e bac2 943e 8ffb 043a
000000d0: 039c 8c3a c6e5 853e 815a d8be 66fd 283a
000000e0: c897 8b3e 386d 9ebe a088 893e d0a0 2336
000000f0: 22fe 05be 92aa 4133 ab96 f938 4e53 dbba
