code/learned_models/spaceinvaders_trexnet_reward.params (torch_old, 259926 bytes, 11 tensors)

conv1.weight f4 [16, 4, 7, 7]
00000000: f739 d13c 3405 3d3d 4419 99bd 3aab e5bc
00000010: ec57 80bd 23bf c6bc 52ba 86bd 0892 a03d
00000020: e44f 453c 84a7 ce3b 8969 cc3b 2f42 96bd
00000030: a74e 48be 180e dbbd fae1 21bd ca47 bdba
00000040: ed32 8f3c 0c3b 4f3d 3946 b5bb e929 80bd
00000050: ab06 26bd 179f 7e3d 0281 57bc 9255 063d
00000060: 2e4e 99bb 1246 2f3d 4d97 cc3d 05bd 34bd
00000070: 1271 b9bc d92c 45bd 3033 043c 07e7 cc3d
00000080: e955 71bd 3f61 06bc 848b 4a3d 45ef 1abd
00000090: 538e 3dbd 07d1 d43d e1c6 8e3d 23cb a8ba
000000a0: d7c9 303d 32ca 34bd 001a 9ebc 4550 abbc
000000b0: 0a5d e43c 2375 99bc d6b9 a93d 2c9a 383d
000000c0: 9368 87bb a86c b33b fbf3 0d3d 8d59 913d
000000d0: e4f8 443d f037 c8bc a5fe 373d 95eb 08bd
000000e0: 07e2 5b3d ac5e 3bbd 8e51 87bc 3a3d 163d
000000f0: 67c5 a9bc 0538 db3c 19e1 4dbd 3110 de3c
00000100: 88b6 8a3c 3bfb 1ebc 779d 2c3d b9ee 983c
00000110: ffd2 5f3d c9b8 863d 8fce 81bd 0176 e3bc
00000120: c2d6 e93c 5152 4d3d f7d1 c93d 836d 203d
00000130: bad1 fabc 473b a3bd 1d22 663c 06a6 bc3b
00000140: f2bd a2bc dd1b 843d adff bd3c 963c 99bc
00000150: 63b0 c537 f6a8 80ba 66c9 133d 6524 b83c
00000160: c209 2bbc b80a a0bd 3f07 363d 52ed 7dbb
00000170: 0a38 353d 9a9f 6b3d cf2e 5dbd 5fa7 3cbc
00000180: 4644 3f3d 3a16 7f3d 0926 3abd a119 30ba
00000190: 8aa6 c83d e816 db3d 4756 063d 0803 6a3d
000001a0: 6ec3 07bd 9997 f33c ca5d c03a 32dc a0bc
000001b0: 143a 633d d061 363d 4b59 c5bd e71f 953d
000001c0: d376 2bbb 3828 b83d 54f8 763d be22 35bc
000001d0: eeca 483d 9697 343d 575a db3c d2dc 423d
000001e0: 4984 883c 7ee3 093c 9ff9 28bc 6f1b 603d
000001f0: 8ad2 a1bd e695 e5bd 89f3 32bd 235c 78bc
00000200: 6139 9cbb d086 f5bc 5700 1fbd b2e9 49bd
00000210: bbcc ffbd d985 97bb 05a6 663d a808 763c
00000220: 2357 71bc 5af1 9fbd 8682 05bd 9a26 1abd
00000230: a9c7 7b3d cf57 8b3d 808b b23d 1f59 e4bb
00000240: ee59 1ebd cb87 f8bb c3fd ad3d 483e 3c3c
00000250: 1642 d6bc 2a6e 24be b86e 54be 729b b1be
00000260: 14c1 87bd 0efe 12bd 2c37 0e3d 46d8 29bd
00000270: 1b3a f03c 094e 15be bd4b 1ebe 8b81 98bc
00000280: 7e53 80bd e430 ea3b d660 d6bd 0ac3 b4bd
00000290: 2fcb 45bd adb8 69bd b912 edbc 04ef 8bbd
000002a0: acb0 7dbd 7fd7 00bd 684f e339 89f5 3cbd
000002b0: d106 a23d 3caf 15bd 4fd3 13be 2535 803d
000002c0: acf5 54bc 0f88 89bb 7a12 c53d b71d 2fbd
000002d0: 2ae1 df3c 7908 39bd 206c a13d 1ef9 8f3c
000002e0: bec2 243d bb21 583d 4519 a8bd e473 4ebd
000002f0: 096d b6bd 222c f33c 23f5 833d cdf6 833d
00000300: 83f9 c7bd c793 9fbc e409 98bd bef2 adbd
00000310: 4359 6abd 67d2 9a3c 6274 b2bd 68a2 acbc
00000320: e0ef 7c3b 178a 9f3d 0ea2 58bd 9b8b 74bd
00000330: 087e 01bd 2e19 5d3d c03d fdbb d077 a93d
00000340: f1b1 1d3d b4f7 233d ed4b 9c3c 3579 a83c
00000350: 56b6 c13c 415b c23c a3a7 f33c ef22 f43c
00000360: 5e5d 03bc a34a 063b 9e43 a33d 3829 5ebc
00000370: 3d25 bcbb 16fd c33d b824 403d 978e 013d
00000380: b8ab 31bd 4266 6c3d 5a16 06bd 2cc3 a23c
00000390: fa93 a9bc ee13 ee3b fd0f 973c 80d7 373d
000003a0: ed3b 873c 6515 843d 30d7 9d3d 20e3 57bd
000003b0: 519e 863d 53f3 10bd fd48 36bd 00a1 063d
000003c0: 4762 7a3c bb36 7e3d ef98 0c3b f1a6 c63c
000003d0: e6de 7d3d 1080 06be 3aca 603d 19c5 9cbd
000003e0: c164 07bd 29b8 4abd 4023 823b 28b2 2fbb
000003f0: bca1 313d f47b 06bc ffbe 76bd 456f c5bc
0.025540335 0.04614754 -0.07475522 -0.028035749 -0.0626677 -0.024261063 -0.065785065 0.07840353
0.012042973 0.0063065905 0.0062381667 -0.07336842 -0.19561253 -0.106960475 -0.03952215 -0.001444095
0.017480338 0.05059342 -0.005532053 -0.06257994 -0.040533703 0.06216344 -0.013153316 0.03279645
-0.004678509 0.042791434 0.09989796 -0.044125576 -0.022636924 -0.048138473 0.008068845 0.100050025
-0.05891982 -0.008201896 0.04944946 -0.03782584 -0.04627831 0.10391431 0.06971527 -0.0012877922
0.04316124 -0.04413814 -0.019299507 -0.020912299 0.027876396 -0.018732613 0.082873985 0.045068905
-0.0041323393 0.0054755993 0.034656506 0.070971586 0.048088923 -0.024440736 0.044920582 -0.033427794
0.053682353 -0.045744583 -0.01651838 0.036679484 -0.020724012 0.02676011 -0.050263498 0.02710733
0.01693274 -0.009703453 0.042142358 0.01866852 0.05464458 0.06578214 -0.06338226 -0.02776623
0.028544787 0.05012733 0.09854501 0.03916694 -0.030617584 -0.07970291 0.014046219 0.005757096
-0.019865964 0.06450627 0.023193205 -0.018705647 2.3566367e-05 -0.0009815979 0.03608074 0.022478292
-0.010439338 -0.078145444 0.044440504 -0.003874619 0.044242896 0.057525255 -0.05399972 -0.011514514
0.04669597 0.062277056 -0.04544643 -0.0006717686 0.0979739 0.106977284 0.032797124 0.057131797
-0.03314536 0.029735373 0.0014676389 -0.019636247 0.05547531 0.044526875 -0.09636172 0.072814755
-0.0026163354 0.08992046 0.060295418 -0.011055646 0.049021654 0.044089876 0.026776476 0.047573872
0.016664641 0.008416055 -0.010313421 0.054713663 -0.07901485 -0.112102315 -0.043689284 -0.015158686
-0.0047675823 -0.02997151 -0.038818683 -0.049295135 -0.12490221 -0.00462411 0.056310672 0.015016712
-0.014730248 -0.07809706 -0.03259518 -0.03763447 0.061469708 0.068038575 0.08718014 -0.006968632
-0.038659982 -0.007584547 0.08495667 0.011489458 -0.02615456 -0.16057649 -0.20745361 -0.34688908
-0.066286236 -0.035886817 0.034720585 -0.04146602 0.029324582 -0.1458055 -0.1545858 -0.018616458
-0.06265925 0.0071469415 -0.10467689 -0.08826263 -0.048289474 -0.057060886 -0.028939592 -0.06832698
-0.061936066 -0.031455513 0.00043355976 -0.046132598 0.079114564 -0.03654407 -0.14436077 0.062601365
-0.012998026 -0.0041971277 0.09622665 -0.042752948 0.027329046 -0.045174096 0.07881951 0.017574843
0.040224783 0.052766543 -0.08207945 -0.05040349 -0.089075156 0.02968413 0.064432405 0.06443558
-0.097643875 -0.019479645 -0.074237615 -0.08493565 -0.057214033 0.018899156 -0.087136045 -0.021073535
0.0038595125 0.077900104 -0.052888922 -0.05970345 -0.031614333 0.05397909 -0.0077283084 0.082748055
0.038499776 0.04003115 0.019079173 0.020565609 0.023646515 0.023725154 0.029743021 0.029801814
-0.008017866 0.0020491264 0.07971881 -0.013559632 -0.005741744 0.09569757 0.046910018 0.031630125
-0.043376654 0.05771471 -0.03273616 0.019868456 -0.020700444 0.0072655594 0.018440241 0.04488325
0.016508067 0.06449393 0.077070594 -0.052706838 0.06573165 -0.035388302 -0.0445032 0.032868385
0.01528222 0.062063914 0.002145346 0.024249526 0.06198015 -0.1313479 0.05488036 -0.07654781
-0.03305507 -0.049492035 0.0039714873 -0.002680907 0.043367133 -0.008208264 -0.06024074 -0.024100909

conv1.bias f4 [16]
00000000: ca73 a73c 7392 0bbd 4cf4 31bc aa31 803b
00000010: 4234 bebc d50f 973d 1c40 5f3d fde0 3c3d
00000020: 888b 2fbd ed5e 95bd b320 d2bc ead9 8a3d
00000030: 3d26 84bd d9a2 f2bc acda f23b 85af 18bc
0.020440955 -0.03407521 -0.010861468 0.0039121704 -0.023218278 0.073760666 0.0545045 0.046113003
-0.042857677 -0.07293496 -0.025650358 0.06779845 -0.06452606 -0.029618667 0.0074113216 -0.009319191

conv2.weight f4 [16, 16, 5, 5]
00000000: 6adb 5ebd 79c1 e6bb dae3 053d bf55 a43d
00000010: 236a c33d 9c9d 633c 1b87 edbc 2137 f3bc
00000020: 027c c03d 1cb1 813b 534f d8bc 3635 163d
00000030: 88d5 963c 5da7 803d e775 933d 6dba 0bbc
00000040: fc16 6d3c b77e 143d f9db d23c e52b b93c
00000050: 55fa 863c 1837 dc3c 1132 2fbc db15 343d
00000060: 7cfe a33d 7784 0dbc 5590 e93c 0bbb 71bd
00000070: fa41 b13c 2294 da3c 5955 8cbc f491 f23c
00000080: 8060 983b 835a 973d ffac 823b f42e 8abc
00000090: 83ce 8fbc ed45 16bd e2a0 ad3c b213 17bd
000000a0: c5d6 aa3c 56bd 133d be58 e9bc 21bd 793d
000000b0: cd88 323c dd23 d3bc 9c2e 0abc 33b3 6fbd
000000c0: e5a7 2fbc bdaa 11bc 1893 b4bc 5c8f 45bb
000000d0: ddf6 bd3c 01c7 7e3d 6211 8c3d 1384 babc
000000e0: 9ede 043d 732b ce3d 01ab 5f3d f068 b53d
000000f0: d874 5d3c f340 aa3d d668 6e3d 053e df3d
00000100: ef44 213c 8812 aa3d 3e8a 5b3d 9e7e bc3d
00000110: 4622 8b3c 7448 4e3d 870f c53d 8cc5 283d
00000120: fb2b 2abb 4819 babd 9a17 6a3d efdf 5c3c
00000130: 7505 3b3d 2e53 0f3c 1b4e 183d 072c 823c
00000140: b5db 183d 26e5 a9bc 25ac 3d3d 99d6 8dbb
00000150: 5abc 053d 7f1b fb3c 2584 243d 3751 623c
00000160: 8eaf 563d 0b58 8ebc 5f39 0e3d 2c5e e33c
00000170: 0fa6 f73a 7608 71bd 82bd 19bd 29c9 353d
00000180: 2cac 32bd ef32 1f3d d4be 333d 93a2 c1bc
00000190: 7206 18bd f950 10bd 9a8c ae3c 2baa 23bd
000001a0: d8ed 47bd 9fa7 ccbd 8228 b43b 8864 303c
000001b0: c968 733c 757d debb d865 2bbb 0a73 15bd
000001c0: 3917 473d bc27 44bd a671 dabd 89d3 05bc
000001d0: fadd 84bd c0a6 743c 3a9a 25bd 1624 b73b
000001e0: c220 a8bc be82 06be 9e67 8fbd e133 d8bd
000001f0: c446 8cbd 2520 ba3c 7f15 0bbd fc6e c73c
00000200: bee7 763b 7ec1 923d 5546 983a b3e8 b33d
00000210: 258d 90bc 2f48 cc3c 2340 e13c 5c07 aabc
00000220: 71b2 453d 12b8 173c a630 943d 7c16 ad3d
00000230: f330 993c ffbc a23d 6b5e b23d 1cee b93d
00000240: 2c44 afbc 4c4e 2d3c 495a 53bc 2fb8 8f3d
00000250: e4a9 bd3c c527 c73c 28c6 78bd a113 64bc
00000260: 59f7 0e3d 4f6a 403d ec6d 39bc 88db 8c3c
00000270: f1dc 383d 76f9 5e3d b10f 85bc 925c 233d
00000280: ec2d ed3b e2af 3f3d 07bf 503b 21ad 36bd
00000290: 8281 a0bc b8b5 993c 2a66 2e3d 272b 67bd
000002a0: 483c 073d 5681 3fbd 343e 773b 3738 5c3d
000002b0: 99c2 3a3c 788f 043d bf9f 293d 7843 98bb
000002c0: daa0 71bd 8eb0 96bc 7aba 45bb 4d2e 853d
000002d0: b095 21bc 640c 4abd 7bd5 6fbd 76a2 6dbb
000002e0: 724d 1b3d 7b53 58bc 9c8a 053b 1304 653c
000002f0: 22a0 a33c 27c0 8e3c 2037 b7ba 4c1e 14bd
00000300: c94f 3bbd 0d17 683c 9ab8 763c d6ee f13c
00000310: 99a2 90bd 81b4 883c 9a5a 11bd 1e57 673d
00000320: c428 4bbc 410e 353c 7d30 293d f896 5e3c
00000330: acc3 ab3b 9bd5 043d 73b9 fe3c 0189 a43d
00000340: b607 babc 4a62 103c 5bb7 7f3b 14ed 0fbc
00000350: 13a9 063d 4d48 4d3c a50e d73a ef8e 72bc
00000360: f455 d53b f3ce 803c a795 62bb f842 23bd
00000370: d687 133c 9fda 46bd 9fb6 b43c 4574 0cbd
00000380: 755b 31bd 21a7 323d 8a6f 29bc 3c3b 3a3c
00000390: bb40 a53d 8a05 7e3d 4b78 423d 2cfb 9a3c
000003a0: d8e0 c7b9 e15b 393d c3d6 5c3d 47b0 963c
000003b0: 6539 c83d cdc9 7f3d 3a04 243d 8cb6 113c
000003c0: 466b adbc 828c d63c 7ae1 5b3d 0e2a d3bc
000003d0: bfc9 8a3c 65f1 df3c 58a0 b53c 81e4 2c3d
000003e0: c167 bebc 8b79 3ebd fceb 5abd ce45 51bd
000003f0: 70fa 173b f604 5b3d fea1 9e3c 47b5 b33d
-0.05440847 -0.0070421067 0.032688 0.08024167 0.09541728 0.0138925575 -0.028995087 -0.029689373
0.093986526 0.0039578807 -0.026405012 0.03667184 0.018412367 0.06281922 0.072002225 -0.008528334
0.014470812 0.036253657 0.025739657 0.022603938 0.01647679 0.02688174 -0.010693089 0.043966155
0.080075234 -0.008637539 0.028511206 -0.05901627 0.021637905 0.026681963 -0.01713054 0.029610611
0.0046501756 0.073903106 0.003987908 -0.016868092 -0.017554527 -0.03668778 0.021194879 -0.036884017
0.020854363 0.036069237 -0.028484698 0.060971383 0.010896874 -0.025773937 -0.008433964 -0.058520507
-0.0107211815 -0.008890805 -0.022042796 -0.0030145263 0.023189003 0.062201504 0.06839253 -0.022768056
0.032438867 0.10066881 0.05460644 0.08857906 0.013516627 0.08313169 0.058205448 0.10900501
0.009843095 0.08304316 0.053598635 0.09203838 0.016984116 0.050362065 0.09622102 0.04120402
-0.0025966156 -0.09086853 0.057151414 0.013481124 0.0456595 0.008747859 0.037183862 0.015890134
0.037318904 -0.02073915 0.046306748 -0.0043285605 0.03265033 0.03065276 0.040165085 0.013813308
0.052413516 -0.017375967 0.034722682 0.027754866 0.0018894094 -0.05884596 -0.037534244 0.044381294
-0.043621227 0.038866933 0.04388316 -0.023637092 -0.03711552 -0.03523347 0.021307278 -0.039957207
-0.04881081 -0.09992909 0.005497993 0.010766156 0.014856526 -0.006789858 -0.0026153233 -0.036486663
0.04860613 -0.047889456 -0.10666208 -0.00816811 -0.06487651 0.014932334 -0.040430285 0.0055890186
-0.020523433 -0.13135812 -0.07002185 -0.1055677 -0.06849435 0.022720406 -0.033956047 0.024344914
0.003767475 0.07165812 0.001161764 0.08784618 -0.017645428 0.024936764 0.027496403 -0.020755462
0.048265878 0.009260194 0.072358415 0.08451554 0.018700099 0.079462044 0.08709415 0.09078619
-0.021394812 0.010577749 -0.012899944 0.07017552 0.0231523 0.024310956 -0.06073585 -0.0139206955
0.034903858 0.046976384 -0.011317711 0.017194524 0.04513258 0.054437123 -0.016242834 0.039883204
0.0072381403 0.046798594 0.0031852142 -0.044598702 -0.019593004 0.018763408 0.0425779 -0.056437638
0.033016473 -0.046754204 0.0037726285 0.05376455 0.011398935 0.032363385 0.04141211 -0.004646715
-0.05899129 -0.018394735 -0.0030170963 0.06502972 -0.009862348 -0.049328223 -0.0585532 -0.0036260164
0.037915654 -0.013203497 0.0020376807 0.013978022 0.019973818 0.01742561 -0.001397822 -0.036161706
-0.045730386 0.014165652 0.015058661 0.029532831 -0.07062263 0.016687633 -0.035486795 0.056479566
-0.012399856 0.011050762 0.041306008 0.013585798 0.0052418318 0.032430273 0.031094288 0.08033944
-0.022708755 0.008812496 0.00390192 -0.008784551 0.032876085 0.012529445 0.0016407563 -0.014804586
0.0065104906 0.015723681 -0.0034574063 -0.03985879 0.009004554 -0.048548337 0.022059737 -0.03429057
-0.04330011 0.043616418 -0.010341534 0.011366662 0.08068987 0.062017 0.047478 0.018918596
-0.0003812376 0.04525364 0.05391575 0.018394602 0.09776572 0.06244831 0.040043093 0.00889362
-0.021169316 0.026190046 0.053681828 -0.02577689 0.016941903 0.027336786 0.022171184 0.042210106
-0.023242833 -0.04650263 -0.05344771 -0.05109196 0.0023190044 0.053471528 0.019364353 0.0877481

conv2.bias f4 [16]
00000000: ab48 43bd 1421 5f3d a89b b43b ec25 41bc
00000010: bc57 a2bb 76b9 b8bc 9edf 8ebb eaa9 a03c
00000020: 5014 0e3d c7e4 00bc 7d24 3d3d 3a46 64bd
00000030: 98b8 c6bb 0e19 143d b734 31bd df9a 79bc
-0.047676723 0.054474905 0.0055117197 -0.011788826 -0.0049543064 -0.022549372 -0.0043601533 0.019612271
0.03468734 -0.007867045 0.046177376 -0.055731036 -0.0060644858 0.036156707 -0.043263163 -0.015234678

conv3.weight f4 [16, 16, 3, 3]
00000000: 891c 1d3e 8216 2cba 3366 4abd a7c8 243e
00000010: b37e 083d 191c 3fbe 4797 2bbd 0a19 85bb
00000020: 5f65 10be 95a9 acbd 0a48 593d 8813 69bd
00000030: 6637 bbbd 47f2 5a3d 994c 663d 8289 883c
00000040: f517 ec3d 1a61 113d 19aa ea3d 440a 823b
00000050: 0105 8fbd 8eb4 533d abef 61bc 61db 09bd
00000060: 37d3 b43c 11db 063d 87eb 89bd c6fb 393c
00000070: 040a 2fbd 8a49 fd39 e5a4 633d 4a87 bd3d
00000080: c63b 063e 632c 8f3c 661a fdba b1ca e13d
00000090: 3551 f13c c1b1 833c ebed cfbc 26d0 34bd
000000a0: cc50 53bd c1d7 c3bd 886f 96bb 885d 12be
000000b0: f0fa 74bd 3165 043d 66a8 d53d b7fd 94ba
000000c0: 9b6c 483d 057e 423d b444 25bc aaab ba3d
000000d0: c0e8 8abd 7d86 c03c a50c bc3c 4930 11bd
000000e0: c191 92bd 267a 7fbd 980d 3cbd 1ae2 223d
000000f0: 2e22 883c fe88 d4bd 9d18 0c3d 16c9 ad3d
00000100: bd71 683d 5a75 e03d f3f3 713d 0bf6 af3c
00000110: ce6d a53d 2be3 41bd 4f1b 3cbc 7496 23bd
00000120: e1a2 c7bc b0b2 63bd d37d 9f3d c08e 22bd
00000130: d805 f43c cca5 ec3d 4859 d93c aa20 033d
00000140: 7a34 0f3e e7a3 8bbd dc3a be3d 4d50 d1bd
00000150: 1970 cc3d e3dc 1f3c 290d a5bd 158a 65ba
00000160: fcce 25bc 0ce2 e43c 7f99 bb3d 5526 953d
00000170: 4e60 a03d c303 b03d 0895 5bbd 6044 103d
00000180: 01f0 953b 5efb 5f3d ef2c 3e3b c0fa 0c3d
00000190: 3b6b a83d 3467 143d 64ef 87bc ef36 a7bc
000001a0: c2a9 f23d 6760 ca3c 90e0 aabd 04f2 453c
000001b0: f065 acbd 887f 97bd db57 16bd 4319 02be
000001c0: b1e1 b6bc cdbc 85bc e8a9 a5bd c811 8cbc
000001d0: 315f 9e3d f865 93bc 572d b63d a548 3cbd
000001e0: 8a44 f3bb 140c 713d 65e5 1c3d 5693 313b
000001f0: 1300 84bb 7f3a 28bd 1ddf 8fba be68 0c3d
00000200: be81 93bd bfc6 31bb ed97 49bc 8978 52bc
00000210: f6eb 883d 1c23 a7bd c128 543b 9e15 123d
00000220: f2a3 13bb 9932 adbc 403c 3d3d 674a cbbd
00000230: 7e9d 30bd 6e9b 0c3b 0892 8ebd 519c c8bd
00000240: a6a0 5db8 44e7 73b8 d3f7 17b8 13b8 9db8
00000250: 77b7 8cb8 68da 0eb8 9013 28b9 c4d3 09b9
00000260: 9801 a9b8 5cdf d5ba caf3 cdba 3f4c e0ba
00000270: 7db8 cdba 3caf caba 2614 e9ba 08a8 d9ba
00000280: 69ac e4ba b54d 08bb 9318 6bba f344 7eba
00000290: 9918 96ba cf8a 8dba 4ed6 a2ba a703 b4ba
000002a0: 396b b1ba 7926 c6ba 5f6a c6ba 2055 a0ba
000002b0: bb08 b7ba b950 b9ba 93e8 9dba e54d b1ba
000002c0: 9f81 c5ba 3c2f b4ba bc39 d4ba 8e9f f9ba
000002d0: d40b 41b7 4b35 4eb8 e398 f2b8 4aa7 5238
000002e0: 88df e237 bc54 c2b8 e1e3 8838 1e59 80b8
000002f0: 3b1d 93b9 ee76 99b9 3619 87b9 d1b9 88b9
00000300: bd1d 88b9 418f 8cb9 34a9 8bb9 2d78 dfb9
00000310: e38d e7b9 bb13 f7b9 9c34 1fb9 20e4 7ab9
00000320: c177 87b9 12ae 22b9 3ee0 69b9 cdcc 69b9
00000330: c6b4 05b9 a351 05b9 54bd f7b8 bc78 e7b9
00000340: 25e2 1dba d956 3aba 66c9 11ba 8c55 37ba
00000350: 0eae 5eba b73f 42ba 1da8 71ba 40b8 91ba
00000360: 6bfe ddba c3e3 efba 7db7 f9ba 9f9d caba
00000370: 50fe dbba c0a1 f1ba d16e deba 9320 fdba
00000380: 0132 11bb 4f98 3439 1ee1 03b9 dd8e fdb9
00000390: e385 80b8 1b5a a4b9 33af 3bba f509 bdb9
000003a0: e18a 0aba 646e 86ba 84c1 9fba e145 a2ba
000003b0: e398 97ba 91c3 a1ba b293 a0ba e132 90ba
000003c0: 9d01 a7ba 1dce 9eba ce80 8fba 2513 02b9
000003d0: 0058 beb9 be51 f4b9 200e c337 8414 9cb9
000003e0: 1862 efb9 3291 a838 1f53 a8b9 cf5c 0dba
000003f0: dd15 5f38 f7fe 30b9 1f66 0bba 37d7 d939
0.15342917 -0.0006564633 -0.04941387 0.16092168 0.033323955 -0.18663062 -0.041892316 -0.004061823
-0.1410117 -0.08430783 0.053047217 -0.056903392 -0.09141426 0.05345371 0.056225393 0.016667131
0.11528007 0.035492994 0.11458225 0.003968509 -0.06983376 0.051685862 -0.013790051 -0.03365648
0.022073371 0.03292376 -0.067343764 0.011351531 -0.04273416 0.0004831071 0.055577178 0.0925432
0.1310874 0.01747722 -0.0019310236 0.110249884 0.029457668 0.01607597 -0.025382003 -0.04414382
-0.051590726 -0.09562636 -0.0045909323 -0.14293492 -0.059809625 0.032323066 0.1043251 -0.0011367117
0.0489317 0.047483463 -0.010087181 0.091147736 -0.06782675 0.023501629 0.022955248 -0.03544644
-0.071567066 -0.06237235 -0.0459114 0.03976641 0.01661786 -0.10377692 0.03420316 0.0848562
0.056749094 0.10959883 0.05907054 0.021479627 0.08077584 -0.047335785 -0.01148112 -0.039938405
-0.024369659 -0.05559033 0.07787671 -0.03968692 0.029787943 0.11555061 0.02653183 0.032013573
0.13984862 -0.06818371 0.0928857 -0.10220394 0.099823184 0.009757253 -0.08059151 -0.00087562326
-0.01012015 0.027939819 0.091601364 0.07282702 0.07830869 0.085944675 -0.053608924 0.035221457
0.00457573 0.05468308 0.0029018482 0.03441882 0.082235776 0.036231235 -0.016593643 -0.020411937
0.11848785 0.024704171 -0.08343613 0.012081627 -0.084178805 -0.073973715 -0.03670488 -0.12704949
-0.022324415 -0.016325379 -0.08089048 -0.017098323 0.07733 -0.017992958 0.08895367 -0.045967717
-0.007423942 0.05884941 0.038304705 0.0027095876 -0.004028329 -0.04107141 -0.0010976527 0.034279577
-0.07202481 -0.0027126519 -0.012304288 -0.012846121 0.06685631 -0.081609935 0.0032372924 0.035665147
-0.002252814 -0.02114229 0.046200037 -0.099263005 -0.043118946 0.0021454948 -0.06961447 -0.0979544
-5.284012e-05 -5.8151098e-05 -3.623201e-05 -7.52063e-05 -6.709893e-05 -3.4058845e-05 -0.00016029016 -0.00013144227
-8.058845e-05 -0.0016317177 -0.0015712914 -0.0017112567 -0.001569524 -0.0015463601 -0.0017782494 -0.0016605863
-0.0017446402 -0.002079827 -0.00089682004 -0.0009699605 -0.0011451422 -0.0010798814 -0.0012423487 -0.0013733999
-0.0013535983 -0.0015117667 -0.0015137902 -0.00122324 -0.0013964394 -0.0014138437 -0.0012047462 -0.0013527243
-0.0015068537 -0.0013746987 -0.0016191523 -0.0019044743 -1.150645e-05 -4.916386e-05 -0.000115679366 5.02237e-05
2.704539e-05 -9.266424e-05 6.527431e-05 -6.120115e-05 -0.00028059803 -0.00029271044 -0.0002576799 -0.00026078385
-0.00025962098 -0.00026809613 -0.00026638212 -0.00042623412 -0.00044165467 -0.00047126212 -0.0001518302 -0.00023926841
-0.0002583843 -0.0001551437 -0.00022304148 -0.00022296906 -0.00012751212 -0.0001271428 -0.00011813143 -0.00044149708
-0.0006022773 -0.0007108278 -0.0005561322 -0.00069936435 -0.0008494564 -0.0007410007 -0.0009218471 -0.0011117533
-0.0016936784 -0.0018302131 -0.0019051876 -0.0015458352 -0.0016784165 -0.0018435046 -0.0016970282 -0.0019312076
-0.0022155049 0.00017222877 -0.00012576996 -0.00048362362 -6.128454e-05 -0.0003134765 -0.00071595906 -0.00036056308
-0.0005284977 -0.0010256288 -0.001218841 -0.0012380445 -0.001156595 -0.0012341609 -0.0012251048 -0.0011001491
-0.001274157 -0.001211587 -0.0010948421 -0.00012404898 -0.0003630519 -0.0004660021 2.3252389e-05 -0.00029769924
-0.00045658718 8.037909e-05 -0.00032105387 -0.00053925527 5.3187705e-05 -0.0001687965 -0.00053176464 0.00041549813

conv3.bias f4 [16]
00000000: 0fdd ebbc 66b5 72bb 91ea 8c3d 30f9 e33d
00000010: b32a 4cba 196d b63d 1a01 9a3d 383e 31bd
00000020: 2f66 853d 1dbf bdbd e2b8 6d3d 8bc2 cfb9
00000030: 11f2 9ebd 7bf0 34bd 1e52 d9ba 505c a03d
-0.028791932 -0.0037034391 0.068806775 0.11131513 -0.0007788345 0.089075275 0.07519741 -0.043272227
0.065136306 -0.092649676 0.058037646 -0.00039627063 -0.07761014 -0.044174653 -0.0016580259 0.07830107

conv4.weight f4 [16, 16, 3, 3]
00000000: 6bd6 ccbd b11a d6bd 0a87 8c3c b51b 463b
00000010: 4ec4 c6bd 192b b23b f69e ffbc 430c ccbd
00000020: b92f 093b 53ce cb39 ab22 f039 ff1c fb39
00000030: e197 db39 272a f239 ff4c fd39 a560 f839
00000040: 6f2f 033a 60ba 033a 3e51 f53b e9f6 8abd
00000050: 9f49 a4bd 5ef3 c93d cc1c 9ebd b4e6 af3b
00000060: 5bed f43d 5cce b83c 4024 e73c ffb7 df3d
00000070: 2b91 1d3e b560 8d3d b735 7e3d 0997 c73d
00000080: f019 0f3d 5f7c f53c ee02 ae3d 92d2 db3c
00000090: 6b6f c5b6 ce09 99b6 6f97 5fb6 6fc7 b6b6
000000a0: 64b6 86b6 7aae 45b6 b2fd eeb6 5109 b0b6
000000b0: 6afc 70b6 0de5 0d3e 2a27 c13d 4c5a 4abc
000000c0: 3285 f93d eed5 adba 2d76 4fbb 4932 e13d
000000d0: f199 7a3d 95e8 293c b1f3 85bc c9ea 903d
000000e0: 70ab 843c bb43 293d f57b 923d 0850 cc3d
000000f0: 9412 43bd 5f4e 713d 06df b63d d229 98bd
00000100: ddb6 7ebd f087 583a 9ad7 1ebe 7c59 98bd
00000110: b664 7a3d 6357 21be 3d4e 7e3d 633c c739
00000120: 2eee 14bc 54e7 8d3c b61a 493d 56bc 60bc
00000130: 89d6 683c d729 f43d 7d5f 573c ff95 5e3d
00000140: 8cd0 393c c6df 4d3d cb64 95ba b464 36bd
00000150: 2581 783d 8510 ed3c 4dc8 18bd 9625 fa3d
00000160: 9068 d33d 94d1 5bbc bf6f 79bd fbdc ab3d
00000170: f024 a93d a9fd ce3b 376d 2ebc 97b1 773d
00000180: 9a98 323c b153 57bc 4f35 463d 2065 6aaa
00000190: e857 e0a9 3ab5 b9a6 caec b2aa 4154 66aa
000001a0: 9575 85a7 a6c6 e3ac d408 aeac 930c 09aa
000001b0: 1c5e 00bd 44f9 aabc 9341 803d e2c2 acbd
000001c0: a54f a0bb ff95 3bbc a457 68bd 6978 1fbd
000001d0: 4d09 103d 88b6 203d 4760 9d3d e588 983c
000001e0: 5954 93bd 66ce b23d 30c0 33bd b1f4 55bc
000001f0: 858d c9bc c55d adbd 20c8 15b9 ae2c ffb8
00000200: 9993 d3b8 2615 f3b8 7af9 ceb8 6891 afb8
00000210: 78bb e8b8 5a14 ceb8 5dc7 b4b8 40f1 eabc
00000220: ce7b 37bd a654 72bd cff8 87bd 6018 86bc
00000230: 1ed4 a83d ba89 26bd ba0b a1bc 500f db3b
00000240: c272 44bd ba8a 983b 7960 e73c d087 3fbd
00000250: c9f0 5bbd 7e7b 923d c898 d0bd 2276 c63b
00000260: edd4 47bc c633 48b7 ef41 9db7 8a2f e6b7
00000270: 3070 1eb7 a280 80b7 64d0 8bb7 4dde 05b7
00000280: d4bc 01b8 e370 87b7 6a99 3ebc 3b14 823a
00000290: 8cbc 29bd 2a8c 4d3d 680e 89bd e578 a73b
000002a0: 5c8d e83c efa2 d1bb 4ea9 33bd c14c 393d
000002b0: bcc3 cabc 563c 69bd d048 933d 84a8 19bc
000002c0: 8e55 3cbd 316a 2c3d 24f2 cf3c c31a d4bc
000002d0: 7861 4733 a8e2 8733 27cf 7c33 7bc1 3033
000002e0: 2d1e 5433 f4f9 0433 6522 8f32 763b 7632
000002f0: 64c1 9931 50d9 46bd 1461 b8bd 0077 67bd
00000300: c3bf 973b 05e8 e3bd 4e66 afbd e6ff 7f3d
00000310: 3f77 02bd 9bb4 7dbd 7366 7b3c 1924 cf3d
00000320: 9330 fd3d ce87 dabd 8f44 253c 8c54 0a3e
00000330: d52f 3f3c 2b12 89bc 9c9f 2bbc e867 c0ba
00000340: 59e7 963d f6c6 283e a330 9ebd f1eb 0a3e
00000350: 9f6a 343e 6665 6cbd 3e92 913d f285 3d3e
00000360: 232a 11bd c5e1 1cba 5be0 7b3d 5108 15bd
00000370: 5ed5 e8bc 8417 fe3c caf7 8bbd 25f8 abbb
00000380: 9ac9 553d 9071 b33c c6e4 9dbd 087d 67bd
00000390: bee8 053c b8c3 d2bc f4a7 fcba a25e 103e
000003a0: 89e3 d23d c8e0 db3c aaa4 29bd 28f3 f53c
000003b0: 2a4e 283d 0706 bcbd 2af2 883d 2cf8 a73b
000003c0: 22f6 bbbc 2be0 97bc 4f56 de3c b9ff 9ba6
000003d0: 6fef e8a6 f9be 1fa6 b689 16a7 dbbc b8a7
000003e0: 5e1c 63a6 f562 28ab 567f a9ab 75b2 fcaa
000003f0: 5e24 83bd 8cdc f7b9 2d26 823d 7fce ffbd
-0.100018345 -0.1045431 0.017154235 0.0030228917 -0.09705411 0.0054372665 -0.031203728 -0.09963276
0.0020932986 0.000388729 0.00045802197 0.00047896054 0.00041884094 0.00046189243 0.00048313287 0.00047374252
0.00050043216 0.00050250255 0.0074864915 -0.067853756 -0.080218546 0.09860872 -0.07720336 0.005368078
0.119593345 0.022559337 0.028215528 0.10923766 0.15387408 0.06903211 0.062062945 0.097456045
0.034936845 0.029966531 0.084966525 0.026833806 -5.8840283e-06 -4.5608967e-06 -3.3317735e-06 -5.44724e-06
-4.0147443e-06 -2.9456846e-06 -7.1224867e-06 -5.2462933e-06 -3.5909711e-06 0.13856907 0.09431298 -0.01235063
0.12183608 -0.0013262609 -0.0031656132 0.10995919 0.061181966 0.010370393 -0.016351553 0.07076032
0.016195029 0.04132436 0.07152549 0.09976202 -0.04762514 0.05891263 0.08929257 -0.074298516
-0.06218611 0.00082600024 -0.15511933 -0.07438943 0.0611312 -0.15755992 0.062086333 0.0003800123
-0.00908999 0.01732222 0.04909774 -0.013716778 0.014211305 0.11922043 0.013145325 0.054342266
0.011341225 0.050262235 -0.0011397836 -0.04452963 0.060670037 0.028938541 -0.037300397 0.122142
0.10322678 -0.013416667 -0.060897585 0.08391758 0.082589984 0.0063168597 -0.010646156 0.060472097
0.010900641 -0.013142512 0.048390683 -2.081846e-13 -9.9628476e-14 -1.2886075e-15 -3.1783457e-13 -2.0457335e-13
-3.70424e-15 -6.4737824e-12 -4.9463576e-12 -1.2172407e-13 -0.03133975 -0.020870812 0.06262507 -0.084356084
-0.004892307 -0.011449336 -0.056724206 -0.03893319 0.03516512 0.039236575 0.07684379 0.018619964
-0.071938224 0.08730774 -0.043884456 -0.013058827 -0.024603615 -0.08465151 -0.000142843 -0.0001216767
-0.00010088756 -0.00011591082 -9.869314e-05 -8.371734e-05 -0.00011097541 -9.826636e-05 -8.620203e-05 -0.02867949
-0.044795804 -0.05916276 -0.06639253 -0.016369045 0.08243583 -0.04065869 -0.019658912 0.006685175
-0.047961004 0.0046552094 0.028244244 -0.04676038 -0.053696427 0.071524605 -0.10185391 0.006056563
-0.012196762 -1.1932983e-05 -1.8746561e-05 -2.7440274e-05 -9.443655e-06 -1.5318688e-05 -1.666713e-05 -7.979176e-06
-3.0931857e-05 -1.6145821e-05 -0.011633256 0.0009924242 -0.041439578 0.0501825 -0.06692201 0.0051108473
0.028387718 -0.006397597 -0.043862633 0.045239214 -0.024751537 -0.056942306 0.07191622 -0.009378556
-0.04598003 0.04209346 0.025384016 -0.025891667 4.6421945e-08 6.327656e-08 5.8861726e-08 4.1154163e-08
4.938754e-08 3.0960976e-08 1.6663032e-08 1.4332604e-08 4.474872e-09 -0.04854709 -0.09002891 -0.05650997
0.004631014 -0.111282386 -0.08564435 0.062499903 -0.031852003 -0.061939817 0.01534425 0.10114307
0.123627804 -0.10670434 0.010087146 0.13508815 0.011669119 -0.016732296 -0.010475066 -0.0014679404
0.07368345 0.16482148 -0.077241205 0.13566567 0.17618798 -0.05771389 0.071079716 0.18508127
-0.035440575 -0.000598457 0.06149326 -0.036384884 -0.028422054 0.031017072 -0.068343714 -0.005248087
0.052194215 0.021904737 -0.07709651 -0.056515723 0.008173166 -0.025728092 -0.0019276128 0.140986
0.10297305 0.026840582 -0.0414168 0.030023172 0.041090168 -0.09180837 0.06686814 0.00512602
-0.022944514 -0.018539509 0.027140765 -1.0824599e-15 -1.6163132e-15 -5.5423023e-16 -2.0891335e-15 -5.1275017e-15
-7.879489e-16 -5.982292e-13 -1.2043515e-12 -4.4888022e-13 -0.06403421 -0.00047275831 0.06354938 -0.12490558

conv4.bias f4 [16]
00000000: 06a4 9bbc 3735 2c3b 4d5e 4cbd 779e bd3d
00000010: da7a 77bc 9cb3 8b3c 57e1 c83c e438 663d
00000020: 4752 84bd fda7 7fbd c981 efba 7939 4dbd
00000030: e752 403d 4bc1 c33c 14af 03bd db85 83bd
-0.01899911 0.0026276836 -0.04989462 0.092587404 -0.015104974 0.017053418 0.024521513 0.0562066
-0.06461006 -0.062416065 -0.0018272932 -0.05010364 0.04695406 0.02389588 -0.03214939 -0.06422015

fc1.weight f4 [64, 784]
00000000: 3f7e 0080 1f63 0000 53ba 0080 7c5e 0080
00000010: c477 0080 557b 0080 fc15 0000 af7d 0000
00000020: 9dbd 0080 a71d 0080 7bb2 0000 b905 0080
00000030: 89ac 0080 1597 0080 222a 0000 5335 0000
00000040: 0cc5 0000 7192 0000 02b4 0000 9246 0000
00000050: 2c0d 0000 9eaf 0000 7c6d 0080 a372 0080
00000060: 0532 0080 f2ba 0080 422d 0080 1676 0000
00000070: a8a1 0080 b614 0000 06a6 0080 651d 0080
00000080: 1027 0000 a0ad 0000 c78c 0080 79b2 0080
00000090: 827a 0080 a834 0080 11b8 0080 2887 0080
000000a0: e7b9 0000 1621 0080 4d09 0000 1f35 0080
000000b0: d46b 0080 0db1 8f80 b58f 0000 7da5 0000
000000c0: ed95 0000 2c1d 0000 dd5c 0080 5d74 0080
000000d0: 2041 0080 e12b 0000 ffc7 0000 83a3 0000
000000e0: 8c17 0080 fb89 0000 62df 0080 2e1f 0080
000000f0: 1e93 0080 bcc3 0080 8a3d 0080 d375 0080
00000100: 6b51 0000 3bd3 0000 b3b0 0080 a089 0000
00000110: 281d 0080 c71d 0080 b16e 0000 41be 0080
00000120: f82a 0080 f223 0080 d19d 0000 e5ce 0000
00000130: 5f88 0080 4d3c 0000 c8db 0000 9f6b 0000
00000140: 248c 0000 8ac2 0080 2f6d 0000 e0da 0000
00000150: 03d3 0080 86c3 0000 21e7 0000 7fb7 0080
00000160: 2d49 0080 14a1 0000 281e 0080 e1b6 0080
00000170: 2681 0000 4ba5 0000 900d 0000 0d3e 0080
00000180: eb21 0080 93cf 0000 01cd 0000 02a7 0080
00000190: 986c 0000 2ac1 0080 357c 0080 2e0c 0080
000001a0: 76da 0000 c2c6 0080 6ad1 0000 2395 0000
000001b0: 01d1 0000 9735 0000 ebb7 0080 c12d 0000
000001c0: d81a 0000 25c5 0000 4130 0000 4ad8 0080
000001d0: fbe0 0000 4bc7 0080 0961 0000 e03c 0000
000001e0: 76cb 0000 5b6e 0000 d5ab 0080 443c 0080
000001f0: eed7 0080 a30b 0100 b9a6 0080 a5d9 0080
00000200: 6550 0080 9e9e 0080 6f93 0080 07d3 0000
00000210: cda3 0080 c05b 0000 c4bc 0080 75ae 0080
00000220: 8728 0080 f7ad 0000 80cc 0080 539c 0080
00000230: 0b8d 0080 90e0 0080 572a 0080 f2fb 0080
00000240: fa4c 0080 e51e 0000 7312 0080 bd84 0080
00000250: c349 0000 c216 0000 d6a9 0000 c4ba 0000
00000260: 895e 0080 f405 0080 7723 0080 564c 0080
00000270: 3294 0080 9153 0000 743b 0080 035f 0000
00000280: 4d49 0080 ab64 0080 6705 0080 859a 0000
00000290: 7214 0000 c328 0080 008d 0000 b8a4 0080
000002a0: 352e 0080 d2ba 0000 bd8f 0000 c19a 0080
000002b0: 8347 0000 003e 0000 3bb5 0080 bb36 0080
000002c0: 8ea7 0080 bcab 0000 073d 0080 533c 0080
000002d0: 5e4a 0000 c42c 0000 643d 0000 a985 0000
000002e0: b116 0000 db57 0080 5e34 0000 5db9 0080
000002f0: 2b47 0000 c838 0000 8876 0080 858a 0080
00000300: edb8 0000 9e38 0000 811b 0080 fb25 0000
00000310: 4651 0080 cdc2 0080 8383 0000 fcc4 0080
00000320: b32e 0080 e085 0000 961c 0000 c59b 0000
00000330: ccc6 0000 2ccf 0000 768c 0080 0ee6 0080
00000340: 7cda 0080 315d 0000 d3a0 0080 3522 0000
00000350: 4d57 0000 b91f 0080 f386 0000 4bd6 0000
00000360: a7c3 0000 5722 0080 b086 0080 22e0 0080
00000370: 6ddb 0080 585f 0080 45e2 0080 0480 0080
00000380: 2a8d 0080 5ccc 0000 839b 0080 d714 0000
00000390: 3fca 0080 0809 0000 a5a3 0000 3abf 0080
000003a0: 9b95 0000 2bd6 0000 a2c1 0080 ffc8 0000
000003b0: 180f 0000 c4c9 0080 d8bc 0000 74d6 0080
000003c0: c9ab 0000 72af 0000 167d 0080 3475 0000
000003d0: 7628 0080 952b 0000 43b6 0000 322f 0000
000003e0: aa3b 0080 a62e 0000 859a 0000 5769 0080
000003f0: 4bcd 0080 c30b 0000 ad09 0000 08c1 0000
-4.5289e-41 3.5558e-41 -6.684e-41 -3.3895e-41 -4.2964e-41 -4.4243e-41 7.887e-42 4.5087e-41
-6.802e-41 -1.0637e-41 6.4027e-41 -2.053e-42 -6.1894e-41 -5.4198e-41 1.5114e-41 1.9129e-41
7.0687e-41 5.2533e-41 6.4575e-41 2.5316e-41 4.725e-42 6.3e-41 -3.9276e-41 -4.1124e-41
-1.7944e-41 -6.7063e-41 -1.6235e-41 4.2361e-41 -5.7991e-41 7.43e-42 -5.9558e-41 -1.0545e-41
1.4013e-41 6.2285e-41 -5.0501e-41 -6.4024e-41 -4.3948e-41 -1.889e-41 -6.603e-41 -4.8485e-41
6.6689e-41 -1.1869e-41 3.336e-42 -1.9056e-41 -3.8681e-41 -1.319599e-38 5.1552e-41 5.9366e-41
5.3783e-41 1.0465e-41 -3.3313e-41 -4.1743e-41 -2.3362e-41 1.5741e-41 7.1745e-41 5.8657e-41
-8.447e-42 4.9498e-41 -8.0135e-41 -1.1185e-41 -5.2776e-41 -7.0216e-41 -2.2076e-41 -4.2267e-41
2.9207e-41 7.5775e-41 -6.3388e-41 4.937e-41 -1.0459e-41 -1.0682e-41 3.9709e-41 -6.825e-41
-1.5414e-41 -1.2895e-41 5.6614e-41 7.422e-41 -4.8921e-41 2.1632e-41 7.8843e-41 3.8607e-41
5.0273e-41 -6.9787e-41 3.9168e-41 7.8518e-41 -7.5697e-41 7.014e-41 8.2913e-41 -6.5826e-41
-2.625e-41 5.7784e-41 -1.0818e-41 -6.5605e-41 4.633e-41 5.9296e-41 4.865e-42 -2.226e-41
-1.2167e-41 7.4464e-41 7.3542e-41 -5.9911e-41 3.8956e-41 -6.9294e-41 -4.4557e-41 -4.369e-42
7.8369e-41 -7.1301e-41 7.5124e-41 5.35e-41 7.4976e-41 1.9224e-41 -6.5977e-41 1.6413e-41
9.63e-42 7.0722e-41 1.731e-41 -7.759e-41 8.0708e-41 -7.1493e-41 3.481e-41 2.1838e-41
7.2988e-41 3.9588e-41 -6.1642e-41 -2.1619e-41 -7.7461e-41 9.601e-41 -5.9809e-41 -7.8076e-41
-2.884e-41 -5.6901e-41 -5.2889e-41 7.5702e-41 -5.876e-41 3.2914e-41 -6.7716e-41 -6.2583e-41
-1.4538e-41 6.2407e-41 -7.3361e-41 -5.6079e-41 -5.0597e-41 -8.0558e-41 -1.5189e-41 -9.0381e-41
-2.7614e-41 1.1083e-41 -6.618e-42 -4.7618e-41 2.6461e-41 8.164e-42 6.0926e-41 6.6999e-41
-3.3913e-41 -2.136e-42 -1.2722e-41 -2.7384e-41 -5.3162e-41 2.9978e-41 -2.1328e-41 3.4084e-41
-2.6295e-41 -3.6113e-41 -1.938e-42 5.5431e-41 7.334e-42 -1.4623e-41 5.0581e-41 -5.909e-41
-1.6576e-41 6.7019e-41 5.1564e-41 -5.5515e-41 2.5654e-41 2.2241e-41 -6.5013e-41 -1.9634e-41
-6.0107e-41 6.1607e-41 -2.1892e-41 -2.164e-41 2.6678e-41 1.6059e-41 2.2023e-41 4.7948e-41
8.14e-42 -3.1517e-41 1.8786e-41 -6.6496e-41 2.553e-41 2.0369e-41 -4.2521e-41 -4.9691e-41
6.6339e-41 2.031e-41 -9.867e-42 1.3625e-41 -2.9155e-41 -6.9881e-41 4.7178e-41 -7.0665e-41
-1.6753e-41 4.8025e-41 1.0255e-41 5.588e-41 7.1315e-41 7.4319e-41 -5.0388e-41 -8.2528e-41
-7.8377e-41 3.3431e-41 -5.7693e-41 1.2271e-41 3.1318e-41 -1.138e-41 4.841e-41 7.6874e-41
7.0187e-41 -1.2319e-41 -4.8317e-41 -8.0404e-41 -7.8715e-41 -3.4203e-41 -8.117e-41 -4.5923e-41
-5.064e-41 7.331e-41 -5.5787e-41 7.476e-42 -7.2552e-41 3.24e-42 5.8705e-41 -6.8599e-41
5.3668e-41 7.6829e-41 -6.9462e-41 7.2104e-41 5.415e-42 -7.238e-41 6.7744e-41 -7.6931e-41
6.1625e-41 6.2938e-41 -4.4872e-41 4.2045e-41 -1.4515e-41 1.5634e-41 6.5383e-41 1.693e-41
-2.1403e-41 1.6734e-41 5.5431e-41 -3.7789e-41 -7.3645e-41 4.22e-42 3.471e-42 6.9247e-41

fc1.bias f4 [64]
00000000: e869 3ab1 c4fb 32ad 1a17 b4b0 bef8 fcbb
00000010: b555 fb3c 2ead 833c c9c0 f93a d8e4 b1bc
00000020: 702f bca6 ba15 fdb5 6c65 033d faf3 4d3c
00000030: 5104 423d d90a f789 83d0 0a3d 910b 2ab0
00000040: 0b75 703c cde9 dea8 b35f 033c b208 7b3d
00000050: f951 57b9 6792 7c3d 415f acbc fc98 a998
00000060: 5d93 9bb8 d3ec 13bb 6468 693d cae6 133d
00000070: 70eb c0bb 9d8e d33c 2e79 91b9 f706 483d
00000080: 4182 533d 5b31 08bb 2d7a b58b cd75 263d
00000090: 3a77 4f3d 7d80 5f3c 07aa 11ba 5d83 b7ad
000000a0: ddc2 87ae 991b 69b9 ab1b 5b3d 0682 923c
000000b0: 7a4c d33c b6e1 b23c 498f c73c 2ee5 0f3d
000000c0: 9884 c63c 1d9c 6e3d 549f 813d 0bc5 418a
000000d0: dbf8 d83b b451 99bc 09c1 f799 8053 93b9
000000e0: c4f4 1dbc d5f3 0d3d 3593 823d 103c be3c
000000f0: da9a 1c3d 2780 163d a58e 09ba 2d61 e4ad
-2.7126763e-09 -1.0174032e-11 -1.310329e-09 -0.007720082 0.030680517 0.01607379 0.0019054647 -0.021715567
-1.3057978e-15 -1.8856292e-06 0.032079145 0.012570376 0.047367398 -5.9473288e-33 0.03389026 -6.1862077e-10
0.014676343 -2.4748346e-14 0.008018422 0.06128759 -0.00020534535 0.061663058 -0.021041514 -4.383995e-24
-7.4184245e-05 -0.0022571578 0.05698432 0.03610877 -0.0058874413 0.02582484 -0.0002774684 0.048834767
0.05163789 -0.0020781371 -6.9902494e-32 0.040639687 0.050650813 0.013641474 -0.0005556647 -2.0863028e-11
-6.173704e-11 -0.00022230893 0.053493183 0.017884266 0.025793303 0.021836143 0.024360316 0.035130672
0.024233148 0.05825435 0.063292176 -9.329672e-33 0.0066214628 -0.018715717 -2.5617168e-23 -0.00028100237
-0.009640876 0.034656364 0.06375734 0.023222 0.038233615 0.03674331 -0.0005247391 -2.5963754e-11

fc2.weight f4 [1, 64]
00000000: 9249 14b9 98f0 eab9 f272 8c37 130c b9be
00000010: 241a 95be 5382 b8be ed79 983d 11ab 85be
00000020: 59d3 483a 9ae2 f2b7 ed9b 8bbe f156 cdbe
00000030: 9c5c c63d 3700 c5b9 ed7d ae3d c9bf 33b9
00000040: 1df7 993d ea8c 2eba 9489 6f3e c8ed ed3d
00000050: 20da 10bb 2236 c23d 9209 99be 49af 43ba
00000060: 6078 183b 4498 093b 4740 6b3d 307a e03d
00000070: df56 bebe 83f4 e2be 75aa bcba bf02 90be
00000080: dbfb 573d 4d90 40bb 1051 0ab7 7ce8 fe3d
00000090: dceb a03d 3497 a5be 87db bf3a c7b0 10b9
000000a0: 94eb 5aba 67e5 ebba a845 ee3d 5484 d4be
000000b0: f223 803d f590 b9be 4d18 7d3e 9de3 833d
000000c0: 920d b0be 69fb 8f3d c97b f03d 1499 20ba
000000d0: 011d abbe 8f4c 7e3e b31f 33b9 a742 0c3a
000000e0: 339a 773e 3037 b4be b63c c23d d23e 293e
000000f0: 9d99 c7be e197 bfbe 86e1 5f39 dde2 be39
-0.00014141787 -0.00044811214 1.6742826e-05 -0.36142024 -0.29121506 -0.3603693 0.074451305 -0.26107076
0.0007660888 -2.8954168e-05 -0.272674 -0.40105394 0.096856326 -0.00037574928 0.08520112 -0.00017142216
0.07517836 -0.0006658571 0.23392326 0.11617619 -0.002210267 0.09482981 -0.29890114 -0.0007464779
0.0023265108 0.0020995298 0.057434347 0.109608054 -0.37175652 -0.44327173 -0.0014394062 -0.28127095
0.052730422 -0.0029382885 -8.244315e-06 0.124466866 0.078574866 -0.3234192 0.0014637568 -0.00013798765
-0.0008351144 -0.0017997444 0.116343796 -0.41507208 0.06256856 -0.36243406 0.24716301 0.06439898
-0.34385353 0.070303746 0.1174236 -0.0006126326 -0.33420566 0.24833892 -0.00017082579 0.0005350508
0.24179916 -0.35198355 0.09484236 0.1652787 -0.38984385 -0.37420562 0.00021350951 0.0003640865
